saved_models/regression-6_epoch=9-valid_loss=1024159.44.ckpt (torch, 267160 bytes, 34 tensors)

_backbone.transformer_blocks.mha_block_0.mha.to_qkv.weight f4 [384, 32]
00000000: 7165 0a3e 5b3f 163e a4a1 29bd 5149 263e
00000010: e0a5 1ebd b01c 123d a642 b0bd 7a9e d43d
00000020: 8993 1f3e 06cd 04be 6157 1d3e 9084 073d
00000030: 1bbd 053e d81f c43c 1a92 ae3d 6877 ccbc
00000040: 958b 0b3e d80c d63c 9c03 a9bd ec90 383d
00000050: f2cd a6bd 48d4 a9bc 860b 93bd 7a2a f03d
00000060: 2ae4 0ebe 50e7 a6bd 0c76 4cbd 13af d9bd
00000070: 70ae 883c fdc9 32be ef7a 233e 2ac5 19be
00000080: 7bc0 0b3e 2800 f13c 761c 6bbd c6b8 df3d
00000090: 30b2 e13c cb41 123e d04f 9e3c c65a 64bd
000000a0: 388c 423d d85a 44bd e25d 983d 399e 213e
000000b0: aa47 d13d fb45 9ebd fefd d03d 708e 013d
000000c0: 1edb b73d 16aa dcbd 4c31 33be a1e0 8bbd
000000d0: 91d8 0abe 8d88 143e 948e 503d 18f6 953d
000000e0: 60ff 643d 4089 49bb cfaa 0d3e e09d 00be
000000f0: c05c 363c 1e1b f7bd 4c45 5f3d 025c 79bd
00000100: 7cde 5d3d f8da 16bd cf22 163e bd94 d6bd
00000110: 4ceb d7bd a3ee d7bd 09d1 223e b04c 713d
00000120: 9d2f 2e3e 1664 15be 7b8c 33be 7b9f 0dbe
00000130: 1a8a f3bd e4a3 923d 26a3 813d d369 163e
00000140: 49f7 babd 58ce f6bd fe16 c03d 7056 92bd
00000150: daba db3d f4d2 2bbd 4e1a cf3d 6fa5 0cbe
00000160: e6b3 b6bd 10c1 5c3d 5013 193d 209c 38bd
00000170: dacc d73d 021e f63d 3945 03be eb47 c1bd
00000180: a5c0 253e c653 74bd 4059 80bd 4127 2fbe
00000190: 2a54 cfbd 90e0 343d 8025 bfbc 3f66 03be
000001a0: 20e0 873b 4a4d f7bd 8293 19be 755c c7bd
000001b0: 286e 1ebe 1886 e6bd d3f2 343e 94c2 083d
000001c0: a821 5f3d 7ad5 28be 0bc7 edbd 6c03 71bd
000001d0: 1873 e23c 6448 1fbe 22fe 9bbd bdbd d8bd
000001e0: 006c 003a 3bb7 86bd b0b3 48bc 0254 f5bd
000001f0: 6880 f8bd c936 d3bd 8ed9 77bd 06e0 0ebe
00000200: 7dc7 173e 0cb4 0fbd 9bbf 1b3e 089c 613d
00000210: 6049 19be 228b fa3d e439 47bd 63c7 8abd
00000220: 4142 16be 59f6 33be 8c2a 4f3d 942b 1ebd
00000230: 34f3 8c3d 538e 14be df64 063e bfe0 04be
00000240: c80e fabc e03c 173d 32e7 ba3d 8723 123e
00000250: b7e6 243e c488 0fbe 003a 363d e4b8 9bbd
00000260: 20b2 9ebc be7d 07be 0de2 243e f6db 04be
00000270: f67d c13d 2c78 7e3d 104b 6b3d 1ebc c3bd
00000280: ad89 243e c41d 1f3d 684a ba3c 2f86 1fbe
00000290: cafa 973d c840 d9bc d4db a5bd 677c 1b3e
000002a0: a46e 213d b54e c8bd eb3d b7bd c050 0abc
000002b0: fe25 ca3d b806 39bd f791 cebd 82f4 77bd
000002c0: 283c 07be 601d 813d c31d 0c3e 3d6b 2abe
000002d0: e02a 283d b606 bb3d e84b 033d 4fee 80bd
000002e0: 96f6 bc3d 8e41 be3d 4a60 873d c878 febc
000002f0: 90bc 3fbd c8ec 9a3c 90d2 ffbc 9cc6 57bd
00000300: ea6a e73d 6591 1b3e 105d 8fbc 601e 22bd
00000310: 000e 293b 00ef 2cbc 8c13 2e3d 2ce9 4a3d
00000320: 7b69 24be 1e9b 85bd 1571 183e b208 8d3d
00000330: 300e 10bc 7346 dabd 427f ddbd b026 22be
00000340: a205 6cbd 2086 743d fad7 e63d fe26 a73d
00000350: ce02 20be 6ab7 d9bd 008b e4bc e51b 2f3e
00000360: 887c d13c cc83 3bbd eac7 953d d3e4 89bd
00000370: e254 eabd ab1f 043e a09e a4bd 4827 11bd
00000380: 2d14 34be 464d f23d 8325 093e c0f1 833d
00000390: b270 fcbd bba7 32be 2505 13be 75fc 063e
000003a0: 1ed1 ad3d 1d54 183e 42a9 bd3d 2042 373d
000003b0: 80e6 e2ba 92aa 09be a317 1bbe f250 29be
000003c0: 7234 943d d8bf b1bd f0b8 11bd eb5a d0bd
000003d0: a8f1 03bd c1d0 febd ce8f ecbd 2c2f 703d
000003e0: 7431 57bd 8a80 df3d 544a 68bd 34ca 04be
000003f0: c882 ffbc 4f7f afbd 7e86 5dbd 6154 2cbe
0.1351526 0.14672606 -0.04141392 0.16238905 -0.03873241 0.03567189 -0.08606462 0.103817895
0.15583624 -0.12968835 0.15365364 0.033085406 0.1306042 0.023940966 0.085239604 -0.024959281
0.13627465 0.026129171 -0.082526416 0.045060083 -0.0814475 -0.020731106 -0.07179932 0.11726852
-0.13954225 -0.08149588 -0.049917266 -0.10629096 0.01668474 -0.17459865 0.15964864 -0.15016618
0.13647644 0.02941902 -0.05740019 0.109239146 0.027550787 0.1428291 0.019325167 -0.05575063
0.047497004 -0.047938198 0.07439782 0.15783013 0.10218747 -0.077281915 0.10204695 0.03162998
0.0897734 -0.10774629 -0.17499274 -0.06829954 -0.13559176 0.14505215 0.050917223 0.07322329
0.055907607 -0.0030751973 0.1383469 -0.12560225 0.011130512 -0.12065719 0.054509446 -0.06087876
0.054167256 -0.03682992 0.14661716 -0.10477588 -0.10542926 -0.10543563 0.15900053 0.058911026
0.1701035 -0.14588961 -0.17534058 -0.13830368 -0.11891575 0.07160166 0.06329946 0.14688806
-0.09129197 -0.12051076 0.093793854 -0.07145393 0.107289985 -0.041949227 0.10112439 -0.13734983
-0.08921032 0.053895056 0.037371933 -0.045070767 0.10537119 0.12017442 -0.12819375 -0.094375454
0.1618677 -0.059650205 -0.06267023 -0.17104818 -0.10123475 0.044159472 -0.023333311 -0.12831973
0.004146591 -0.120752886 -0.14997676 -0.09734432 -0.15471709 -0.11256045 0.17670755 0.03338869
0.054475456 -0.16487685 -0.1161023 -0.058841154 0.027642772 -0.15554959 -0.07616831 -0.10583065
0.0004898906 -0.06577917 -0.012249872 -0.11978914 -0.121338665 -0.10313184 -0.06051021 -0.13952646
0.14822192 -0.035083815 0.1520981 0.055080444 -0.14969397 0.12233569 -0.048639193 -0.06776311
-0.14673711 -0.17574443 0.050577685 -0.038615778 0.06882325 -0.14507417 0.13124417 -0.12976359
-0.030524626 0.03692329 0.09126128 0.14271365 0.16103636 -0.14017016 0.044488907 -0.076036245
-0.019372046 -0.1323156 0.16101857 -0.12974533 0.09447853 0.062126324 0.057444632 -0.09557365
0.16068144 0.038846746 0.022740558 -0.1557853 0.07420881 -0.026520148 -0.080985695 0.15184174
0.039412156 -0.09780637 -0.08947357 -0.008442104 0.09870528 -0.045172423 -0.10086434 -0.060535915
-0.13206542 0.06304431 0.13683228 -0.1664247 0.041056514 0.091321394 0.03205481 -0.06295454
0.0922672 0.09289847 0.066101626 -0.031063452 -0.046810687 0.018911734 -0.031228334 -0.052679643
0.11299689 0.15192182 -0.01750043 -0.03957975 0.0025795698 -0.010555029 0.04249911 0.049538776
-0.16055863 -0.06523727 0.14886887 0.06886424 -0.008792445 -0.10657968 -0.10815288 -0.1583507
-0.05762256 0.059698224 0.11271663 0.08161734 -0.1562607 -0.106306866 -0.027898312 0.17100485
0.025572076 -0.04577999 0.07313521 -0.06733098 -0.11441971 0.12902705 -0.08038068 -0.035437852
-0.17585821 0.11831145 0.13393216 0.064425945 -0.123261824 -0.17446797 -0.14357431 0.13182242
0.084871516 0.14875837 0.09260799 0.044740796 -0.0017311126 -0.13443974 -0.15145735 -0.16534784
0.07236566 -0.086791694 -0.03557676 -0.10173591 -0.032212883 -0.124421604 -0.11550866 0.058638737
-0.052537397 0.10913189 -0.05671151 -0.1296776 -0.031190291 -0.08569204 -0.05408334 -0.16829063

_backbone.transformer_blocks.mha_block_0.mha.to_out.weight f4 [32, 128]
00000000: 80a8 ffba cc04 fc3c 572d a7bd 4c61 a8bc
00000010: 7acd 82bd 2344 a9bd 7a04 423d 6cc0 f8bc
00000020: e288 acbd bc84 d0bc 34f5 47bd 76b5 433d
00000030: f063 63bc 356e 5bbd 8afc 13bd 142d a0bc
00000040: a58a 8a3d e0ae 033c f640 8fbd 5c7a bbbc
00000050: ddd1 a63d 92ad 9abd 77c0 07bd 07ae 9d3d
00000060: 4504 12bd 1de2 893d 2a18 6dbd 3b06 893d
00000070: 6e3b 6f3d d85c 87bc f7e9 a7bd 4ee9 f4bc
00000080: 4858 b53c 6e81 f2bc a178 90bd a2fe 9fbd
00000090: 7e64 2c3d 8d7c 823d e420 09bd 205f 5d3b
000000a0: 639f 5dbd 6e09 513d ace7 6dbd 1e54 4dbd
000000b0: c968 13bd 4cf8 84bc 40f6 323c 93a5 aabd
000000c0: c466 04bd 4120 1dbd 9815 93bc f0e1 a4bb
000000d0: 90b5 873b 9edc 383d 761c 4ebd c0c4 fc3a
000000e0: 7180 a43d 10c3 393c 8e78 86bd 02cd 773d
000000f0: 16a4 a0bd 0c25 133d f7dd 953d 287f 353c
00000100: 2a31 423d bba3 8f3d 0650 253d d485 d9bc
00000110: a470 9d3c 4369 923d a0c5 a93c 94dd 8fbd
00000120: 4d84 9d3d 376d af3d 6e17 523d 3ed1 443d
00000130: d268 4b3d f2cf 5bbd 6455 d9bc be79 1c3d
00000140: 386a b83c c2d8 193d 0045 dbba 9272 aebd
00000150: ea9a 2b3d f3b7 63bd dc96 95bd 1304 b33d
00000160: ae98 1f3d 3aed 333d d59e 1ebd 386a 053d
00000170: e026 f63b 7ef3 763d 7866 293c a1ca a13d
00000180: a097 a9bc e90b a73d 4f46 b33d b849 2b3c
00000190: c7b8 84bd 0030 1138 df16 903d 925a 77bd
000001a0: 0163 01bd 38ea 023d 4820 933c 6f2a aa3d
000001b0: 9086 6e3c 0031 31ba b053 3e3c c0ef 94bc
000001c0: e6a5 a6bd 82f7 fdbc 6218 a4bd f172 843d
000001d0: c03d af3b e89f 283c 9002 c9bb 99c2 39bd
000001e0: ca69 7fbd 78a8 5dbc 1414 db3c e71e 46bd
000001f0: 67fc 5fbd ba37 6b3d 1267 fbbc 06f7 4b3d
00000200: 9f4b ad3d 2924 aa3d f9f4 8bbd 90d4 d63b
00000210: 39f0 8dbd 4015 6f3b b063 493c 02b3 1cbd
00000220: 4ce9 d63c f8fd e2bc 02fa 4b3d 00e4 5c3a
00000230: 9e4c 7b3d a6b3 743d 44b0 a13c 202d 873c
00000240: 15dc 23bd 8c13 6fbd be16 743d 96ea 6e3d
00000250: 8819 633c 1de1 973d 9609 3d3d e27e 6c3d
00000260: 04e2 8abc b001 4f3c ddc0 a2bd 0c66 a5bd
00000270: e623 2c3d 163c 5abd 29de 893d a810 92bd
00000280: 29da 95bd 8797 94bd 4259 683d dcf8 6fbd
00000290: e63c 9bbd caee 183d e80c 92bc bb69 acbd
000002a0: 1162 803d bf32 833d cd33 913d 9a43 633d
000002b0: a656 8cbd 5c60 1fbd c546 0ebd 130b b0bd
000002c0: e200 7d3d 9782 12bd e485 f83c dd18 38bd
000002d0: d736 a23d 7a19 7f3d 82de 793d 3a33 313d
000002e0: 5f86 973d 98bc ec3c 9077 773c 3844 a3bc
000002f0: a118 933d d6aa aebd df48 813d 3005 09bc
00000300: e0bc bfbb 9e02 6ebd ac49 1ebd c095 883c
00000310: d486 13bd 38e3 003d 9802 4c3c 0718 9abd
00000320: d2de 453d 4967 1fbd 44ce 02bd 633e 05bd
00000330: 2a0c 0f3d 1e7f b2bd c874 82bd bcb2 113d
00000340: 5e64 dbbc a064 89bc afa4 a2bd 80dc 123c
00000350: ca62 2a3d 37ae 02bd 805d dd3b 8047 243b
00000360: 2c53 99bc cf01 923d d076 ba3c 80a0 893c
00000370: 602e 34bb 80cc f2ba da68 423d f092 a63b
00000380: 88d9 a33c 55e8 923d 56fb 7f3d 51dd 04bd
00000390: 473a 94bd 30b7 be3c 4245 77bd e607 b4bd
000003a0: f29b 783d 2c08 96bd 11ac b23d 2ac4 a6bd
000003b0: 9f64 93bd d625 503d 507b df3b 1dcc 1dbd
000003c0: 626b 093d 1c3a 6bbd 368c 47bd a154 aebd
000003d0: 9072 39bd 037b 9bbd df1c 9b3d 0363 1dbd
000003e0: 48b4 753c 4eb9 22bd cce2 a5bc b53c 843d
000003f0: c85c 933c 8ecc 2e3d b496 ec3c cb88 93bd
-0.0019505173 0.030764006 -0.08162945 -0.020554207 -0.06386848 -0.08264949 0.04736755 -0.030365191
-0.08424546 -0.025453918 -0.04881783 0.047780477 -0.013878807 -0.0535719 -0.036129512 -0.019552745
0.067647256 0.008037299 -0.06994812 -0.022885494 0.08145497 -0.07552637 -0.033142533 0.07699209
-0.035648603 0.06732581 -0.057884373 0.066906415 0.058406286 -0.016523764 -0.08198922 -0.029896405
0.022136822 -0.029602733 -0.07054258 -0.07812239 0.042088024 0.063714124 -0.033478633 0.0033778623
-0.05410708 0.051034383 -0.058082268 -0.05012905 -0.035988603 -0.016231678 0.010922968 -0.08332362
-0.032324567 -0.038360838 -0.017954633 -0.0050318167 0.004141517 0.045132272 -0.05032011 0.001928471
0.08032311 0.01133801 -0.06565963 0.060498245 -0.07843797 0.035924003 0.07317727 0.01107768
0.047410168 0.07013651 0.04035952 -0.026553072 0.01921875 0.07148983 0.020724118 -0.070246845
0.0769125 0.08565753 0.051291876 0.04805111 0.04966051 -0.05366511 -0.026529975 0.03820204
0.022511587 0.037560232 -0.0016728938 -0.08517946 0.041895784 -0.05559535 -0.07304165 0.087410115
0.038963966 0.04392741 -0.038725693 0.032572 0.0075119585 0.060290806 0.010339372 0.078999765
-0.020702183 0.081565686 0.08753645 0.010454588 -0.06480556 3.4615397e-05 0.07035612 -0.06038911
-0.031588558 0.03196165 0.017959729 0.08308875 0.014558449 -0.0006759316 0.011616632 -0.018180728
-0.08137111 -0.03100181 -0.08012463 0.06467236 0.0053479373 0.010292031 -0.0061343387 -0.0453516
-0.062356748 -0.013528936 0.026742972 -0.048369315 -0.05468407 0.057426192 -0.030688796 0.049796127
0.08461689 0.08307678 -0.06833834 0.006556101 -0.069305845 0.0036481172 0.012291834 -0.038256653
0.026234291 -0.027708992 0.049798973 0.00084263086 0.061352365 0.05974164 0.01973737 0.01650101
-0.04000481 -0.05836825 0.059592 0.058329187 0.013861068 0.07415984 0.04615172 0.057738192
-0.016953476 0.01263468 -0.07946942 -0.080761045 0.042026423 -0.05327996 0.06731827 -0.07132083
-0.073170014 -0.07255464 0.056725748 -0.05858694 -0.07579975 0.037337102 -0.01782842 -0.08418604
0.06268705 0.064061634 0.07089958 0.05548439 -0.068524644 -0.038910255 -0.03473546 -0.08595862
0.06176842 -0.03576907 0.030337282 -0.044945586 0.07920616 0.062280156 0.061003216 0.043261744
0.07398676 0.028898522 0.0151041895 -0.01992999 0.07182432 -0.08528678 0.06312727 -0.008363053
-0.005851373 -0.058107965 -0.038644478 0.016672969 -0.036017254 0.031466693 0.01245179 -0.07524114
0.0483082 -0.03891686 -0.03193499 -0.0325302 0.03492371 -0.08715652 -0.063699305 0.035570845
-0.026781257 -0.016771615 -0.07941567 0.008963704 0.04159812 -0.031904425 0.006755531 0.0025067031
-0.018716417 0.07129251 0.022761732 0.016800165 -0.0027493462 -0.001852408 0.047463275 0.0050834343
0.020001188 0.0717322 0.062495552 -0.032437626 -0.07237678 0.02328071 -0.060368784 -0.08790569
0.060695596 -0.073257774 0.08724225 -0.08142884 -0.07196926 0.050817333 0.00682012 -0.038524736
0.033549674 -0.057428464 -0.0487177 -0.085122354 -0.04527527 -0.07591822 0.07573866 -0.038424503
0.014996596 -0.0397275 -0.020249747 0.064568914 0.017988577 0.042675547 0.028880455 -0.072038256

_backbone.transformer_blocks.mha_block_0.mha.to_out.bias f4 [32]
00000000: 42d9 3d3d 3ed2 4d3d ffba 9dbd d868 9cbd
00000010: 3664 1c3d 9e13 513d 803e 9bbd bfd4 ad3d
00000020: 0c91 9fbc dfc0 92bd 3fce 84bd 8cfd a7bc
00000030: c687 3e3d 94b1 79bd 695f 853d a7e5 b43d
00000040: c12a aa3d 56cb 243d f3e4 13bd 5da1 09bd
00000050: b5f9 813d e437 97bc 7897 5d3c 6fef b43d
00000060: 55f1 b3bd 4458 a5bc 1221 0fbd 086a 6abc
00000070: 809a 6e3b 58d8 9cbc 0fb9 af3d 86d2 123d
0.04634977 0.05024933 -0.07701682 -0.07637185 0.038181506 0.0510441 -0.0758028 0.08487844
-0.019478343 -0.071656935 -0.06484651 -0.020506643 0.046516202 -0.060960367 0.06512339 0.08832865
0.08308936 0.04023298 -0.036107015 -0.033601154 0.06346456 -0.018459268 0.0135248825 0.08834731
-0.08786265 -0.02018369 -0.034943648 -0.014307506 0.0036408007 -0.01914613 0.08580219 0.035845302

_backbone.transformer_blocks.mha_block_0.pos_wise_ff.ffn.layer1.weight f4 [128, 32]
00000000: 4b77 e3bd 4167 2f3e e4f8 48bd b087 d03c
00000010: a82e 873c 4d0d 05be 5231 b83d 74f3 dbbd
00000020: a545 21be cff2 173e 82c8 d83d 968a 97bd
00000030: 9591 01be 4178 233e 7c04 803d d850 f0bd
00000040: 9869 16be 7ec9 95bd 2633 c9bd e051 4d3c
00000050: 98a3 8a3c f121 31be 9ea6 b53d 9a6f b83d
00000060: 5809 24be d98a 113e 252a 90bd 9e58 ba3d
00000070: 718b 313e 2272 d63d 6e17 f33d 40d5 cb3b
00000080: f81e d43c 01fc 19be 4454 03be e3ce 113e
00000090: 946f 25be 66eb 9b3d 8250 d5bd ffed 1c3e
000000a0: 7f8e 053e 24a1 23bd e031 b9bc d425 fbbd
000000b0: 55d6 283e a531 dabd ec3a 813d 1eb3 fd3d
000000c0: 9a4c 2ebe b60a 32be 2617 febd 3064 d9bc
000000d0: da11 e13d b65d 5cbd c384 95bd 6eea f03d
000000e0: db2d 113e 3ec9 be3d 3f6d 1c3e b938 23be
000000f0: d76e 21be 989b f03c e1e0 17be e81f 4abd
00000100: b260 dc3d 79e4 2f3e 8c85 11bd c3a5 1fbe
00000110: 95a4 b2bd fdeb 2f3e 5c18 06bd d259 28be
00000120: a0b0 bfbd a7d0 e1bd 6800 3dbd 800f 03be
00000130: 6013 75bd 97f4 253e d773 abbd 0893 1bbd
00000140: ae44 cb3d 7228 29be 4123 bebd 7016 76bc
00000150: b958 0e3e 686b c93c 0021 65ba c043 70bd
00000160: 92a9 a73d 0f9d 9bbd f895 e2bc 1308 9cbd
00000170: 8451 873d cb8d 343e 2c94 08be 9012 4cbc
00000180: c044 4dbc d445 b5bd 850c 01be 466e 9abd
00000190: 4978 0dbe 7f74 093e a650 00be b6da dc3d
000001a0: a9b2 153e d00e 05bd 6b6d 283e 11ce 023e
000001b0: ee74 fcbd 16ae ce3d 3429 3a3d 8b6f 0e3e
000001c0: 464c 09be 43e5 0c3e d07d cd3c 8efa b03d
000001d0: e9fc c8bd 3667 ee3d d047 50bc 0546 153e
000001e0: 103d 773c c6bc e03d 77c7 e4bd 8a6d 20be
000001f0: 007b 7b3d 2ec9 bf3d b867 483d 207c 633d
00000200: 2278 ee3d f946 babd 2ec7 c13d f28d ad3d
00000210: ccab 99bd 6f5d d7bd 5fc4 33be b51e 053e
00000220: c09b 32bb 3091 253d ec1d 00be e419 08be
00000230: f58c 143e ae13 ff3d 9ecb c33d 87c1 103e
00000240: cdc5 113e 96da d53d 11c1 023e c808 babc
00000250: c096 3c3d d095 1bbe 2ac4 81bd b04c 87bc
00000260: a034 0dbc 7988 323e 2db3 133e 2802 643d
00000270: 01cb 283e 0a93 b8bd a8c7 0c3d 6d97 0fbe
00000280: b9fb 19be be90 c13d b87b 683d 50e3 1bbc
00000290: eb40 eabd a97e 023e 0031 5ebc b629 f73d
000002a0: 9622 fabd 351d 0b3e 40cd 08bc 6445 62bd
000002b0: 8017 6fbc 729d 0bbe cc64 04bd 00b4 293c
000002c0: b205 06be 6282 c33d 7d00 2b3e 0aa8 ba3d
000002d0: c4d7 b1bd 22fc e0bd 7e75 0fbe 9230 dfbd
000002e0: 561a d83d 12dc a63d b367 87bd 00c4 3d3b
000002f0: c01b e4bc 0059 273b 4f03 34be 6dfa 183e
00000300: fe1e 7ebd 01ef 1bbe 0099 51bb 846e 583d
00000310: 9ece a53d 74dd b6bd d081 53bc 2498 07be
00000320: 7276 08be ee04 efbd 8b64 e3bd 7e59 e33d
00000330: 6448 23be e450 16bd 1e1a 96bd 4a1a ee3d
00000340: 8028 3bbc 653c c7bd 31fe 123e 9a42 09be
00000350: c915 89bd 992b 25be 6048 67bc 581c 4e3d
00000360: 792d 1e3e 663e 03be 1ea2 f1bd 27e6 343e
00000370: e8d1 fe3c 5e57 f5bd d61b 9c3d 1b5d 2e3e
00000380: c02c d53b 6304 a6bd d58d c1bd 6a3a 82bd
00000390: d68e b83d 911b 00be 3da7 243e 3406 e0bd
000003a0: 3c09 4b3d c313 343e 840e a0bd 5d08 f2bd
000003b0: 9ead bbbd 94d2 97bd d751 debd b95e 32be
000003c0: 7210 babd 06ba 7bbd abd4 1c3e 1023 f7bc
000003d0: 70be a83c 8039 63bd d0bb e13c 7e78 ac3d
000003e0: 3809 fd3c b83c b2bc 90e6 733c 6bd0 2a3e
000003f0: 4b23 f1bd 5996 313e a0d2 20bd 1d13 013e
-0.11106738 0.17129232 -0.049065486 0.025455326 0.01650174 -0.12993355 0.08993782 -0.107397944
-0.15749224 0.14838718 0.10585119 -0.0739948 -0.12653191 0.15963842 0.06250855 -0.1173417
-0.14688718 -0.07313822 -0.09824209 0.012531728 0.01692371 -0.17298104 0.0886967 0.09005661
-0.1601919 0.14213122 -0.070392884 0.09098934 0.17338349 0.10470988 0.11869703 0.0062204897
0.025893673 -0.15037538 -0.12825114 0.14239077 -0.16155845 0.07613258 -0.10415746 0.15325163
0.13042639 -0.039948598 -0.02260679 -0.122630745 0.16488011 -0.10654 0.063100666 0.123876795
-0.17021409 -0.17386898 -0.12406759 -0.026537031 0.10989733 -0.053800307 -0.07300713 0.11763464
0.14177649 0.09315728 0.15276049 -0.15939607 -0.15764938 0.029371068 -0.14831878 -0.049346834
0.10760631 0.17176999 -0.03552775 -0.15590577 -0.08722798 0.17179866 -0.032738075 -0.16440514
-0.093598604 -0.110261254 -0.046142966 -0.12798882 -0.05983293 0.16206585 -0.08371704 -0.037982017
0.09925209 -0.16519335 -0.09284068 -0.015019998 0.13901033 0.024587348 -0.0008740574 -0.05865836
0.0818664 -0.07598316 -0.027659401 -0.076187275 0.06607345 0.17632215 -0.13337773 -0.0124555975
-0.012528598 -0.08851209 -0.12602432 -0.07540564 -0.13815416 0.13423346 -0.12530765 0.10783903
0.14618935 -0.03248483 0.1644799 0.1277392 -0.1232699 0.10091798 0.04544945 0.13909738
-0.13408002 0.13759331 0.025084406 0.086415395 -0.09813864 0.1164078 -0.012712434 0.14577492
0.015090242 0.10973506 -0.111708574 -0.15666786 0.0613966 0.09364544 0.04892704 0.055538297
0.11644007 -0.09095568 0.09461819 0.084743395 -0.07503471 -0.10515868 -0.17555378 0.12999995
-0.0027253479 0.040421665 -0.12511414 -0.13291126 0.14506896 0.124549255 0.09560321 0.14136325
0.14235611 0.104420826 0.12768961 -0.022709265 0.046042204 -0.15193868 -0.063362435 -0.01651606
-0.008618504 0.17434873 0.14423819 0.05566612 0.1648369 -0.090124205 0.034370095 -0.14022608
-0.15037431 0.094514355 0.056758612 -0.009514645 -0.11438163 0.1274363 -0.013561487 0.120685026
-0.12213628 0.1358536 -0.008349717 -0.055241957 -0.014593005 -0.1363428 -0.03232269 0.010357857
-0.1308811 0.09546353 0.16699405 0.09114082 -0.08683732 -0.109855905 -0.14009663 -0.10897936
0.10551898 0.08147444 -0.06611576 0.0028955936 -0.027845263 0.0025535226 -0.17579387 0.1493928
-0.062041275 -0.15227892 -0.0031982064 0.05283977 0.0809605 -0.089289576 -0.012909368 -0.13241631
-0.13326433 -0.11670862 -0.111031614 0.11101054 -0.15945584 -0.036698237 -0.073292 0.11626108
-0.01142323 -0.09728316 0.14354779 -0.13404313 -0.06693608 -0.16129912 -0.014116377 0.05032
0.15447034 -0.12816772 -0.117984995 0.17665921 0.03110595 -0.119795546 0.07622497 0.17027704
0.0065055788 -0.081063055 -0.094508804 -0.06358798 0.09011619 -0.12510516 0.16079421 -0.10938683
0.049569353 0.17585663 -0.07815269 -0.118180014 -0.09163974 -0.074132115 -0.108554535 -0.17418946
-0.09085168 -0.061456703 0.15315501 -0.030168086 0.02059862 -0.05547476 0.027555376 0.084214196
0.030888185 -0.021757469 0.014886513 0.16681068 -0.1177431 0.1734251 -0.039263368 0.12604947

_backbone.transformer_blocks.mha_block_0.pos_wise_ff.ffn.layer2.weight f4 [32, 128]
00000000: 0026 6ab9 e546 b43d e45c cebc 8999 6dbd
00000010: e015 7a3c e0fd fb3b 00b5 4d3a 3038 9cbc
00000020: c0ef a9bb 0121 8c3d b0e3 8dbd 02bb 153d
00000030: 0f0d 1cbd 581a d23c 19fa 3dbd 9773 8dbd
00000040: f259 183d 8cc6 ca3c 2269 313d 0f61 03bd
00000050: 5cc6 8c3c 0fdb 813d cb1e 883d 7278 6a3d
00000060: 5c29 94bc bda8 3abd 8075 f43b d4c6 72bd
00000070: 14d9 d3bc d831 383c e481 003d 9077 16bc
00000080: 3e53 0a3d 2cc2 9abd b09a 093d 96aa 6cbd
00000090: 3e09 94bd 8816 163c 8d83 9f3d 3072 523c
000000a0: b4e5 003d 20df 41bc 9077 9b3b 6084 1c3c
000000b0: ca5b 20bd f7b0 923d d8e7 61bd 0ebb 3a3d
000000c0: a6d1 733d a902 3ebd 0917 9c3d ca22 123d
000000d0: 83ab 9d3d 5cb1 103d 51d7 54bd 4201 5e3d
000000e0: 2343 923d 62f0 5d3d 5007 023d 587a 733c
000000f0: 6066 c83b 3313 b23d 6577 30bd 04f7 a23c
00000100: a0f5 0cbb cd44 a33d 6e66 4e3d e509 60bd
00000110: 72c4 243d aa57 ebbc 2633 7c3d 1c93 98bd
00000120: 9a66 a3bd b243 213d ec8b c9bc 1cda ba3c
00000130: 43df 953d 245a 7bbd 4881 36bc b91b 00bd
00000140: 0eea 433d 041e 09bd f3d2 983d 007c 403b
00000150: ac56 d13c 502e 33bd 60dc 63bb 223b a2bd
00000160: 8134 22bd ac09 cfbc 88d5 97bd c062 bbba
00000170: eec5 383d 6532 56bd d05b c3bb 1f51 873d
00000180: 89fd 5abd 44ce d33c b4f1 95bc c98d 963d
00000190: 107e f9bb b31c 963d b0a3 edbc 0871 8cbd
000001a0: a066 243b fde8 57bd 7e77 45bd e239 7e3d
000001b0: 1d2f a73d a284 6dbd 5117 b4bd 9455 db3c
000001c0: 1236 98bd ac56 cebc 2a32 163d c609 013d
000001d0: b844 553c c22a 1f3d 716a 4abd 22bf e8bc
000001e0: 90ba ecbc 3072 b4bd 08b1 4ebd 48d8 3f3c
000001f0: bce9 bf3c 136b 1dbd ee6b 7b3d f837 46bd
00000200: 504b 9f3b c55a 9c3d d688 6f3d f9f3 aa3d
00000210: 4466 c93c e41f 7abd 84c9 f6bc 2cc5 cfbc
00000220: 95cb 85bd e09c 07bd 099c a9bd d8c8 2abd
00000230: 9886 b4bd 27f5 b03d d8a4 643c d379 ac3d
00000240: b2a0 4e3d 0580 b13d b085 d7bc 6428 2bbd
00000250: 4c55 19bd 77cc a5bd 203a acbb a0f3 543c
00000260: 423a 4e3d 34fa 88bc 5c92 ea3c d6a7 193d
00000270: 78cb 933c 007a b03c e089 09bd a2f6 443d
00000280: 59c2 afbd 00f2 2a3c c67f 3f3d 6ed4 623d
00000290: 0e91 1f3d 2807 5cbc 6904 813d 369f abbd
000002a0: 6881 97bc 5f7c 07bd 9ae8 5c3d fd1a 9f3d
000002b0: 407c bfbc 88b6 913c 084e 51bc e804 cebc
000002c0: e4d0 103d fc5d aa3c 4819 2ebd 280a 9e3c
000002d0: f580 a33d 622f 7dbd d0fc 66bc 40b0 a0bd
000002e0: 8cc3 b6bc e336 ab3d 2678 6b3d 50bf aabd
000002f0: 501a a2bd 40c5 683b 68a1 25bc 335c 883d
00000300: fca2 c7bc c149 893d 121d 56bd b8ed 83bc
00000310: 8033 f8ba fc57 3abd 40cf 753b 8c05 9cbc
00000320: 45c7 2bbd 8276 8ebd 00a2 15b9 a976 a83d
00000330: 2c87 0c3d 8673 8abd cde0 36bd 4ecc 6d3d
00000340: ccf2 06bd c830 06bc 173b 2abd 229e 2c3d
00000350: 10d9 74bd df93 abbd 9203 85bd 6b33 9cbd
00000360: 403d 0b3c 0885 603c 1230 e5bc 620e 163d
00000370: 28d7 073c 90f7 ae3c 42d1 3c3d 806c 923c
00000380: d1b8 b33d 1130 853d 06d0 4cbd 612a 873d
00000390: 7804 1bbc 00d3 98bb f845 033c 4e64 9ebd
000003a0: 3a61 6c3d 42e4 6d3d 3b80 af3d 6804 843c
000003b0: b0a5 c5bc 880d 55bc ea5c edbc 6fb1 a3bd
000003c0: 541e f63c f00d 583c 0858 dfbc a713 53bd
000003d0: 1cc8 a1bc a035 c83c 0737 883d 48a4 133d
000003e0: b376 883d b3ca 913d f10e 32bd 801c f1ba
000003f0: 3e24 98bd 2747 50bd ac20 0c3d 7c43 073d
-0.00022330135 0.088025846 -0.025190778 -0.05800775 0.0152640045 0.0076901764 0.00078471005 -0.019069761
-0.005186051 0.068422325 -0.069281936 0.036555298 -0.03809839 0.025647327 -0.04638109 -0.06906813
0.037195154 0.024752878 0.043313153 -0.032074984 0.017184429 0.0634061 0.06646498 0.05724377
-0.018086128 -0.045571078 0.007460296 -0.05927165 -0.025860347 0.011242352 0.031373873 -0.009183779
0.033770792 -0.075565666 0.033594787 -0.05777987 -0.07228325 0.009160645 0.07788763 0.012844607
0.031469062 -0.011832982 0.0047444776 0.009553045 -0.039150037 0.071626596 -0.055152744 0.045588546
0.05952611 -0.046389256 0.07621581 0.03567771 0.07698729 0.035325393 -0.051963154 0.05420042
0.071417116 0.054184325 0.031745255 0.014860712 0.0061157197 0.08695068 -0.043082613 0.019893177
-0.0021508709 0.07972107 0.050390653 -0.054696936 0.040226407 -0.028728325 0.061572216 -0.07449934
-0.07978554 0.0393712 -0.024602853 0.02280908 0.073179744 -0.06136526 -0.0111392215 -0.03127644
0.047830634 -0.03347589 0.0746211 0.0029370785 0.025554024 -0.04374534 -0.0034768805 -0.07921435
-0.039600853 -0.025273167 -0.07413775 -0.0014296398 0.045110635 -0.052294154 -0.0059618726 0.066072695
-0.053464446 0.025855191 -0.01830373 0.07351262 -0.007613905 0.07329693 -0.029008716 -0.068574965
0.0025085583 -0.05271243 -0.04820966 0.06206692 0.08163283 -0.057987817 -0.0879351 0.026774205
-0.07432188 -0.025187813 0.036668934 0.03150346 0.013016872 0.038859136 -0.049417917 -0.028411452
-0.028897554 -0.08810842 -0.0504618 0.01170928 0.023426883 -0.038432192 0.061382227 -0.04839322
0.004861273 0.076345004 0.058480106 0.08347315 0.024584897 -0.06106557 -0.030125387 -0.025362574
-0.06532971 -0.033108592 -0.082817145 -0.041695446 -0.08814734 0.08640509 0.013955317 0.084216736
0.05044622 0.08666996 -0.026308864 -0.041786566 -0.03743486 -0.08095639 -0.0052559525 0.012997538
0.050348528 -0.016720869 0.028634243 0.037513576 0.018041357 0.02154255 -0.033578753 0.04808677
-0.08581991 0.010433674 0.046752714 0.05537837 0.038956694 -0.013429441 0.06299669 -0.083799765
-0.018494323 -0.033077594 0.053932764 0.077688195 -0.023374677 0.017787233 -0.012774952 -0.025148824
0.035355464 0.020796768 -0.04250458 0.019291952 0.07983581 -0.061812766 -0.014098361 -0.07846117
-0.02231004 0.08360078 0.05748763 -0.08337271 -0.07915175 0.003551796 -0.010109283 0.066582106
-0.02436971 0.067035206 -0.052273817 -0.016104564 -0.0018936247 -0.045494065 0.0037507564 -0.019045614
-0.041938085 -0.06956197 -0.00014270097 0.08225758 0.034308597 -0.067603156 -0.04464798 0.05805617
-0.032946393 -0.008190341 -0.04156026 0.042142995 -0.05977732 -0.083778135 -0.064948216 -0.07626995
0.00849849 0.013703592 -0.027977023 0.03663481 0.008291043 0.021358281 0.046098 0.017874002
0.08775485 0.065033086 -0.050003074 0.0659988 -0.009461515 -0.004663825 0.008012287 -0.07733975
0.05770991 0.05807901 0.0856938 0.016115382 -0.024126858 -0.013003714 -0.028974969 -0.07992827
0.030043758 0.013186917 -0.027263656 -0.051532414 -0.01974874 0.024439633 0.06651121 0.036045343
0.06663265 0.0711874 -0.04347128 -0.0018395334 -0.07428788 -0.050849106 0.034210846 0.033023342

_backbone.transformer_blocks.mha_block_0.pos_wise_ff.ffn.linear_v.weight f4 [128, 32]
00000000: 7e66 1dbe c195 c3bd edc1 01be a060 2a3c
00000010: 49a9 89bd 8fc2 243e 30c8 d9bc 4294 b1bd
00000020: 1cb8 04be 4c8a 23bd 0da1 c0bd 2018 1ebd
00000030: d4a5 8bbd 2f4c 263e 5fdf 333e e8ba c4bd
00000040: cd3d 153e 1043 a4bc 3cb4 54bd 7ffa 2fbe
00000050: a8de f7bd 3c2e a5bd 9e5e e8bd b8ec edbd
00000060: 2011 c6bc d57c b8bd affb ecbd 5fb0 053e
00000070: 8663 07be 06c8 e3bd 7667 6fbd c5a3 023e
00000080: c0ec b83b 7cb8 81bd 4ce4 fabd 789f fb3c
00000090: dd13 193e 100a 11be 8434 42bd ea19 cfbd
000000a0: a8af 92bc f076 34bc 1885 aebd d6bc cd3d
000000b0: 7050 393d b317 24be ca15 ed3d 38e3 4ebd
000000c0: e03b 85bb d880 f83c 9a76 eb3d 40b7 aa3c
000000d0: 59da 183e 10d9 023c 45bc 80bd b969 173e
000000e0: 9977 0e3e b0cd 0dbd 0bb5 093e 7861 393d
000000f0: 50a4 943d f2ef b2bd c31c 2bbe d8b6 8c3d
00000100: ec0e cdbd 946d 623d e126 07be e23b 56bd
00000110: 05d6 1cbe 5835 d6bd f8b5 afbc ea63 f6bd
00000120: eda7 0d3e f0e5 0f3d 4231 f33d 70e0 723c
00000130: c482 5cbd db06 30be d019 8ebc 08ee 40bd
00000140: 882e 963c 6c70 efbd 9bc3 093e c08d f7bb
00000150: f94b 163e 5a1c b03d 0dd9 c5bd 409a 91bc
00000160: 808b a1bc 9b44 b0bd 36bc 803d b012 463c
00000170: 7bb9 2b3e 6010 c13c 2baf 023e 4638 e13d
00000180: deaa 863d a3c2 23be 2e05 bd3d 20e5 93bb
00000190: 80e5 863a 4e86 f8bd 8c46 f4bd 624e b93d
000001a0: a8ea 613d ee42 993d e48f 22be fa43 94bd
000001b0: ad13 ddbd 717a e5bd 5e13 ae3d e01e dd3b
000001c0: 74aa 50bd 0085 a83b 5403 50bd 80d7 9b3b
000001d0: 97bd 19be c812 df3c 5d5d 003e 7d12 193e
000001e0: 96d5 ea3d 84cd 76bd ef5b 18be 4dc0 163e
000001f0: 984a 3b3d 3e63 b93d 513b 333e b8e7 773d
00000200: 66db 18be 029e f63d e14a a8bd d2fe 64bd
00000210: 66eb f33d 20e5 42bc 6082 383c c05b d83c
00000220: 12f4 9f3d 14c3 1cbd 4d09 143e 561f 80bd
00000230: 24a0 03bd 50cd 5fbc b2f2 bdbd 20de 6bbd
00000240: 9478 44bd 4841 98bd 5d88 263e a0f2 fbbb
00000250: 3be2 303e 1742 2d3e 2cf0 303d 8a01 c33d
00000260: 14b8 0bbe 0098 2a3a 7dc2 2f3e 8014 c2bc
00000270: 8a09 debd 8043 aeba b0ac 79bd a09b e6bd
00000280: 7e6b be3d 40df 4f3d f866 4c3d 6d2c 27be
00000290: 40a2 5dbc 2b5c 1f3e 506e 733c 9542 2b3e
000002a0: b089 2dbd 4041 ac3c 1e4c c13d 80e6 9a3b
000002b0: ee7e cc3d 9d83 223e ae4a ea3d e62d 973d
000002c0: d20b fa3d a19d 123e 1e6a 24be c172 023e
000002d0: 1aa8 f23d aaa9 b63d 9f5d e0bd fd08 0b3e
000002e0: 38c3 3e3d c8cb 8c3d cff7 33be 4765 233e
000002f0: b7c2 12be 7a45 9a3d f9ae 303e 0e3c ca3d
00000300: dcb3 15bd 0045 f4bc af90 e5bd 4fc9 c1bd
00000310: 5b7e a3bd 0676 cf3d fef3 e13d 4450 34bd
00000320: 8091 713d f063 f73c 64ca 4dbd b2ab f53d
00000330: f250 fcbd b05b 113d 5cba 2a3d 0057 dcbb
00000340: 34ec 083d 6e6f e93d f2ee 853d d088 bebc
00000350: 64e0 693d 7a7a 9d3d 4886 8bbd 3ab3 00be
00000360: 3a8b c63d d8bc 84bc 7a32 f83d c0a7 043d
00000370: 8847 993c cab7 973d 257d 0c3e 98b4 6cbd
00000380: 96c0 a33d b4e0 06bd aad6 9f3d 195b 26be
00000390: e579 1b3e 4233 c93d 8dcb 043e 61bd 123e
000003a0: 6cb7 65bd 58ef 95bc 64db d0bd d0d5 513c
000003b0: a0cc ab3b 687e fdbc e7df 99bd 8d90 033e
000003c0: 927d f13d 8413 1ebe 7cfd 22be b5d8 bfbd
000003d0: 4038 a0bc f839 a4bc d5bf 273e 00ec 3f3b
000003e0: c810 adbc a6df fa3d a084 52bd 09a2 023e
000003f0: 700b 04bd 21c3 80bd 7029 a73c 9c1f 05be
-0.15371129 -0.09550048 -0.12671633 0.010399014 -0.06721742 0.16089843 -0.026584715 -0.08670856
-0.12960857 -0.039926812 -0.09405718 -0.038597226 -0.068187386 0.16239999 0.17565678 -0.09605962
0.14574356 -0.02005151 -0.051929697 -0.171854 -0.12103015 -0.08065459 -0.11346172 -0.11617416
-0.024178088 -0.09008185 -0.11571442 0.13055561 -0.13221559 -0.11122136 -0.058448277 0.12757786
0.005643457 -0.06334016 -0.122505754 0.030715689 0.14948983 -0.14163995 -0.047413364 -0.101123646
-0.017906025 -0.011014685 -0.08521479 0.10045783 0.045242727 -0.16024666 0.115764216 -0.05050966
-0.0040659755 0.030334875 0.11497231 0.020839334 0.14927043 0.007986322 -0.062859096 0.14786424
0.1391281 -0.034619987 0.13447969 0.04525897 0.072579026 -0.08737172 -0.1671019 0.06870812
-0.10012612 0.055280283 -0.13198425 -0.052303202 -0.15316017 -0.10459393 -0.021449074 -0.12030776
0.1383359 0.035131395 0.118746296 0.014824018 -0.053835645 -0.17190115 -0.017346293 -0.047102004
0.018332735 -0.11691365 0.13453524 -0.0075547397 0.14677419 0.08599158 -0.0966054 -0.017773747
-0.01971984 -0.086068355 0.062858984 0.012089416 0.16769974 0.023567379 0.12762134 0.109970614
0.06575559 -0.15992217 0.092295036 -0.004513398 0.0010291785 -0.121349916 -0.11927518 0.090481535
0.055155426 0.07483469 -0.15875202 -0.07239528 -0.107947685 -0.112049945 0.08499788 0.0067480654
-0.050943807 0.005142808 -0.050784424 0.004755914 -0.15013729 0.027230635 0.12535615 0.14948459
0.114665195 -0.06025459 -0.1487882 0.14721794 0.045725435 0.09052132 0.17503096 0.06052372
-0.14927444 0.12041856 -0.08217407 -0.055907078 0.11910133 -0.011895448 0.011261553 0.026410937
0.078102246 -0.03827198 0.14456673 -0.06255977 -0.032135144 -0.01365979 -0.09274806 -0.05758488
-0.047966555 -0.074343264 0.16262956 -0.0076888353 0.172738 0.16919743 0.043197796 0.09521778
-0.13644439 0.0006507635 0.17164035 -0.023691416 -0.10841663 -0.0013295263 -0.060955703 -0.11260152
0.09297846 0.050750017 0.049902886 -0.16325541 -0.013527453 0.15562503 0.0148578435 0.16724618
-0.042367637 0.021027207 0.09438346 0.004727185 0.099851474 0.15870519 0.11440025 0.07381801
0.12209286 0.14317943 -0.16056105 0.12739088 0.11848469 0.089190796 -0.10955357 0.13577648
0.046572894 0.06874806 -0.17575 0.15956603 -0.1433209 0.07532783 0.17254247 0.09874736
-0.03654848 -0.029818058 -0.11209237 -0.09462225 -0.07983085 0.10129933 0.11032866 -0.04402186
0.05897665 0.030199021 -0.050241843 0.11995639 -0.123201266 0.03548783 0.041681632 -0.0067242384
0.033428386 0.11398207 0.06539716 -0.023258597 0.05709876 0.07689376 -0.068127215 -0.1256837
0.09694524 -0.016203329 0.12119003 0.03238654 0.018710867 0.07408102 0.13719614 -0.057789415
0.07995717 -0.032929137 0.07804616 -0.16245688 0.15183218 0.0982423 0.12968273 0.14330055
-0.056083128 -0.018302605 -0.101980954 0.0128073245 0.005242899 -0.030944064 -0.07513409 0.1284811
0.11791529 -0.15437132 -0.15917009 -0.093675055 -0.019558072 -0.020047173 0.16381772 0.0029284954
-0.021126166 0.12249689 -0.051396012 0.12757124 -0.03223747 -0.06287218 0.020405501 -0.1300034

_backbone.transformer_blocks.mha_block_0.attn_add_norm.ln.weight f4 [32]
00000000: 0000 803f 0000 803f 0000 803f 0000 803f
00000010: 0000 803f 0000 803f 0000 803f 0000 803f
00000020: 0000 803f 0000 803f 0000 803f 0000 803f
00000030: 0000 803f 0000 803f 0000 803f 0000 803f
00000040: 0000 803f 0000 803f 0000 803f 0000 803f
00000050: 0000 803f 0000 803f 0000 803f 0000 803f
00000060: 0000 803f 0000 803f 0000 803f 0000 803f
00000070: 0000 803f 0000 803f 0000 803f 0000 803f
1.0 1.0 1.0 1.0 1.0 1.0 1.0 1.0
1.0 1.0 1.0 1.0 1.0 1.0 1.0 1.0
1.0 1.0 1.0 1.0 1.0 1.0 1.0 1.0
1.0 1.0 1.0 1.0 1.0 1.0 1.0 1.0

_backbone.transformer_blocks.mha_block_0.attn_add_norm.ln.bias f4 [32]
00000000: 0000 0000 0000 0000 0000 0000 0000 0000
00000010: 0000 0000 0000 0000 0000 0000 0000 0000
00000020: 0000 0000 0000 0000 0000 0000 0000 0000
00000030: 0000 0000 0000 0000 0000 0000 0000 0000
00000040: 0000 0000 0000 0000 0000 0000 0000 0000
00000050: 0000 0000 0000 0000 0000 0000 0000 0000
00000060: 0000 0000 0000 0000 0000 0000 0000 0000
00000070: 0000 0000 0000 0000 0000 0000 0000 0000
0.0 0.0 0.0 0.0 0.0 0.0 0.0 0.0
0.0 0.0 0.0 0.0 0.0 0.0 0.0 0.0
0.0 0.0 0.0 0.0 0.0 0.0 0.0 0.0
0.0 0.0 0.0 0.0 0.0 0.0 0.0 0.0

_backbone.transformer_blocks.mha_block_0.ff_add_norm.ln.weight f4 [32]
00000000: 0000 803f 0000 803f 0000 803f 0000 803f
00000010: 0000 803f 0000 803f 0000 803f 0000 803f
00000020: 0000 803f 0000 803f 0000 803f 0000 803f
00000030: 0000 803f 0000 803f 0000 803f 0000 803f
00000040: 0000 803f 0000 803f 0000 803f 0000 803f
00000050: 0000 803f 0000 803f 0000 803f 0000 803f
00000060: 0000 803f 0000 803f 0000 803f 0000 803f
00000070: 0000 803f 0000 803f 0000 803f 0000 803f
1.0 1.0 1.0 1.0 1.0 1.0 1.0 1.0
1.0 1.0 1.0 1.0 1.0 1.0 1.0 1.0
1.0 1.0 1.0 1.0 1.0 1.0 1.0 1.0
1.0 1.0 1.0 1.0 1.0 1.0 1.0 1.0

_backbone.transformer_blocks.mha_block_0.ff_add_norm.ln.bias f4 [32]
00000000: 0000 0000 0000 0000 0000 0000 0000 0000
00000010: 0000 0000 0000 0000 0000 0000 0000 0000
00000020: 0000 0000 0000 0000 0000 0000 0000 0000
00000030: 0000 0000 0000 0000 0000 0000 0000 0000
00000040: 0000 0000 0000 0000 0000 0000 0000 0000
00000050: 0000 0000 0000 0000 0000 0000 0000 0000
00000060: 0000 0000 0000 0000 0000 0000 0000 0000
00000070: 0000 0000 0000 0000 0000 0000 0000 0000
0.0 0.0 0.0 0.0 0.0 0.0 0.0 0.0
0.0 0.0 0.0 0.0 0.0 0.0 0.0 0.0
0.0 0.0 0.0 0.0 0.0 0.0 0.0 0.0
0.0 0.0 0.0 0.0 0.0 0.0 0.0 0.0

_backbone.transformer_blocks.mha_block_1.mha.to_qkv.weight f4 [384, 32]
00000000: 38e3 9b3c 188c ca3c 3b45 15be f555 b9bd
00000010: 44df 00be 010e 22be 1cf2 113d 4079 0dbd
00000020: 22ea 9a3d 2b53 2f3e e4ca e6bd 4c4d 023d
00000030: 3c34 42bd b0b0 4d3d 1bf7 013e 2520 88bd
00000040: 4a55 a43d 12b8 b03d fef5 a7bd 4894 bd3c
00000050: c12b 013e f06d 0fbe 043b 9bbd 3203 b83d
00000060: b471 43bd cb2e 84bd c0d7 b1bb 2b58 26be
00000070: 8f4f b5bd ba10 a33d 49a2 2ebe b070 66bc
00000080: de1d 97bd 288e 5e3d c839 fa3c 486d 8fbc
00000090: 6f14 2a3e 072b debd 7387 063e 9af5 e9bd
000000a0: b47f 883d 340b 0bbe 07f8 1c3e db64 2c3e
000000b0: b8d7 173d f26c e43d 6602 d2bd 6048 b2bc
000000c0: d082 28be 1176 263e 4ed1 97bd 205e 37bd
000000d0: 1b0d 2b3e 1b53 20be 5521 09be 9676 983d
000000e0: a087 203c 5917 e1bd 8d12 24be 2061 0abe
000000f0: 6801 7ebd 6dcf 133e 30ba e8bd 36d0 07be
00000100: 0cbd 4dbd 7604 da3d 7607 febd 0a8b c13d
00000110: 40a4 a23b 487c 283d 16e9 01be 02a6 933d
00000120: 52c5 903d 7014 83bd 0ea1 f73d 807d 3e3c
00000130: f272 e0bd 4ec3 1fbe f4b1 0bbd 0955 0bbe
00000140: 10c4 29bd 029c 893d c0c9 1abc 6d15 313e
00000150: 3d62 25be 9cd1 98bd fabc f03d 8db8 173e
00000160: be5a bdbd 538e 26be 9830 13be 22a6 cb3d
00000170: c3d2 303e cf65 14be 3ed4 7cbd 4cae 79bd
00000180: 0a90 c13d 4e66 aa3d f4f3 28be fe44 1abe
00000190: 1c6c ffbd f769 1f3e 6678 2dbe 17ad 0bbe
000001a0: 6064 c53c 6dce 0ebe e05c bfbc bab9 9b3d
000001b0: 9ce6 3ebd 7bfa b9bd a276 f83d 2345 f9bd
000001c0: 040b 44bd b15d 12be 1742 19be 336b c0bd
000001d0: 511e 2b3e 0bd0 153e 4a9c b93d 0666 ebbd
000001e0: 275c 98bd d18d 07be f0b7 5f3c 80f2 9bbb
000001f0: 53c6 1f3e beba fb3d b6da f53d 90cc 31bc
00000200: cf2d 1c3e 8bbf dabd 7bab 203e 8f75 0f3e
00000210: 6168 07be f68b cb3d 008a 063b 5062 f23c
00000220: 00cf f0bb a258 f0bd de04 e43d 64ea 003d
00000230: c97f 2dbe 3c6f eabd b024 5bbc 585d 09be
00000240: a026 d2bc 735f 133e 35ec 263e f4b4 a6bd
00000250: 47e0 293e 0ec9 aebd 276c a2bd a4ab 263d
00000260: 1100 1b3e a460 cebd 8cae 0f3d f7fa 323e
00000270: 2b06 1f3e c8aa 5c3d 268e 963d 00ee 883a
00000280: 0cab 15bd 1f9f 223e 5e92 e33d 2163 0c3e
00000290: 507f 36bd cf5e 2e3e 805f 413b fa49 b63d
000002a0: 80b5 debd 9acc cd3d 50bf e8bd 7690 d0bd
000002b0: a66d ad3d b262 afbd c51e 09be 023e be3d
000002c0: a8b2 d93c 9d24 113e e092 603d f88e 663d
000002d0: 48e8 a9bd 7ffb 0abe 4ea4 c43d 7838 90bc
000002e0: 5af4 a8bd cc82 11be 88bf b2bc fda5 a1bd
000002f0: ebd7 083e a8f6 fdbd 7ce4 03be 001e 273c
00000300: 1ca2 77bd e870 20be c39b 033e a666 ea3d
00000310: c24f 34be 550e 043e 20be 28bd 00ca 26bb
00000320: 063b 01be eefb d23d 04e1 5b3d 1e5b a6bd
00000330: b64e 7cbd 7484 dcbd 6197 08be 606b d8bd
00000340: 97db 1a3e 1a7f 07be 52ea a8bd 4075 8b3c
00000350: 40d9 d03b 5dd4 233e 3ac0 06be 4b12 2b3e
00000360: ada5 1cbe 7db7 f3bd 473b 333e 7e94 b83d
00000370: 8517 92bd 3109 ddbd a0a6 a6bd 01f8 cfbd
00000380: 6f1c a5bd 3f98 303e 8388 f9bd b95c 17be
00000390: 7b0a 043e d0b3 bcbd 81b2 193e 5b42 0bbe
000003a0: 2ec7 ce3d 9d19 febd 4c7a 32be 9559 9ebd
000003b0: 3453 1d3d ae21 923d 868a 90bd ea4a 8c3d
000003c0: 52ac e0bd 9fc7 afbd fe2e ab3d b9af 003e
000003d0: 99e3 2a3e 9f28 29be b757 f4bd 1602 fc3d
000003e0: 365f debd e46f fcbd c007 e4bd 189b 873d
000003f0: d2c2 0bbe c60c e9bd 8065 6cbb 4ce8 1e3d
0.019029245 0.024725005 -0.1457719 -0.09049598 -0.12585169 -0.15825655 0.035631284 -0.03453946
0.075641885 0.1712157 -0.11269167 0.031811997 -0.047413096 0.05021733 0.1269192 -0.06646756
0.0802408 0.086288586 -0.08201216 0.023141995 0.12614347 -0.14006782 -0.07579616 0.089849845
-0.047715858 -0.064542376 -0.0054273307 -0.16244571 -0.08853065 0.07962175 -0.17054094 -0.014064953
-0.073787436 0.05433479 0.03054513 -0.017508164 0.16609357 -0.108480506 0.13137607 -0.11423798
0.066649824 -0.13578492 0.1532899 0.16835348 0.03707096 0.11153592 -0.10254364 -0.021763027
-0.16456151 0.16255976 -0.074129686 -0.0447675 0.16704218 -0.15656702 -0.13391621 0.074444935
0.0097979605 -0.10990781 -0.16022702 -0.13513613 -0.06201306 0.14434595 -0.113636374 -0.1326302
-0.050229117 0.10645382 -0.12403767 0.09450348 0.004963428 0.04113415 -0.12686571 0.07209398
0.07068886 -0.064003825 0.120912656 0.011626601 -0.10959424 -0.15601847 -0.034105256 -0.13606657
-0.041446745 0.06719209 -0.009447515 0.1729333 -0.16150756 -0.07461855 0.117547944 0.14816494
-0.09245823 -0.1626523 -0.14374006 0.09943797 0.17267899 -0.14491962 -0.061725847 -0.060957238
0.094513014 0.08320294 -0.1649931 -0.15065381 -0.12471792 0.15567766 -0.1694046 -0.13640247
0.024095714 -0.13945933 -0.023359716 0.07603784 -0.046606645 -0.090809785 0.121320024 -0.1217139
-0.047862068 -0.14293553 -0.14966618 -0.09395447 0.16710784 0.14630143 0.09063013 -0.11494069
-0.07439452 -0.13237692 0.013654694 -0.004759133 0.15602998 0.122914776 0.120046064 -0.010851994
0.1525185 -0.10681065 0.15690415 0.14009689 -0.13223411 0.09938805 0.0020529032 0.029587895
-0.007348895 -0.11735655 0.11133741 0.031473532 -0.16943277 -0.114469975 -0.013375446 -0.13414514
-0.025653183 0.1439188 0.16301043 -0.08139983 0.16589461 -0.08534442 -0.07930785 0.040691033
0.15136744 -0.100770265 0.03507857 0.17478548 0.15529697 0.053873807 0.073513314 0.0010446906
-0.036540076 0.15881012 0.11111902 0.1370969 -0.04455501 0.17028354 0.0029506385 0.08900829
-0.10874462 0.1004879 -0.11364615 -0.10183804 0.084681794 -0.085637465 -0.13390644 0.09289171
0.026574448 0.14174123 0.05482757 0.05628869 -0.08296257 -0.135725 0.09601651 -0.017605051
-0.08249731 -0.14210051 -0.021819845 -0.07892988 0.13363616 -0.124005616 -0.12880129 0.010200024
-0.060457334 -0.1566807 0.12852387 0.1144536 -0.1760855 0.12896092 -0.041196942 -0.0025449991
-0.12620172 0.10301958 0.05368139 -0.08122848 -0.061598502 -0.10767451 -0.13338996 -0.10567355
0.1512283 -0.13232079 -0.08247818 0.017023683 0.0063735545 0.15998979 -0.13159266 0.16706197
-0.15297575 -0.11900232 0.17503081 0.09012698 -0.07133392 -0.10792769 -0.0813725 -0.10154725
-0.08062064 0.17245577 -0.12184241 -0.14781465 0.12894623 -0.09213984 0.150095 -0.13599531
0.10096584 -0.12407229 -0.17429465 -0.0773193 0.038409427 0.0713533 -0.07057671 0.06850226
-0.109703675 -0.085829966 0.083585724 0.12567033 0.16688384 -0.16519402 -0.11930793 0.12305085
-0.10858004 -0.12326029 -0.11134291 0.06621379 -0.13648537 -0.113793895 -0.003607124 0.038795754

_backbone.transformer_blocks.mha_block_1.mha.to_out.weight f4 [32, 128]
00000000: 6091 f03c f07f 94bb b01f 93bb ca8b 773d
00000010: 8a96 e5bc 64cd 8bbc 7c9b 74bd 6f22 acbd
00000020: 1a2d 723d 20ae 08bc cd92 a3bd bf67 823d
00000030: c071 303b 8c5f 97bc 2c66 80bc b2ed 3ebd
00000040: 031e 83bd 601a a93b a467 80bc 9f8d 843d
00000050: b6b6 17bd 88b4 9bbc d889 75bc a6ca 14bd
00000060: 1aa2 443d 94a5 6dbd 7c87 2fbd 38f4 30bc
00000070: f669 613d 9880 12bc e77e 37bd 4896 973c
00000080: 40b1 563c c842 3b3c 6333 9f3d 8a05 1e3d
00000090: 053b 09bd d264 6c3d cddb 9f3d bebc 003d
000000a0: b594 adbd 98be 5ebc 45f7 3fbd dc9d 2fbd
000000b0: e1ac 9dbd 2488 b63c c68a 6bbd 2029 d93c
000000c0: 3618 17bd 61b1 853d 597f 7cbd 25fa 973d
000000d0: 2d0d 943d d469 34bd b99c b13d 7c11 a1bd
000000e0: ec5b da3c 6cc5 3ebd e91d ac3d e005 6f3b
000000f0: 7b4f 99bd d872 bc3c d539 17bd bbb6 5bbd
00000100: f65b 593d 5fb8 8f3d 918e af3d f4c2 ad3c
00000110: d333 b33d ae96 3d3d bffb b23d 82af 7d3d
00000120: 00e9 0d3a 26f0 333d 265d 213d 9a6c 243d
00000130: 30fb e0bb b420 74bd 2d04 a53d 4b8e a0bd
00000140: b5ab 7abd f83d 75bc 98f8 d1bc d7b6 843d
00000150: 78b8 203c 6cac 86bd 0b43 863d 1099 e03c
00000160: a4e0 aebd 6dec aa3d c410 a5bd aa73 ffbc
00000170: 772d ab3d f676 153d 06cb 523d 7c06 c5bc
00000180: 612f aabd 5a9a efbc f611 353d 36ef 783d
00000190: c6de 113d 1a58 f8bc fe90 483d 759a 8e3d
000001a0: feb6 a5bd 5f3d 01bd f442 88bd 375e 9cbd
000001b0: a25a 1c3d 3124 903d 801d 7bbc 7c07 bbbc
000001c0: a062 21bb a2d2 9cbd 976d 823d 387c 08bc
000001d0: 0efb 593d e586 a53d 960e 753d 3812 fe3c
000001e0: 7839 99bc 42d3 e6bc 85d2 b33d 68ff 71bc
000001f0: 8fb6 a63d 54d8 8ebd c010 a8bd 01f6 a23d
00000200: 8677 403d 6377 a3bd 38c8 df3c 7949 5fbd
00000210: c83f 683c 1002 293c 5cdd 30bd 00ec 5cba
00000220: e9f6 29bd e6b2 603d e095 61bd 17d9 b43d
00000230: 4175 3cbd 4579 973d e7a0 a23d 641f f53c
00000240: bc0e e83c be50 9dbd b8b4 07bc 36c5 393d
00000250: c3e5 10bd 182b c4bc 34e3 adbc 20ab c5bc
00000260: 9eb5 efbc 32b4 203d 34e3 b63c 042a 05bd
00000270: a649 35bd a521 80bd c9f7 b1bd 847c acbc
00000280: 70b3 50bc 847b 0a3d 8b4c 40bd ccd4 fb3c
00000290: fe39 e2bc daee 133d 4de0 933d 72f0 7e3d
000002a0: 4f65 aa3d 18e2 e03c f050 b53b 2608 353d
000002b0: 2a22 a3bd 4dcd 943d a1cb 23bd 754c b4bd
000002c0: 7a90 393d aae3 6cbd b0a4 5d3c f56b 19bd
000002d0: 24e4 b7bc 2082 80bb 239c 833d 4053 b3bd
000002e0: 6d1d 32bd 0a89 243d 51c9 9d3d 6135 aa3d
000002f0: 02e3 99bd 8ec2 15bd b058 c3bc e4d7 d2bc
00000300: 98c6 583c 7eb6 133d 4071 76bb 043c 983c
00000310: f1e0 993d e4d1 a3bd 9255 263d 1e69 28bd
00000320: 8043 6b3b bfe7 803d 3277 013d 08ee 213c
00000330: c612 45bd 5c94 c63c a0bb 18bb 97d9 b23d
00000340: 1127 933d bcaa b6bc 7e5f 543d 409e e43c
00000350: a6e1 523d 901b d5bc 107a a6bb 2cca d23c
00000360: 6c34 863c badb 92bd c47d ba3c 457a af3d
00000370: bba1 43bd e4a5 823c 9073 74bc 8b1d 59bd
00000380: ec79 91bc 9a30 313d 84d1 28bd 57f8 3bbd
00000390: dbb7 40bd 984c 8fbc e077 6ebd 0024 c83c
000003a0: d2ae 1c3d eea3 003d e439 053d d40c e43c
000003b0: 9b4e 9a3d 7419 9fbc bed8 5b3d 37dd 873d
000003c0: e5d0 59bd 2547 17bd d00b 02bc 12e3 493d
000003d0: f553 a83d 5874 78bc caa2 523d 08f1 86bc
000003e0: 9854 cc3c e7e9 a63d cc45 f5bc 482f 8c3c
000003f0: 58fc 983c 4041 263b 2087 6b3c 5830 b1bc
0.029366195 -0.004531853 -0.0044898614 0.060436048 -0.028025884 -0.017065711 -0.059718594 -0.08405005
0.059125043 -0.008342296 -0.079869844 0.06367444 0.002692327 -0.018478177 -0.01567372 -0.046613403
-0.06402209 0.005160615 -0.01567442 0.064723246 -0.03703948 -0.019006982 -0.014986478 -0.036326073
0.048006155 -0.058019236 -0.042853817 -0.010800414 0.055032693 -0.008941792 -0.044798758 0.018504277
0.013103783 0.011429496 0.07773473 0.0385795 -0.03350355 0.057713337 0.078055955 0.03143
-0.08475629 -0.013595246 -0.046866674 -0.042875156 -0.0769899 0.022281714 -0.05750539 0.026508868
-0.036888324 0.06527973 -0.061644886 0.07420758 0.072290756 -0.044046238 0.086724706 -0.07864663
0.02665516 -0.046574995 0.084041424 0.0036472008 -0.07485863 0.02300398 -0.036920387 -0.053641062
0.053066216 0.07017588 0.08572114 0.021211125 0.08750119 0.046286277 0.08739423 0.061934955
0.0005413443 0.043930195 0.039395474 0.040142633 -0.0068658814 -0.0596015 0.08057437 -0.0783964
-0.06119891 -0.014968388 -0.025631234 0.064801864 0.009809606 -0.065758556 0.06555756 0.027416736
-0.085389405 0.08345876 -0.080598384 -0.031183083 0.08358281 0.036490403 0.05146315 -0.024050944
-0.08309818 -0.029248405 0.044206582 0.060775004 0.035612844 -0.030315448 0.0489664 0.06963054
-0.080915436 -0.03155267 -0.06653395 -0.076351576 0.03817237 0.07038153 -0.015326858 -0.022830717
-0.0024625435 -0.076573625 0.06368559 -0.008330397 0.05321794 0.0808237 0.059828363 0.031014547
-0.018704161 -0.028176907 0.08780388 -0.014770366 0.08140289 -0.06974855 -0.0820632 0.07957078
0.046988986 -0.079817556 0.027317151 -0.05451343 0.014175363 0.010315433 -0.043179855 -0.0008427501
-0.041495237 0.05485811 -0.055074573 0.08830469 -0.04601026 0.07396177 0.07940846 0.029922195
0.028327338 -0.07681416 -0.008282833 0.04535409 -0.035375368 -0.02394633 -0.021226503 -0.02412945
-0.029261407 0.039234348 0.022325136 -0.032510772 -0.04425969 -0.06256417 -0.086898394 -0.021055467
-0.012738094 0.0338092 -0.046947997 0.030741118 -0.027615543 0.03611646 0.07220516 0.062241025
0.08320104 0.02745156 0.00553333 0.044197224 -0.07965501 0.072657205 -0.039989118 -0.088036455
0.0453038 -0.057834305 0.013528034 -0.03745647 -0.022447653 -0.003921762 0.06426265 -0.08756113
-0.043485094 0.040169753 0.07704414 0.083109625 -0.075140014 -0.036562495 -0.023846 -0.02573771
0.013230942 0.03606271 -0.0037604123 0.018583305 0.07513607 -0.07999018 0.04060895 -0.041115873
0.0035898387 0.06294202 0.031607814 0.009883411 -0.048113607 0.024240665 -0.0023305193 0.08732908
0.07185186 -0.02229821 0.05184888 0.02790749 0.051484726 -0.02601412 -0.005080469 0.025731169
0.016382419 -0.07170816 0.022765048 0.08568243 -0.04776166 0.015948243 -0.01492013 -0.05300669
-0.017758332 0.04325924 -0.041215435 -0.045891132 -0.04705034 -0.017492577 -0.05821979 0.024431229
0.03825266 0.031406336 0.032525912 0.027838148 0.07534524 -0.019421317 0.0536735 0.0663399
-0.053177733 -0.036933083 -0.007937387 0.049288817 0.082191385 -0.015164457 0.05142478 -0.016472355
0.024942681 0.08150082 -0.029940508 0.01711239 0.018675014 0.0025368482 0.014375478 -0.021629497

_backbone.transformer_blocks.mha_block_1.mha.to_out.bias f4 [32]
00000000: cb99 983d dc37 bf3c c036 f1bc b0a9 cc3c
00000010: 0aa1 323d ee96 243d f024 a1bb 3ca9 8dbd
00000020: 8578 aabd 78f0 debc bf6f a73d 5aeb 683d
00000030: b642 4d3d ae40 06bd 0019 06bb cb83 a83d
00000040: 8251 45bd 780d c73c 54f4 bdbc 96e2 743d
00000050: 7cdd 91bc d954 af3d 6ecb 473d c0d1 ebbb
00000060: f075 3abd b82e 7abc 3c4d e6bc 6882 0f3d
00000070: e6db 3d3d af5e 933d a1bc 8f3d e01f 82bb
0.07451209 0.023342066 -0.029445052 0.024983257 0.04361061 0.040183 -0.0049177334 -0.069170445
-0.083237685 -0.027214274 0.08175611 0.056865074 0.05011245 -0.032776527 -0.0020461679 0.082282625
-0.048173435 0.024298415 -0.023187794 0.0597864 -0.017805807 0.08561105 0.04877799 -0.007196635
-0.04552263 -0.015269928 -0.028113 0.035036474 0.04635229 0.07195794 0.070184 -0.003971085
