binary_birth_tf.pth (torch, 745906 bytes, 74 tensors)

weight f4 [2, 28]
00000000: 0613 8abf a269 123e a7ae 0c3c ac5d a33f
00000010: b592 b63e 92a2 a33f bb36 40bf 554b 793e
00000020: c0e1 68bf 6e8d 95be 75cb 1f3f 0d3b 333f
00000030: 77ac 80be 497b dd3e 01c7 fc3f 6e3a 9c3e
00000040: a372 64bf 5c0a cdbe 94f9 3bbf 2920 893e
00000050: 1f06 95bf 30c6 c1be 071f 23bf bad6 d53d
00000060: 8710 2cbe 2c01 9cbf c4b5 d7be 48d1 783f
00000070: ae70 6c3d e037 a83f 2094 a93f a15b e03f
00000080: dd0d 0f3e c38c adbf 436e ecbe 0b7e f53e
00000090: 89c8 a93e a901 71bf f33c 003d d5b5 82bf
000000a0: aabd 0c3f 33b9 b3be 5617 b0bf 40a5 73be
000000b0: 9fd3 88bf b4d6 c13e 6b0a 983f 5285 bb3d
000000c0: 0e84 22bf a23c 073f 252c cdbf 80a1 c2bf
000000d0: f477 43bf e6b4 a93f e120 a93d d3f3 363f
-1.0787055 0.14298108 0.008586562 1.2762961 0.35658804 1.2783988 -0.7508351 0.24345143
-0.9096947 -0.29209465 0.62419826 0.7001198 -0.2513158 0.43258122 1.9748231 0.30513328
-0.8923742 -0.40046966 -0.734277 0.2678235 -1.1642493 -0.37846518 -0.6371922 0.104413465
-0.1680318 -1.2187858 -0.42130864 0.9719434 0.057724647 1.3142052 1.3248329 1.7527963
0.13970132 -1.3558582 -0.46177873 0.47947726 0.3316081 -0.9414316 0.031308126 -1.0211741
0.54976904 -0.35102233 -1.3757122 -0.23793507 -1.0689582 0.37859118 1.1878179 0.09156288
-0.6348275 0.52826893 -1.6029097 -1.5205536 -0.7635491 1.3258331 0.08258224 0.71465796

weight f4 [4]
00000000: 801e a43f e610 983f b982 d03f d5b1 a33f
1.2821808 1.1880157 1.6289893 1.2788645

bias f4 [4]
00000000: b81a a6bb 9c90 953d 6dfd c13c 9c5a 80be
-0.005069103 0.07302973 0.023680413 -0.2506913

weight f4 [32]
00000000: 0000 803f 0000 803f 0000 803f 0000 803f
00000010: 0000 803f 0000 803f 0000 803f 0000 803f
00000020: 0000 803f 0000 803f 0000 803f 0000 803f
00000030: 0000 803f 0000 803f 0000 803f 0000 803f
00000040: 0000 803f 0000 803f 0000 803f 0000 803f
00000050: 0000 803f 0000 803f 0000 803f 0000 803f
00000060: 0000 803f 0000 803f 0000 803f 0000 803f
00000070: 0000 803f 0000 803f 0000 803f 0000 803f
1.0 1.0 1.0 1.0 1.0 1.0 1.0 1.0
1.0 1.0 1.0 1.0 1.0 1.0 1.0 1.0
1.0 1.0 1.0 1.0 1.0 1.0 1.0 1.0
1.0 1.0 1.0 1.0 1.0 1.0 1.0 1.0

bias f4 [32]
00000000: 0000 0000 0000 0000 0000 0000 0000 0000
00000010: 0000 0000 0000 0000 0000 0000 0000 0000
00000020: 0000 0000 0000 0000 0000 0000 0000 0000
00000030: 0000 0000 0000 0000 0000 0000 0000 0000
00000040: 0000 0000 0000 0000 0000 0000 0000 0000
00000050: 0000 0000 0000 0000 0000 0000 0000 0000
00000060: 0000 0000 0000 0000 0000 0000 0000 0000
00000070: 0000 0000 0000 0000 0000 0000 0000 0000
0.0 0.0 0.0 0.0 0.0 0.0 0.0 0.0
0.0 0.0 0.0 0.0 0.0 0.0 0.0 0.0
0.0 0.0 0.0 0.0 0.0 0.0 0.0 0.0
0.0 0.0 0.0 0.0 0.0 0.0 0.0 0.0

weight f4 [384, 32]
00000000: d407 883d ddde 133e c950 003e d389 073e
00000010: 674b 1b3e 8bec 32be c847 06be 867d 8dbd
00000020: b896 53bd 3869 0abe e8e5 bdbc 60ed 41bd
00000030: b0b6 873d 188b 813c f81c 353d 1a87 e23d
00000040: 42eb 93bd 4722 2b3e dc40 9dbd c131 1bbe
00000050: c7f7 95bd 32ee 34be 2c4b d7bd a0af 14be
00000060: 37ff 103e 362b a93d 1078 0a3d 407a 22bd
00000070: 6d53 81bd f986 1d3e 2875 41bd a462 2dbd
00000080: 1856 4abd 1e9c 01be a85e 02be 1e4f b63d
00000090: 4056 233c 8a30 b13d 4580 c0bd 3302 303e
000000a0: 4068 ffbb c0cd f7bb 93b9 1dbe 7c86 843d
000000b0: 49d3 88bd 89ee 1bbe 66da c23d 413f 313e
000000c0: b0e8 b23c c0a1 eabb e5a2 1b3e 6a1c 0dbe
000000d0: 65dc eabd 0086 aabd 9c3b 11be 2312 e0bd
000000e0: a4a6 d5bd 3318 2a3e fa89 9e3d c7f3 93bd
000000f0: 601b c2bb fa64 33be 601a 093c 06e8 b8bd
00000100: 0e13 cb3d 25ad 093e 1c23 36bd 96c5 ac3d
00000110: aeb6 acbd 7fac 0c3e 28fe dc3c a6b0 a53d
00000120: 002f 6bbb 1ade 8e3d 96ba e93d e3fc 083e
00000130: 2ad9 33be 12db ba3d b367 2fbe 00c1 0fbb
00000140: 001c f9ba 1f41 1c3e 96c7 a83d 6b7e 263e
00000150: 3c3b 433d 07b6 acbd 4012 083b 03ce 1d3e
00000160: 36f3 c83d a04f 6a3d bede c13d 80be 45bb
00000170: 009c 29bc a918 233e 30df 6abd d0f9 4c3d
00000180: c620 983d 8025 b33b cda7 203e 150f 073e
00000190: 008c 35bd 80ee f5ba 042b 573d 8646 e63d
000001a0: c661 c63d 328e 15be 7863 1ebe 216c 1f3e
000001b0: 6b77 e2bd 38c4 ecbc 5a4c 73bd b083 ba3c
000001c0: c080 adbc 37fe 2e3e 40bb 58bb b74e c9bd
000001d0: 7b89 16be 47cb 1a3e 5059 31bd e0dc cbbb
000001e0: faa7 b73d e4d9 9dbd 84a4 33be 54f0 a4bd
000001f0: 9a38 1bbe 8108 2f3e ad5e 223e d825 1cbd
00000200: f7cb 153e 4cf1 243d c020 0abd 5615 ff3d
00000210: a682 05be e889 533d 2e33 f6bd 3f93 253e
00000220: 5876 2abd 6714 b6bd a52d 1bbe d0e6 653c
00000230: 6ed4 db3d f864 f4bc 7a77 dc3d b061 24bc
00000240: 54a8 7ebd 14c7 37bd 13e1 1dbe 2875 06be
00000250: cc7b 713d 060e 13be 2067 7a3d efef 263e
00000260: 19f9 053e fda1 013e 4d48 0cbe 00ad 2c3a
00000270: 0335 8dbd df9b 1c3e c8dd 373d 2c76 07be
00000280: 8fa0 203e 783d 1c3d 2a1b 2abe e60c 963d
00000290: d40c e3bd 3241 a33d 4685 81bd 1158 2b3e
000002a0: b097 3bbd e048 193d 2d3e e4bd 1e18 f93d
000002b0: 103d 77bd 7b57 21be 6087 c0bc aaed f73d
000002c0: a2b8 05be 80f0 263d dff5 293e 2b66 97bd
000002d0: 88a9 463d 0e99 11be c06c c3bb 0dac 0e3e
000002e0: 2c9e c8bd 00fb ef3a 1612 fe3d 88ca 69bd
000002f0: 789f 863c 416e a8bd 4014 7e3d e98a dbbd
00000300: a893 0b3d 5456 3ebd a680 a63d 9022 553d
00000310: daa4 a83d f849 603d 6121 2cbe 3869 fabd
00000320: 2f78 07be 5465 99bd 9427 5e3d ffa3 82bd
00000330: 9876 543d a652 73bd 30ef 79bc a50e 033e
00000340: 60ee 83bb dbd2 2b3e b547 d4bd 093f d4bd
00000350: 4207 ef3d 16d2 00be 18d2 ecbc 3350 113e
00000360: 78c2 293d 5480 593d d3b3 123e f81e b7bc
00000370: 0841 20be eb80 073e 8297 d73d 8c40 853d
00000380: 69c5 12be ade7 30be 7521 88bd 9ddb b7bd
00000390: 009b 1f3b 60d3 883c 7a44 0dbe 3de5 aabd
000003a0: 9238 a13d 00c3 edba e6b4 ddbd ae49 e6bd
000003b0: 4016 15bd dfca 18be b2f0 ee3d da3b d23d
000003c0: fe26 f83d dd8b 003e b3fc 143e 2205 cc3d
000003d0: 8d9c 86bd d0b0 98bc a092 09bc 7df8 01be
000003e0: 46e8 01be c66d c63d 6313 28be 56c2 d4bd
000003f0: d684 9b3d 7e35 d03d ca1d a33d bae9 f23d
0.06642118 0.14440484 0.12530817 0.1323617 0.15165482 -0.17473046 -0.1311332 -0.06908707
-0.05165741 -0.135167 -0.023180917 -0.04734552 0.06626642 0.015813395 0.04421708 0.11060925
-0.07222606 0.16712295 -0.076783866 -0.15155698 -0.073226504 -0.1766899 -0.10512385 -0.1452012
0.14159857 0.08260195 0.033805907 -0.039667368 -0.0631474 0.15383519 -0.04723087 -0.0423304
-0.04939851 -0.1265721 -0.12731421 0.08901809 0.009969294 0.08651836 -0.093994655 0.17188339
-0.00779441 -0.007562369 -0.15402822 0.06470963 -0.066809244 -0.15227713 0.095143124 0.17309286
0.02183947 -0.0071603954 0.15198858 -0.1378037 -0.11467818 -0.0832634 -0.14182895 -0.10940959
-0.10432175 0.16610794 0.07741161 -0.07224231 -0.0059236735 -0.17518988 0.008368105 -0.0902863
0.09915744 0.13444956 -0.044467077 0.08436124 -0.08433281 0.13737677 0.02697666 0.08090334
-0.0035886168 0.06975956 0.114125416 0.13377719 -0.1756331 0.091238156 -0.17129402 -0.0021935105
-0.0019005537 0.15259217 0.08241193 0.16259162 0.047663912 -0.084331565 0.002076283 0.15410618
0.09812014 0.057204843 0.09466313 -0.0030173361 -0.010352135 0.15927376 -0.057341754 0.050042927
0.07428126 0.005467117 0.15689011 0.13189347 -0.044322968 -0.0018763095 0.052531257 0.1124392
0.096866176 -0.14605024 -0.15467632 0.15568592 -0.110579334 -0.028902158 -0.059398986 0.022767872
-0.021179557 0.17089163 -0.0033070594 -0.09829467 -0.14700882 0.15116607 -0.043298066 -0.0062213987
0.08967586 -0.07707575 -0.17543226 -0.080536515 -0.1515831 0.17093088 0.15856428 -0.038122028
0.14628588 0.04026918 -0.03372264 0.124552414 -0.1303812 0.05164519 -0.120214805 0.16169451
-0.041616768 -0.0889061 -0.15154131 0.014032081 0.10733877 -0.029833302 0.10764976 -0.010033056
-0.06217225 -0.04486759 -0.1541789 -0.13130629 0.058955953 -0.14360818 0.061133504 0.16302465
0.13083304 0.1265945 -0.13699456 0.00065870583 -0.06894877 0.15293835 0.04488924 -0.13228673
0.15686248 0.03814456 -0.16611925 0.07326679 -0.11086431 0.079714194 -0.06324248 0.16732813
-0.045798957 0.037423015 -0.111446716 0.12162803 -0.060360968 -0.15756027 -0.023502052 0.12105878
-0.13058713 0.040756702 0.16597699 -0.07392534 0.04850152 -0.14218542 -0.0059638917 0.1393282
-0.09795794 0.0018309057 0.12405793 -0.057077914 0.016433463 -0.08224154 0.06203103 -0.107198544
0.034076363 -0.046469048 0.081300065 0.052034914 0.08234568 0.054758042 -0.16809608 -0.122271
-0.1322944 -0.0749003 0.054236963 -0.06378936 0.051870912 -0.05940499 -0.015254781 0.12798555
-0.0040262192 0.16779654 -0.103652395 -0.103635855 0.11671306 -0.12580141 -0.028908774 0.1419075
0.041445225 0.0531009 0.1432641 -0.022353634 -0.15649807 0.13232772 0.10526945 0.06506452
-0.14333118 -0.17275877 -0.066470064 -0.08977435 0.0024353862 0.016702354 -0.13795653 -0.08344505
0.07872118 -0.001813978 -0.10825519 -0.11244522 -0.036398172 -0.14921139 0.11667003 0.10265322
0.12116812 0.12553354 0.14549522 0.099619165 -0.065728284 -0.018638998 -0.0083967745 -0.12692447
-0.12686262 0.09688906 -0.16413645 -0.10388629 0.07593696 0.10166453 0.07964666 0.11860986

weight f4 [32, 128]
00000000: 40f4 e83b 99f9 803d 0b55 4ebd f927 1cbd
00000010: 39c7 9d3d db34 39bd c2b2 76bd ab26 933d
00000020: c636 463d 68f7 9bbd 30ed 763c fcd5 03bd
00000030: 4d2b a63d 2cf4 e7bc c3b1 30bd 9099 b33b
00000040: b69c a3bd 7687 073d 6d8d b4bd 56b6 89bd
00000050: 7e13 91bd 18ee bd3c a76b 55bd 1af3 4e3d
00000060: 8d11 823d b8e0 003c 8808 4cbc 6a13 4e3d
00000070: 8674 713d e498 abbc 1987 81bd e64b 733d
00000080: b205 3d3d 6710 8cbd 9a48 a8bd b84e 8dbc
00000090: 869f 203d d45f c83c b5a2 8e3d 121d 5e3d
000000a0: f65b 063d c63c 7e3d 42a2 773d 6dfc 5dbd
000000b0: 6a8f 4bbd 72ba 15bd 1615 5abd 07bb a13d
000000c0: 08f1 523c abc5 42bd 0a67 4f3d e082 483c
000000d0: 9a6a 483d 00fc b43c ba27 2dbd 90d3 5cbc
000000e0: e24c e6bc a834 4abd d723 57bd ec97 a5bd
000000f0: 9fee 29bd 4607 203d f05e e13c 1ecf 053d
00000100: 52d3 53bd 50ad c5bb b89d fd3c cc15 993c
00000110: 4615 633d aa8b 59bd 08f1 aabc b0b9 abbc
00000120: 0308 4ebd 5fdb 04bd 28b8 12bc 3236 3f3d
00000130: 0563 993d ead1 7b3d b05b 603c 25af 8c3d
00000140: c06c f83b ff72 13bd 506a 7cbd 2021 323c
00000150: 0ecb 263d 5b36 a93d 6a4a 81bd a55d abbd
00000160: f04a d93c 88e1 18bc 08ee 65bc f341 3fbd
00000170: bc0d 94bd 92d2 613d 0661 4c3d 0045 e63c
00000180: 502d 0f3c 0071 cdb9 e44b f63c d864 62bc
00000190: 3556 8dbd 871d 993d 0848 28bc 3611 2fbd
000001a0: 9415 81bd 21bb a03d 06ce 8bbd 82ab 6a3d
000001b0: 58cd a1bd 189b 533c 8741 97bd 6694 2a3d
000001c0: 7672 013d 9834 9cbc b4b9 843c 008d 4dbc
000001d0: 6aa7 313d e6b0 f2bc 69a2 ac3d 840c a13c
000001e0: 7697 363d 76b8 aabd 18b6 e63c c0e6 66bb
000001f0: 6010 05bb f49c 883c 306a 1d3c 0850 4dbd
00000200: 30d2 25bc 8f58 a53d 5286 513d fed4 303d
00000210: 71f1 8e3d 903e fabb 602d f6bc 829a 153d
00000220: 9d4d 953d 6507 833d a4aa abbd d592 af3d
00000230: d5e1 b03d 2246 243d 27e4 aa3d 0040 5cb7
00000240: f0ac 7ebc b222 563d b1de 84bd 9446 f0bc
00000250: 5cf1 abbd 00a0 293c c258 2e3d 40bd 003d
00000260: 0039 b1b9 34a4 033d 6164 903d f0af 92bb
00000270: 1929 9c3d 05d8 44bd b0a8 0d3d faea 73bd
00000280: c761 a73d 725a 3dbd fa28 393d 55fc 9ebd
00000290: b3e5 a2bd 9018 94bd 6e2b 053d 0682 233d
000002a0: 724a 3dbd 2627 153d d2db 5c3d 002c 2eb9
000002b0: 98cd 453c 984d b0bd 7ebe 713d e070 a43b
000002c0: 20c7 013d c485 eebc 40d6 2d3b 12b8 353d
000002d0: 1544 96bd e662 73bd b0ed 0b3d 04e4 973c
000002e0: 4089 bc3b 841c 85bc e65d 283d a613 793d
000002f0: dc39 c4bc 0381 57bd 5106 923d eadd 2f3d
00000300: 2c31 73bd e570 a6bd 3316 8c3d e434 c93c
00000310: b4af da3c 5cb3 c1bc 2fb8 b23d ccd4 cabc
00000320: 77d1 8f3d ad64 97bd d5cb 53bd db76 a4bd
00000330: f195 a4bd d843 30bc 4021 163b 2d31 823d
00000340: 505d 60bc 29bd 87bd f18c 47bd de53 6b3d
00000350: cfe9 953d 7444 94bd 465d 82bd 4868 7dbc
00000360: a69d 2d3d f827 0a3d aa88 5d3d f0e1 84bb
00000370: 289b 8d3c 642e 84bc 2194 833d 249f b6bc
00000380: 2272 393d bc16 8fbc 8034 3dbb c8a4 dd3c
00000390: b74c 8bbd 9416 febc d8cd 9e3c a8fc 35bd
000003a0: e19f 983d ed01 9ebd a9cd 5abd 5063 b4bc
000003b0: 00aa 4bbc 0cb1 5cbd 79bd 8c3d 68e3 e33c
000003c0: b802 32bc b2ae e4bc 14b7 b0bd 00b2 913c
000003d0: 0a16 583d 6470 b0bd 3464 babc 6c52 9d3c
000003e0: afca 823d bfd3 9b3d 80c8 973b a0bc 3d3c
000003f0: 2946 08bd 6425 afbc b045 3cbc c748 63bd
0.007109195 0.06297607 -0.050374072 -0.03812406 0.07704014 -0.045216423 -0.06022907 0.0718511
0.04839208 -0.07615548 0.015071198 -0.032186493 0.08113728 -0.028314672 -0.043138277 0.0054809526
-0.079888746 0.03308817 -0.08816037 -0.06724231 -0.07083796 0.023184821 -0.05210462 0.05052481
0.06351004 0.007866077 -0.012453206 0.050311483 0.058949016 -0.020946927 -0.06324596 0.059398554
0.04614801 -0.06839066 -0.08216973 -0.01724945 0.039214633 0.024459757 0.06964628 0.054226942
0.032802545 0.062069677 0.060457475 -0.05419581 -0.049697317 -0.03655476 -0.053242765 0.07897001
0.012874849 -0.047551792 0.050635375 0.012238234 0.04892979 0.02209282 -0.042274214 -0.013478175
-0.028112832 -0.049366623 -0.052524414 -0.080856174 -0.041487332 0.039069436 0.02751109 0.032668225
-0.051715203 -0.0060326234 0.030958995 0.018687151 0.05544021 -0.05311171 -0.020866886 -0.020962566
-0.05030061 -0.03243577 -0.008955039 0.046682544 0.074895896 0.061479487 0.013693735 0.06869344
0.0075813234 -0.03599834 -0.061624825 0.010872155 0.04072099 0.082623206 -0.063130215 -0.08367471
0.02652499 -0.009331115 -0.014033802 -0.046693753 -0.07229182 0.055132456 0.049897216 0.028109074
0.008738831 -0.00039184839 0.030065484 -0.013817988 -0.06901208 0.07476335 -0.01027108 -0.042741023
-0.06302944 0.07848192 -0.06826405 0.05729247 -0.07900494 0.012915395 -0.07385545 0.04164543
0.0316033 -0.019068047 0.016201831 -0.012545824 0.04337255 -0.029625367 0.08429415 0.019659288
0.04457804 -0.083359644 0.028163001 -0.0035232753 -0.002030395 0.016676404 0.009607837 -0.050125152
-0.010120913 0.08073532 0.05115349 0.043171875 0.06979645 -0.0076368526 -0.030050933 0.036524303
0.07290194 0.06397895 -0.083821565 0.08572928 0.08636824 0.040105946 0.08344298 -1.3127923e-05
-0.015544161 0.05227918 -0.064877875 -0.02933053 -0.08395645 0.010353088 0.042565115 0.031430483
-0.0003380254 0.03213902 0.07050396 -0.00447654 0.07625026 -0.048057575 0.0345847 -0.059550263
0.081729464 -0.046228833 0.045205094 -0.07762972 -0.07953968 -0.072312474 0.03251212 0.039918922
-0.046213575 0.036414288 0.053920574 -0.00016610324 0.012072943 -0.0860855 0.059019558 0.0050183386
0.03168404 -0.029116519 0.0026525408 0.044364996 -0.07337204 -0.05942049 0.034162223 0.018541344
0.005753666 -0.016248949 0.041105174 0.060809754 -0.02395337 -0.05261327 0.07130111 0.042936243
-0.059373066 -0.08127002 0.06840172 0.024561353 0.02669511 -0.023645096 0.087265365 -0.024759673
0.07022374 -0.07392249 -0.05170806 -0.080304824 -0.080364116 -0.010758363 0.0022908002 0.06357036
-0.013694122 -0.06627876 -0.048718397 0.05745303 0.07319986 -0.07239619 -0.06365447 -0.015466757
0.042386673 0.033729523 0.05408541 -0.004055254 0.017285898 -0.016135402 0.06424738 -0.022292681
0.04527486 -0.017466895 -0.0028870404 0.027056113 -0.068017416 -0.031016625 0.019385263 -0.044430405
0.074523695 -0.07715211 -0.05341879 -0.022020012 -0.012430668 -0.053879783 0.068720765 0.027818397
-0.010864906 -0.027915332 -0.086286694 0.017785072 0.052755393 -0.08615187 -0.022752859 0.01920434
0.06386315 0.07608747 0.0046320558 0.011580616 -0.033270035 -0.021380134 -0.011491224 -0.055489328

bias f4 [32]
00000000: cbb6 95bd ce58 86bd 84cc 40bd a443 93bc
00000010: b346 89bd 3685 61bd d37d 30bd 6b9a 7ebd
00000020: 68a6 4bbd e8fc 08bd c57e 813d c816 d6bc
00000030: 19e4 b43d 4a69 1b3d 86ac 403d 326f 483d
00000040: 4b1f 41bd c208 9bbd 1570 60bd a8b0 b23c
00000050: d82f 56bd 38b0 a23c dd48 8bbd e794 3bbd
00000060: 54dc ef3c 03e4 a9bd 3e32 6e3d afa9 31bd
00000070: c028 8eba c0c4 27bd 8039 cebb fc70 c93c
-0.073102556 -0.06559907 -0.04707004 -0.01797659 -0.06702938 -0.05505868 -0.043088745 -0.062158983
-0.049719244 -0.033444315 0.063230075 -0.02613391 0.08832569 0.03794221 0.04703953 0.04893417
-0.047148984 -0.0757003 -0.05479439 0.021812752 -0.05229172 0.019859418 -0.06801007 -0.0457963
0.029279865 -0.08295443 0.058153383 -0.043374714 -0.0010845885 -0.04095912 -0.0062934756 0.024590008

weight f4 [32]
00000000: 0000 803f 0000 803f 0000 803f 0000 803f
00000010: 0000 803f 0000 803f 0000 803f 0000 803f
00000020: 0000 803f 0000 803f 0000 803f 0000 803f
00000030: 0000 803f 0000 803f 0000 803f 0000 803f
00000040: 0000 803f 0000 803f 0000 803f 0000 803f
00000050: 0000 803f 0000 803f 0000 803f 0000 803f
00000060: 0000 803f 0000 803f 0000 803f 0000 803f
00000070: 0000 803f 0000 803f 0000 803f 0000 803f
1.0 1.0 1.0 1.0 1.0 1.0 1.0 1.0
1.0 1.0 1.0 1.0 1.0 1.0 1.0 1.0
1.0 1.0 1.0 1.0 1.0 1.0 1.0 1.0
1.0 1.0 1.0 1.0 1.0 1.0 1.0 1.0

bias f4 [32]
00000000: 0000 0000 0000 0000 0000 0000 0000 0000
00000010: 0000 0000 0000 0000 0000 0000 0000 0000
00000020: 0000 0000 0000 0000 0000 0000 0000 0000
00000030: 0000 0000 0000 0000 0000 0000 0000 0000
00000040: 0000 0000 0000 0000 0000 0000 0000 0000
00000050: 0000 0000 0000 0000 0000 0000 0000 0000
00000060: 0000 0000 0000 0000 0000 0000 0000 0000
00000070: 0000 0000 0000 0000 0000 0000 0000 0000
0.0 0.0 0.0 0.0 0.0 0.0 0.0 0.0
0.0 0.0 0.0 0.0 0.0 0.0 0.0 0.0
0.0 0.0 0.0 0.0 0.0 0.0 0.0 0.0
0.0 0.0 0.0 0.0 0.0 0.0 0.0 0.0

weight f4 [256, 32]
00000000: f6b9 bd3d 009f 3fbd 0721 b0bd 4c43 0cbe
00000010: 2082 d03c 2080 3c3d b848 a33c 699b 113e
00000020: f8fa bf3c 2f95 cbbd c575 febd 39e0 243e
00000030: 2aa1 f33d ae39 8e3d 6c34 26bd f3dd 063e
00000040: c86d 7c3d 557a bbbd ea69 b53d 932d 153e
00000050: a66f d03d ce3e 8cbd d082 e4bc 5bf6 313e
00000060: 47c5 bebd d021 f23c d257 62bd 36f7 c43d
00000070: c462 0bbe 1093 7c3c a8ea ecbc 1834 e13c
00000080: 0440 49bd 323b 0dbe 88af e9bd d326 0abe
00000090: c4e7 27bd 84f3 0b3d eeff a33d 9808 c63c
000000a0: eead e33d f323 213e 0875 023d 6f40 1fbe
000000b0: c883 a1bd e000 723d 5684 bd3d d8ce 863d
000000c0: 4d3e b5bd 76cd 9e3d c6f5 e13d 933b 063e
000000d0: 28b3 8e3c af4e bebd c450 21bd 4653 e5bd
000000e0: 3480 1abe 8052 fe3b ea36 a03d 00c0 97b9
000000f0: 57bf 273e cab3 1abe 6c55 20bd 1157 1abe
00000100: 30a1 b8bc 1811 a83c 8069 b13a 8032 9c3c
00000110: 80ce 763b 44a0 1c3d 5f54 253e a9d5 30be
00000120: 56ce 10be 7bf0 273e 780b b63c 19d1 07be
00000130: 3e1b c13d d025 883d f225 a53d 3a9a dc3d
00000140: fee6 df3d 4ed9 0dbe adaa 093e 88df e53c
00000150: 5e1e 9a3d 1ab5 92bd 1a8d de3d a0a1 94bc
00000160: d24f 7bbd bf5a 1d3e da5e 7bbd 3415 7fbd
00000170: 1fb0 163e da94 e73d 778a 09be 09a6 b3bd
00000180: 0aff 993d 4caa 68bd 4064 e8bd 4aa8 e53d
00000190: 6e9a c33d 0aa7 f43d b4f7 10be 60fc 3abc
000001a0: bbfc e6bd 8e61 a53d e024 debb fbbc 11be
000001b0: 7ee6 853d 739b d5bd 98d2 e8bc c8f7 fbbc
000001c0: c060 d5bd 86d3 07be 0699 8f3d 40f9 ffbd
000001d0: aa44 30be 30da 413c 1db6 103e 688a 98bc
000001e0: 4b4b 89bd c3cc 183e a3c3 f8bd 80f7 21be
000001f0: 74a2 473d 6ff4 303e 4a30 bd3d a09d 98bd
00000200: 6cf3 383d 0846 bb3c 30d4 7f3d 0ebd 9bbd
00000210: d7fa babd 75a8 143e 2e2d e1bd 2253 ad3d
00000220: b2f1 a63d 8375 273e d0aa 95bd 2eac b63d
00000230: c611 aa3d ae37 fa3d 939a 1dbe 17e4 c3bd
00000240: cd90 8dbd a495 1cbd baed 55bd 0b89 a7bd
00000250: a9c5 203e abc4 dcbd 7880 1c3d 385e 95bc
00000260: dcdc 07bd 2298 e73d 77e0 d8bd 7e37 90bd
00000270: 4060 08bd cc10 c7bd 800c 3fbd e89b c9bc
00000280: 59a1 0b3e 5d9b 0cbe e491 6b3d d2ee 32be
00000290: 9dea 2d3e f48e 26bd 990f 06be bcbb 3a3d
000002a0: eae5 33be 1e12 34be 04d1 7c3d ee07 1fbe
000002b0: 0e22 f73d fd20 0e3e b538 073e 2e16 ad3d
000002c0: c066 a83b c4f3 f4bd 9e1c d33d 441c 303d
000002d0: 9042 1fbe 12eb e9bd b054 6bbc 5aff f83d
000002e0: 2796 1c3e 0b75 31be e4c4 10be 14f9 dfbd
000002f0: fe96 be3d 6942 94bd e8f2 613d 8c7b 383d
00000300: 595b 2a3e 1168 033e 4294 2bbe f56a 303e
00000310: 602e 0cbc 2c29 3dbd 4b59 dfbd 9f03 2e3e
00000320: c8df a53c f828 a33c 8e78 97bd c9ed 123e
00000330: 34ea 393d c821 813d d8e3 84bc 00f9 1d3a
00000340: 7400 213d 02a6 fd3d 1a95 b83d 60c0 e23b
00000350: ad22 b2bd c2bf f33d 5e7c 6fbd bbda 133e
00000360: 887b 903d 3027 ee3c b011 b5bd 4fab e3bd
00000370: dad2 11be c403 923d e685 af3d c0bc 1bbd
00000380: cca7 013d 18f3 88bc e1cc 9fbd d8d5 b13c
00000390: 88ce 3fbd 4c8a 17be 90d7 b4bc 72be dfbd
000003a0: 7c7e 233d c053 f1bc 1fa6 2bbe d71b 19be
000003b0: c655 ee3d e098 7b3d 02bd 55bd 9c7a 083d
000003c0: 9a94 fbbd 51d8 2fbe 26e1 8c3d 6077 76bc
000003d0: 84cf 2bbe c61b fb3d 5e55 d3bd 20ad 633c
000003e0: 3aac ee3d 00d8 6339 ac41 303d 80aa cbbb
000003f0: d276 f63d 8ee5 87bd 7249 02be 21c0 233e
0.09263985 -0.046782494 -0.086000495 -0.13697547 0.025452673 0.046020627 0.019932136 0.1421944
0.0234351 -0.09940564 -0.124248065 0.16101159 0.11895974 0.06944595 -0.040577337 0.13170604
0.061628133 -0.09154192 0.08858092 0.14568166 0.10177545 -0.068479165 -0.027894408 0.17379133
-0.093149714 0.029557139 -0.055259533 0.09617464 -0.13611895 0.015415922 -0.028920487 0.02749066
-0.049133316 -0.13792112 -0.11410433 -0.13491373 -0.040992513 0.03416778 0.08007799 0.02417402
0.11117159 0.1573637 0.03184989 -0.15551923 -0.078864634 0.059082866 0.09253757 0.06582421
-0.088497736 0.07754032 0.11033206 0.13108663 0.017419413 -0.092923515 -0.039383665 -0.11197524
-0.15087968 0.0077612996 0.07822974 -0.00028944016 0.16381584 -0.15107647 -0.039143965 -0.15072276
-0.022537798 0.020515963 0.001353547 0.019067049 0.0037659705 0.03823878 0.16145466 -0.17269005
-0.14141211 0.1640033 0.022222266 -0.13263358 0.09429024 0.06647837 0.08063878 0.10771604
0.1093273 -0.13852426 0.13444014 0.02806069 0.07525323 -0.07163449 0.10866757 -0.018143475
-0.06135542 0.15366648 -0.061369754 -0.06227608 0.14715622 0.11307688 -0.13431726 -0.08771903
0.07519348 -0.056803033 -0.11347246 0.11213739 0.095509395 0.11945923 -0.14156991 -0.01141271
-0.11278673 0.08075248 -0.006779298 -0.14232247 0.065381035 -0.1043004 -0.028420731 -0.0307578
-0.10418844 -0.13264284 0.07011609 -0.124987125 -0.17213693 0.011831805 0.1413197 -0.018620685
-0.06703814 0.1492186 -0.1214669 -0.1581707 0.04873891 0.17280744 0.09237726 -0.074519396
0.04515402 0.022860542 0.062458217 -0.07604419 -0.09129875 0.14517386 -0.109949455 0.08463122
0.081515685 0.16353421 -0.073079705 0.089195594 0.08304171 0.12217651 -0.15390997 -0.09564989
-0.06912384 -0.038228646 -0.052228667 -0.08180436 0.15700401 -0.10779699 0.038208455 -0.018233404
-0.033169612 0.11308314 -0.10589688 -0.07041834 -0.033294916 -0.097200006 -0.04664278 -0.024610475
0.13635768 -0.13731141 0.05751218 -0.17473915 0.16984029 -0.040663674 -0.13091888 0.045589194
-0.17568174 -0.17585036 0.06172277 -0.15530369 0.12067042 0.13879772 0.13205226 0.08451496
0.005139202 -0.11960557 0.10308193 0.042995706 -0.15552735 -0.11421789 -0.014363453 0.121580794
0.15291654 -0.17329805 -0.14137608 -0.1093618 0.09306143 -0.07239229 0.055163294 0.0450397
0.16636409 0.12832667 -0.16755775 0.17228301 -0.008555979 -0.046181843 -0.10905703 0.16993569
0.020248309 0.019916996 -0.07396041 0.1434852 0.04538937 0.063052714 -0.016221926 0.00060261786
0.039307073 0.12385179 0.09012814 0.0069199055 -0.0869802 0.11901809 -0.058468215 0.14438908
0.07054812 0.02907142 -0.08841264 -0.11116659 -0.1424059 0.071296245 0.08570461 -0.038021803
0.031654164 -0.016717479 -0.078027494 0.021708414 -0.046827823 -0.1479885 -0.022075444 -0.109249964
0.039915547 -0.02945888 -0.16762589 -0.14952026 0.11637454 0.06142509 -0.052182205 0.033320054
-0.12284203 -0.17172362 0.06878881 -0.01504311 -0.1677838 0.12261157 -0.10319017 0.013896257
0.11653943 0.00021728873 0.04303138 -0.0062153935 0.12034382 -0.06635581 -0.1272333 0.1599126

bias f4 [256]
00000000: 0820 d73c 24a6 b0bd 1034 913c 4ec2 c33d
00000010: ec46 03bd 85ad 07be 88a0 c4bc b18e 163e
00000020: f7ec e4bd ea21 efbd f64c e73d c8c1 29be
00000030: 6eb1 f53d ba77 ce3d e848 093d 90ba 4fbc
00000040: 7bd9 043e d8ab a3bd 1620 99bd 0ef5 d43d
00000050: 664d 02be 9828 bf3c b2be f9bd f688 5abd
00000060: 7baf 043e f98c 193e fe4e f83d 500d a03c
00000070: f403 79bd 961c eb3d c4a7 623d 13be 2b3e
00000080: 4b54 2d3e e612 ac3d 1d4a afbd 794a b6bd
00000090: 5807 333d aebb 6abd 296a 2a3e 7cc9 84bd
000000a0: a7bf 86bd fc10 153d 689b 523d 806a 633c
000000b0: 6d7c 183e 51a1 173e 8b59 243e 38f4 8ebc
000000c0: d058 1fbc f027 453c b188 003e fef2 9a3d
000000d0: d037 e4bd be6b bd3d d0ad b33c b799 253e
000000e0: b52b d5bd 6069 593c 7f1e 11be 1ac3 e53d
000000f0: 9ad2 d73d 8e23 ddbd b1ec 22be 563c c33d
00000100: 8354 223e 3d35 0ebe 5b92 cfbd d37c 2b3e
00000110: da5b 22be aa05 ff3d 90eb 13bd 900b 20be
00000120: b448 5ebd 6245 fd3d 766c fdbd 9f24 21be
00000130: 47e1 adbd 867c c23d 4040 04be 66d7 e13d
00000140: baf0 ad3d b50a 1a3e 18b6 3b3d 4c17 2e3d
00000150: 2e1b c03d 8900 dcbd 09ad 133e 3ef5 9c3d
00000160: 8c64 12bd b0c4 30bc 46f2 f2bd a05c 64bd
00000170: 5047 67bd 4cb5 e1bd 3e1c 15be 9b57 a8bd
00000180: a088 4dbd 41b4 2c3e da3d f73d 74b9 583d
00000190: 589b 70bd 1f5b 97bd 88e3 993c 889c 20bd
000001a0: 18a9 a9bd 9889 eabc c816 ffbc 9c7a 0ebe
000001b0: 902e 643c 50b2 2abe 2b27 17be a237 e63d
000001c0: 6e67 0abe 8890 09be e89f e7bc 40c7 25bd
000001d0: 04b7 813d 36fd fd3d dbb6 26be dbc8 2e3e
000001e0: ee26 b8bd 5811 c4bd c06b a5bd 46c3 de3d
000001f0: 8c3d 063d 002b b3bb 23aa 193e 4019 66bb
00000200: 12a3 c9bd ea2a 8b3d d804 d7bc c198 063e
00000210: ae44 a6bd 7007 db3c 2ab5 e03d 099c 1a3e
00000220: 60b0 41bd 285b 11bd b0b0 993c b04c 5dbd
00000230: f482 32be 0091 c83c a636 04be 783e 5bbd
00000240: ec38 1bbe baa1 e73d 1426 77bd 9d87 243e
00000250: bf00 163e 903d 95bc 1a53 973d 02b3 fc3d
00000260: 92ff f43d 4883 8dbc 5e4f 10be 7a69 c4bd
00000270: 7db1 163e 4ad6 0fbe 000d 543a ea05 903d
00000280: e0a9 48bd 1d6a 2d3e 2e0f 23be d4b5 4bbd
00000290: 1290 e8bd 81cb acbd 6121 2c3e 6821 15be
000002a0: 9651 a63d 77d0 f4bd 1aa1 c3bd e10a 28be
000002b0: e0bc 013c 11f6 1cbe bb4b 32be 400e 7b3c
000002c0: 198d 0f3e 1ca2 233d f08e 6e3d 4310 06be
000002d0: 652c 86bd 945d 4bbd e051 3dbc 98bb 513d
000002e0: be12 8a3d 2e69 87bd 63d5 babd de13 11be
000002f0: e3ef 283e 87bc 10be dc5a 02bd 1c62 98bd
00000300: 0039 0cba e3f9 30be 54ef 24bd 78ba 963c
00000310: e323 8fbd 268b 803d cc72 513d 666c f13d
00000320: 42e1 be3d 921b febd 94b3 333d 6a12 d63d
00000330: 726e d23d e2b4 a83d 46a9 eebd 2a42 983d
00000340: 45b8 2d3e 010a 273e 2b0e 08be f020 963c
00000350: e05c 083c d360 a9bd d822 f5bd 02fa b33d
00000360: 942b 0f3d 0c0f 733d 3055 393c 9411 e1bd
00000370: 900e 0c3c e4a1 5d3d cb99 08be c099 63bc
00000380: 8878 5b3d 4e3c ca3d 123b e63d c453 bebd
00000390: a161 22be 9876 6cbd 384b d43c c7e2 1e3e
000003a0: 927c ae3d 6c34 773d 4a76 a8bd ae4a 5cbd
000003b0: 6058 d23c d4b8 1dbe 8e91 05be 67b9 293e
000003c0: 7adb 9d3d 7819 a03c 4a90 d63d 0098 09be
000003d0: 9e6e c03d dc24 253d 89ef 9bbd fcbc b1bd
000003e0: eed0 ca3d 3862 f3bc b8ea 493d a6b0 0ebe
000003f0: 80d1 3ebd 6f7f 023e badb efbd 90ca 153c
0.02626039 -0.08625439 0.01772502 0.09558545 -0.03205006 -0.13249786 -0.024002329 0.1470287
-0.1117801 -0.116763905 0.11293976 -0.16577828 0.11996733 0.1008143 0.033516794 -0.012678757
0.12973587 -0.07991761 -0.07476823 0.10398303 -0.12724838 0.023334786 -0.12194575 -0.053353272
0.12957565 0.14995183 0.121244416 0.019537598 -0.060794786 0.11480062 0.055335775 0.16771726
0.16926686 0.08402042 -0.08559058 -0.08900923 0.043708175 -0.05730789 0.1664206 -0.064837426
-0.065795235 0.03639315 0.05141774 0.013880372 0.14891215 0.14807631 0.16049783 -0.017450437
-0.009725764 0.012033448 0.12552144 0.07565878 -0.11143458 0.09249066 0.021933466 0.16171919
-0.10408727 0.013269752 -0.1417179 0.11218853 0.10538216 -0.10797797 -0.15910603 0.095329925
0.15852551 -0.13887496 -0.10135337 0.16746835 -0.15855351 0.12452252 -0.03611332 -0.1562941
-0.054268554 0.12366749 -0.12374203 -0.15736626 -0.08490234 0.09496407 -0.12915134 0.11027412
0.084931806 0.15043147 0.045827955 0.042502686 0.09380184 -0.107422896 0.14421476 0.07663964
-0.03574042 -0.010789081 -0.11862616 -0.055752397 -0.056464493 -0.11020908 -0.14561555 -0.082198344
-0.050179124 0.16865636 0.12072344 0.052911237 -0.058741897 -0.07390427 0.018785253 -0.03921178
-0.08284205 -0.028630063 -0.031138793 -0.1391396 0.013927117 -0.16669583 -0.14761035 0.1124108
-0.13516018 -0.1343404 -0.028274491 -0.040473223 0.063337356 0.12401812 -0.16280691 0.17068808
-0.089918 -0.095736206 -0.08077192 0.10877089 0.03277354 -0.0054677725 0.15006308 -0.0035110265
-0.09845556 0.067952946 -0.026247427 0.13144208 -0.08118568 0.026736945 0.10972054 0.15098585
-0.047287345 -0.035487324 0.018761009 -0.054028213 -0.17432767 0.024483204 -0.12911472 -0.05352637
-0.15158433 0.11310144 -0.06033905 0.16067357 0.14648722 -0.018217832 0.07388897 0.123388305
0.11962809 -0.017274514 -0.14092776 -0.095904306 0.14716144 -0.14046589 0.00080890954 0.07032378
-0.04899013 0.1693501 -0.1592376 -0.04973395 -0.11355604 -0.08437253 0.16809608 -0.14563525
0.0812103 -0.11953824 -0.09552212 -0.164104 0.007918566 -0.15328242 -0.17411701 0.015323222
0.14018668 0.03994952 0.058241785 -0.13092141 -0.06551436 -0.04964979 -0.011555165 0.051204294
0.06741856 -0.06611858 -0.091227315 -0.14167735 0.1649776 -0.14134417 -0.03182493 -0.07440588
-0.000534907 -0.17282824 -0.040267304 0.018399462 -0.06989267 0.062765405 0.05113487 0.117882535
0.09320308 -0.12407602 0.04387243 0.10452731 0.10274972 0.08237626 -0.1165338 0.07434495
0.16964824 0.1631241 -0.13286655 0.018326253 0.008322924 -0.08270421 -0.119695365 0.087879196
0.03495367 0.05934052 0.011311814 -0.10989681 0.008548394 0.05410947 -0.13339917 -0.013891637
0.053581744 0.098747835 0.112417355 -0.09293321 -0.15857555 -0.057730287 0.025914773 0.15516196
0.08519854 0.060352728 -0.08225687 -0.053782158 0.025676906 -0.15402538 -0.13043806 0.16574632
0.077078775 0.019543394 0.1047674 -0.1343689 0.093960986 0.040318355 -0.07614047 -0.08678624
0.099031314 -0.02970992 0.04929611 -0.13934574 -0.046586514 0.12743925 -0.117118314 0.009142533

weight f4 [32, 128]
00000000: 16e3 93bd 9fd3 afbd b136 aa3d 00a8 1c38
00000010: 0c39 ed3c 2f2e 803d ad1d 9b3d e97a a83d
00000020: 5748 a3bd 622f 79bd 0059 a63b daed 683d
00000030: 1596 07bd c94b a93d 75be 24bd a2a8 f6bc
00000040: 0521 51bd 200f d43b 8c2c 9ebd e889 cd3c
00000050: 6092 373c d021 0ebc abf2 a93d 42d2 2b3d
00000060: f2d0 10bd 00a2 3f3c 6e6f 30bd cc52 d2bc
00000070: b0ec 083d 0490 8fbd 205f c6bc 960b 3cbd
00000080: fbd5 af3d 0047 aebb 9ed6 5fbd b8e4 56bd
00000090: 54b3 d93c 7739 ab3d 64e6 8bbd 70a5 363c
000000a0: f4cd ee3c 6401 76bd 326e 07bd 39b5 a63d
000000b0: 0ebf e7bc 363a 90bd 845b 81bd d6cb 24bd
000000c0: 000f a03a abb9 0bbd 58c4 c83c 1ce1 843c
000000d0: 481b 5bbc e890 86bd 96e0 713d 3026 8b3b
000000e0: 4bd2 823d b5ed a13d 64f0 cb3c d0c0 a1bb
000000f0: d027 12bc 9b34 ad3d b48f 953c 177a b03d
00000100: 930a 39bd d07c fbbb 60c1 7ebb c0c8 943c
00000110: ccbf cbbc 4c03 82bc c091 b23a 30e0 28bc
00000120: 8014 06ba 160d 633d 6adf 603d 8cf7 89bd
00000130: fdd5 9d3d 8036 bcbc e6fb 78bd 8120 8abd
00000140: 5097 cfbc d225 6c3d d31e a63d 5d80 b33d
00000150: e116 7fbd e097 a0bb 8d31 b33d 839c 973d
00000160: b35d 9e3d 60ad a0bd 6d26 4ebd 20c8 61bb
00000170: a4f5 9abd 2eaf 4e3d 3e4b 343d 68ec 21bc
00000180: 9ede 59bd d0cb 5e3c 483f f53c 684e b0bc
00000190: 6885 093d 03c1 983d d8c9 a13c 0831 da3c
000001a0: e65a 11bd a0ac 0bbc 154b 25bd 8098 88bd
000001b0: 22f6 403d 61e7 9e3d d0c5 b23c 0673 263d
000001c0: b0b7 a03c 4008 d5bb 978a 8d3d 70f1 b0bb
000001d0: ca6a 003d d42c 103d 9609 413d 50f7 ce3c
000001e0: d837 25bd 6cc5 d1bc 009a 523a 16d5 b3bd
000001f0: eeff f0bc 5052 343c 0861 153c a87f c93c
00000200: 5d7e 02bd e7af 8f3d 8684 57bd 003e 6bba
00000210: 7001 b03b c61e acbd c2b4 433d 3cbe e73c
00000220: 3034 73bc 0dd7 54bd 241b d2bc 90cb 3e3c
00000230: 8009 16bc 805c f7ba 9d99 0ebd 8e7b 98bd
00000240: f49a 993c 1caf 11bd acc3 a9bc a643 4d3d
00000250: 405d ae3a d539 38bd d554 853d ec8a db3c
00000260: 70c3 943c 6054 893b a00f 4dbb a4a7 a6bc
00000270: 1ab7 6a3d f97d 9abd 4cb5 92bc ecfe 9abd
00000280: aa99 533d 0040 d5bc 7e1c aebd c121 abbd
00000290: 209d f6bb 08f4 72bd 90fe bd3c 5d64 943d
000002a0: 208c 76bc c3a8 8d3d a27b 553d 93e7 9abd
000002b0: 8df4 52bd 3319 ac3d 1c62 0dbd d1d9 b03d
000002c0: 5ed7 303d c273 763d d2e4 373d d48e 04bd
000002d0: 003e 07ba de0b 1f3d eaf4 8bbd 72f2 173d
000002e0: c0be d2bc 9967 b33d 6010 36bb 629a 343d
000002f0: e099 ddbb 1b03 873d 77d3 53bd e06a 303b
00000300: ebc5 9fbd 865e 88bd 00d1 a9bb 02d7 50bd
00000310: fcb1 aebd 2f47 813d 9eb5 d6bc 8bc2 8c3d
00000320: 5913 00bd f651 dfbc a8c4 a1bd 7e93 8abd
00000330: dc43 993c 288e 81bc 6eea 52bd 66ed e5bc
00000340: 4af9 5a3d aa16 f5bc 469b 1e3d 40dc c13a
00000350: a5f7 9f3d e185 32bd 8805 6abc 685e 29bc
00000360: ee01 243d 2bc0 22bd f6a5 213d 0854 70bc
00000370: c21c 20bd 0860 283c 42fe 0f3d 1705 b23d
00000380: 2010 2d3b c7a8 a13d 7a8d 3b3d 847a 2fbd
00000390: e06c 0f3d ec5f bd3c 852b 993d 776d a13d
000003a0: b169 02bd 83d7 903d 6d95 803d f8c7 7ebd
000003b0: 40db 29bc 862d 2ebd effe 803d 1253 44bd
000003c0: c03f 723c a378 983d 4718 b03d bf45 96bd
000003d0: 8871 84bd b1d8 893d c0b3 a7bd 1836 de3c
000003e0: 2237 713d 5fed 8b3d a09c db3c 3eab 7a3d
000003f0: 5089 9f3b 805a 45bc bbcb 923d ca27 193d
-0.072210476 -0.085852854 0.08311213 3.734976e-05 0.028957866 0.06258809 0.075740196 0.08226568
-0.07972782 -0.060836203 0.0050765276 0.056867458 -0.033102114 0.08266408 -0.040220696 -0.030109707
-0.05105688 0.0064715296 -0.077233404 0.025090173 0.011204332 -0.008675054 0.08298238 0.041948564
-0.035355516 0.011696339 -0.043075018 -0.025674246 0.033428848 -0.07009891 -0.024215281 -0.045909487
0.085857354 -0.0053185225 -0.054648034 -0.052464217 0.026574768 0.0836057 -0.06831053 0.011147842
0.02915094 -0.06005992 -0.033064075 0.08140034 -0.028289344 -0.07042353 -0.06316283 -0.040233456
0.0012211502 -0.034112614 0.024507686 0.016220622 -0.013373204 -0.065706074 0.059052072 0.0042464957
0.063877665 0.07906667 0.0248949 -0.004936315 -0.008920625 0.08457299 0.018257 0.08617037
-0.0451761 -0.007674791 -0.0038872585 0.018162131 -0.02487173 -0.015870713 0.0013623759 -0.010307357
-0.0005114749 0.0554324 0.054900564 -0.06736669 0.07706831 -0.022975206 -0.060787104 -0.06744481
-0.025340706 0.057653256 0.08111348 0.08764718 -0.06227768 -0.0049009174 0.087496854 0.07402899
0.077327155 -0.07845569 -0.050329614 -0.003445156 -0.075663835 0.050460033 0.04401707 -0.009883024
-0.05319082 0.013598397 0.029937401 -0.021521762 0.03357449 0.07458689 0.019749567 0.026634708
-0.035487078 -0.008525044 -0.040354807 -0.06669712 0.04710973 0.07758976 0.02182284 0.04063704
0.019618839 -0.0065012276 0.069111995 -0.0053998753 0.031351842 0.035199 0.047128282 0.025264412
-0.04033646 -0.025606833 0.0008033812 -0.08780877 -0.029418912 0.011005953 0.009117372 0.024597004
-0.03185879 0.070159726 -0.05261662 -0.00089737773 0.005371265 -0.08404307 0.047779806 0.028288953
-0.014843985 -0.0519629 -0.025647707 0.011645213 -0.009157538 -0.0018872172 -0.034814466 -0.07445441
0.018750645 -0.035567388 -0.020723186 0.050113343 0.0013302937 -0.044977028 0.06510321 0.026799642
0.018159598 0.0041909665 -0.003128983 -0.02034361 0.057303526 -0.075435586 -0.017908715 -0.07568154
0.051660217 -0.026031494 -0.08501528 -0.083560474 -0.007526055 -0.059314758 0.023192674 0.07245705
-0.015048057 0.06916954 0.05211986 -0.075637005 -0.051502753 0.08403244 -0.034517393 0.08635295
0.04317414 0.06016899 0.044895954 -0.032362774 -0.000515908 0.038829677 -0.06833823 0.03709645
-0.025725722 0.08759994 -0.0027780756 0.044092543 -0.006762728 0.06592389 -0.05171534 0.0026919171
-0.07801422 -0.06658654 -0.0051823854 -0.050986297 -0.085300416 0.06312405 -0.026209649 0.068730436
-0.03126845 -0.027260762 -0.07898837 -0.06766413 0.018709116 -0.015814856 -0.0514931 -0.028067302
0.053460397 -0.029918034 0.0387223 0.0014790371 0.07810906 -0.043584708 -0.014283545 -0.01033745
0.040040903 -0.039734047 0.039464913 -0.014668472 -0.039089926 0.010276802 0.03515459 0.08692377
0.0026407316 0.0789352 0.04578922 -0.04284145 0.03501594 0.023117028 0.07479004 0.07882207
-0.031839076 0.070723556 0.06278501 -0.062202424 -0.010367215 -0.042523883 0.06298625 -0.047930785
0.014785707 0.07444885 0.085983805 -0.07337522 -0.06466967 0.06730784 -0.081885815 0.027125403
0.05889047 0.06832384 0.026808083 0.061198466 0.004868664 -0.012045503 0.07167765 0.03739146

bias f4 [32]
00000000: 8b8a 8e3d cbd5 54bd 00e4 dc3a 56de 5cbd
00000010: 240b e83c a3b5 973d 6c63 b9bc bba2 af3d
00000020: 705f d5bb 08d4 bb3c 0efd 0bbd d4f0 133d
00000030: ebde 993d a83c a93c 4229 acbd 00f0 eb3b
00000040: 97f9 2cbd f67e 093d 705b c9bc 59cd 933d
00000050: 5dc2 9e3d 1643 663d 8068 ac3a 64d8 94bd
00000060: ac98 3fbd d2b9 393d 09a1 a23d 6bf0 ab3d
00000070: 6a58 703d 0cb9 f7bc 00eb 3ebc a4e0 e03c
0.06960019 -0.0519617 0.0016852617 -0.053922974 0.028325625 0.07407691 -0.022630416 0.0857596
-0.006511621 0.022928253 -0.03417688 0.036118343 0.07513221 0.020658806 -0.08406307 0.007200241
-0.042230215 0.033568345 -0.024579734 0.07216901 0.077519156 0.056216322 0.0013153702 -0.07267836
-0.04677646 0.045343228 0.07940871 0.083954655 0.05867807 -0.030239604 -0.011652708 0.027450867

weight f4 [32]
00000000: 0000 803f 0000 803f 0000 803f 0000 803f
00000010: 0000 803f 0000 803f 0000 803f 0000 803f
00000020: 0000 803f 0000 803f 0000 803f 0000 803f
00000030: 0000 803f 0000 803f 0000 803f 0000 803f
00000040: 0000 803f 0000 803f 0000 803f 0000 803f
00000050: 0000 803f 0000 803f 0000 803f 0000 803f
00000060: 0000 803f 0000 803f 0000 803f 0000 803f
00000070: 0000 803f 0000 803f 0000 803f 0000 803f
1.0 1.0 1.0 1.0 1.0 1.0 1.0 1.0
1.0 1.0 1.0 1.0 1.0 1.0 1.0 1.0
1.0 1.0 1.0 1.0 1.0 1.0 1.0 1.0
1.0 1.0 1.0 1.0 1.0 1.0 1.0 1.0

bias f4 [32]
00000000: 0000 0000 0000 0000 0000 0000 0000 0000
00000010: 0000 0000 0000 0000 0000 0000 0000 0000
00000020: 0000 0000 0000 0000 0000 0000 0000 0000
00000030: 0000 0000 0000 0000 0000 0000 0000 0000
00000040: 0000 0000 0000 0000 0000 0000 0000 0000
00000050: 0000 0000 0000 0000 0000 0000 0000 0000
00000060: 0000 0000 0000 0000 0000 0000 0000 0000
00000070: 0000 0000 0000 0000 0000 0000 0000 0000
0.0 0.0 0.0 0.0 0.0 0.0 0.0 0.0
0.0 0.0 0.0 0.0 0.0 0.0 0.0 0.0
0.0 0.0 0.0 0.0 0.0 0.0 0.0 0.0
0.0 0.0 0.0 0.0 0.0 0.0 0.0 0.0

weight f4 [384, 32]
00000000: 6a39 bb3d 4904 0f3e f05b 863d 0055 263d
00000010: ea40 8abd 5069 31be f390 0f3e b4a1 adbd
00000020: 29bc 013e ddbf d1bd 7cab 0ebd c8b4 063d
00000030: b1bd 1fbe a066 fe3b c8c9 af3c bc9a 08bd
00000040: cf8a 033e 6c65 2fbe f3ce 8dbd 9618 a03d
00000050: 809b 8dbc 3b0b 003e e08e 58bc 7b2e 013e
00000060: a1a8 183e bca9 d3bd 18ee 2abe 6f65 2b3e
00000070: a766 b7bd 4bfc a6bd 8a50 75bd f872 9abc
00000080: 0942 1c3e bcf4 593d 18a0 f1bc 5c3b 5ebd
00000090: fad0 11be 60b2 49bd 58c6 a83c 30ea 84bc
000000a0: 0013 09ba b806 9dbc 8763 95bd f697 5fbd
000000b0: be38 fa3d f048 47bd 9103 1b3e 6ac2 c43d
000000c0: 0ec7 18be b8b9 513d ab71 1a3e 9d72 b6bd
000000d0: d467 0cbd c6e2 a13d d966 17be 88fb b9bc
000000e0: 2119 09be d8cc 143d f7e6 1c3e e8d9 b9bc
000000f0: 6870 f03c 2267 b53d 7922 343e c0b2 b93b
00000100: ec33 20be 7626 f4bd f333 2f3e ca71 9cbd
00000110: d47a 093d 2ccf 26bd d071 42bc 4e3e 00be
00000120: 600d 12be 5e38 f5bd 0c6f 3c3d cc32 4fbd
00000130: 0d7b 293e 321f 32be 8734 03be d047 eebd
00000140: 1051 413d b409 42bd 9f55 00be dff6 30be
00000150: 1063 013c 1882 653d d261 83bd 9054 10bc
00000160: deea c63d 245e 4e3d de41 70bd 383d 0cbe
00000170: adc9 1f3e cb1a 32be 7e06 13be 80c7 003c
00000180: 7468 953d 13dd d6bd 2545 2b3e 84bb 14be
00000190: d196 2a3e f81e 363d fbc0 03be 8c90 6d3d
000001a0: 87f0 22be 517b dabd 0239 e93d 8878 823d
000001b0: 86e0 9e3d 584e d2bc a0e5 b93c 327a ad3d
000001c0: e853 8a3c 572e 2dbe fb52 0dbe a0e3 c93b
000001d0: 13a1 1e3e a09d 103c 92ab 9f3d cc9b 16be
000001e0: 407f 0dbc 886c 2ebe 88c5 c1bc 2833 24bd
000001f0: e088 593c 6ed9 a13d 4000 923d 8004 cbba
00000200: b608 9a3d 9a54 8c3d 80f8 86bc 56af 13be
00000210: 9851 db3c d16c 2c3e 3862 12be f9f3 dbbd
00000220: 00c7 84bb 7cff 1dbe 7fd3 33be 88dd 17bd
00000230: ae86 ed3d f07b 883d ded5 16be ee37 e43d
00000240: 7149 25be 304a f53c 5fa4 0d3e c01c 25bd
00000250: 1d6d 15be 5406 12be 836a 313e 6a26 8bbd
00000260: 48fc e0bc 046f b5bd 7342 2d3e 925c e33d
00000270: fe70 f8bd c087 023d 6219 833d 5164 cfbd
00000280: 954d 233e 86b5 bb3d a704 0f3e c6f6 b63d
00000290: 2e44 cf3d f86c 043d 907a bdbd d0cb 713d
000002a0: 983a 163d da58 f93d 1bec 8bbd af0b 33be
000002b0: 4322 253e f900 f2bd 009d 72ba c866 aabc
000002c0: 2c2a 9cbd fbcf 263e 428d d93d 7189 093e
000002d0: 2940 083e 2e48 d53d 5992 023e 78e5 3ebd
000002e0: 8eda 0fbe 3e05 7cbd c5bf bbbd 3a98 ea3d
000002f0: 6a6b 0ebe ed69 1bbe 1ff9 d9bd 1087 6ebc
00000300: e089 3b3d 5507 103e 026a dc3d 35f1 313e
00000310: 007d a3ba e021 9f3b 0cd7 2abd d108 2fbe
00000320: 985a 023d 71a0 043e 40e3 f63c c2da 94bd
00000330: 022a c23d ce34 d13d e68f fd3d f091 abbd
00000340: 6a33 5cbd ea8b d63d f813 a1bd 340a a3bd
00000350: c0fc 693b 591f 253e 3a7e c83d 0055 9e3c
00000360: 6d48 0a3e 31d6 083e 48da efbd 4e23 0fbe
00000370: 47d0 2dbe 8bd5 143e 011e 193e 08f6 cf3c
00000380: f23d c93d 6853 3f3d 808d 10bd 8035 5cbb
00000390: 9e80 993d e2da b7bd 56ec 27be 2e10 cdbd
000003a0: 78ca 26bd 0368 e5bd e093 85bc 4028 61bb
000003b0: 1ba1 1d3e 2002 c2bc c0bb 9b3b 91c1 94bd
000003c0: ee80 ae3d 90c0 733d 12da 09be 2712 b9bd
000003d0: 975e 1d3e a832 cabc e0d5 25bc 8486 4bbd
000003e0: 14ed 8fbd 0d28 0ebe 7046 d93c 92c8 18be
000003f0: cc4e 953d 0dbc 153e fc2f 18be fce6 823d
0.0914181 0.13966478 0.065605044 0.040608406 -0.067506626 -0.1732533 0.14020137 -0.08478108
0.12669434 -0.10241673 -0.03483151 0.03288725 -0.15599705 0.0077636987 0.021458521 -0.03335069
0.1284592 -0.17128533 -0.06924238 0.078171894 -0.017286062 0.12504284 -0.013217658 0.12615387
0.14908077 -0.10335109 -0.16692388 0.16737913 -0.08955126 -0.0815359 -0.05989126 -0.01885365
0.15259565 0.053211913 -0.029495284 -0.05425583 -0.14239874 -0.049242377 0.02060239 -0.01622495
-0.00052289665 -0.019168243 -0.07294374 -0.05458828 0.12217854 -0.048653543 0.15138079 0.09607394
-0.14919683 0.051202506 0.15082423 -0.089085795 -0.034278706 0.07904582 -0.14785327 -0.022702947
-0.13388492 0.036328167 0.15322481 -0.022686914 0.029350474 0.08857562 0.17591275 0.0056670606
-0.15644807 -0.11921398 0.17109661 -0.07638891 0.033564404 -0.04072492 -0.011867955 -0.12523767
-0.14262915 -0.11973642 0.04600434 -0.050585553 0.16550846 -0.17394713 -0.12813006 -0.11634791
0.047196448 -0.047372535 -0.12532662 -0.17281674 0.0078971535 0.05603227 -0.06415142 -0.008809224
0.09712766 0.05038275 -0.058656566 -0.13695228 0.15604277 -0.17393033 -0.14357945 0.0078600645
0.072953135 -0.10491385 0.16725595 -0.14524657 0.16659094 0.044463128 -0.12866585 0.05799918
-0.15912066 -0.10668052 0.113878265 0.06370646 0.07757668 -0.025672123 0.022692502 0.084705725
0.016885713 -0.16912208 -0.13801186 0.006161168 0.15491132 0.008826643 0.07796396 -0.1470787
-0.008636296 -0.17033589 -0.02365376 -0.04008785 0.013277262 0.079027995 0.07128954 -0.0015489012
0.07521193 0.06852074 -0.016475916 -0.14422354 0.026772305 0.16838385 -0.1429528 -0.107398935
-0.004052043 -0.15429491 -0.17561148 -0.037076503 0.11597954 0.06664264 -0.14730021 0.1114348
-0.16141297 0.029942602 0.13832234 -0.04031062 -0.14592405 -0.14260226 0.17325787 -0.06794436
-0.027464047 -0.08859065 0.1691988 0.11101641 -0.121309265 0.031867743 0.06401326 -0.10126556
0.15947564 0.09165482 0.13966618 0.08933787 0.10120426 0.032330483 -0.092518926 0.05903226
0.036676973 0.1217515 -0.06832143 -0.17484926 0.16126351 -0.11816592 -0.0009254962 -0.020800963
-0.07625231 0.16290276 0.10622646 0.13431336 0.13305725 0.10414158 0.1275114 -0.046605557
-0.14048216 -0.061528437 -0.091674365 0.11454816 -0.13908163 -0.15177126 -0.10643219 -0.014558569
0.045785785 0.14065297 0.10762407 0.1737717 -0.0012473166 0.004856333 -0.04170899 -0.17093207
0.03182468 0.12951829 0.030137658 -0.07268287 0.094806686 0.1021515 0.12380962 -0.08377445
-0.05375997 0.10475905 -0.07865137 -0.079609305 0.003570363 0.1612524 0.09789701 0.01932764
0.1350419 0.13362958 -0.11711556 -0.13978311 -0.16973983 0.14534585 0.14952852 0.025385872
0.09826268 0.0467104 -0.035291195 -0.0033601224 0.07495235 -0.089772955 -0.16398749 -0.10012852
-0.040720433 -0.11201479 -0.016305864 -0.0034356266 0.15393488 -0.023682654 0.004752606 -0.07263482
0.08520685 0.059509814 -0.13462093 -0.090366654 0.15368114 -0.024682358 -0.010121793 -0.04968883
-0.07027641 -0.13882466 0.026522845 -0.14920262 0.0729042 0.14622517 -0.14862055 0.06391713
