continuous_birth_tf.pth (torch, 745586 bytes, 75 tensors)

weight f4 [2, 28]
00000000: a044 993e 3cee a43f c298 22be a262 c53e
00000010: af88 1f3f 72e7 b0be ab7c 043e 8dab 503f
00000020: a08a 8ebf a765 f6be 1299 9bbf 9eef 3f3e
00000030: fbb8 6f3f c5df 88bd d807 24bf e335 ffbf
00000040: 3fe0 263e ade0 dd3e f516 71bf b9b2 573f
00000050: a2ed 3b3f 0a21 e03c c1be df3e 50d9 e3be
00000060: 7445 713f 7f9a 4cbe 4c44 06bd dd7a 283f
00000070: 63d0 52bd 0599 a83d dd70 0c3c 3bb6 ccbc
00000080: a4d3 9d3f 9784 b1bc 1d28 0c40 fb71 bfbf
00000090: 0860 003f 79b1 cc3e 9eda 233f 09de bf3e
000000a0: 3afe 47bf 80ba 893e fad5 fcbf f694 82be
000000b0: 447f 7f3f e18d 24bf f7c7 5cbf c9f2 c23f
000000c0: 52ac a53f a10e 1a3f 27cc 37bf b9cc 743d
000000d0: ce7a 883f bebc 1cbe 1ff5 23bf df5a f5bf
0.2993517 1.2885203 -0.15878585 0.38551813 0.6231794 -0.3455158 0.12938182 0.81511766
-1.1136055 -0.4812443 -1.2156088 0.1874375 0.9364163 -0.06683306 -0.6407447 -1.993832
0.1629648 0.43335477 -0.94175655 0.84257084 0.73409474 0.027359504 0.4370022 -0.44501734
0.942466 -0.1998081 -0.032779977 0.65812474 -0.051468264 0.08232311 0.008571831 -0.024989238
1.2330213 -0.02166967 2.1899483 -1.4956659 0.5014653 0.3997915 0.6400546 0.37474087
-0.78122294 0.269001 -1.97528 -0.25504273 0.99803567 -0.6427899 -0.8624262 1.5230342
1.2943213 0.6017857 -0.71795887 0.05976555 1.0662477 -0.15306374 -0.640459 -1.9168357

weight f4 [2]
00000000: e461 8b3f 805d 6c3f
1.0889249 0.9233017

bias f4 [2]
00000000: 383e 233d 6673 e83d
0.03985426 0.113501355

weight f4 [32]
00000000: 0000 803f 0000 803f 0000 803f 0000 803f
00000010: 0000 803f 0000 803f 0000 803f 0000 803f
00000020: 0000 803f 0000 803f 0000 803f 0000 803f
00000030: 0000 803f 0000 803f 0000 803f 0000 803f
00000040: 0000 803f 0000 803f 0000 803f 0000 803f
00000050: 0000 803f 0000 803f 0000 803f 0000 803f
00000060: 0000 803f 0000 803f 0000 803f 0000 803f
00000070: 0000 803f 0000 803f 0000 803f 0000 803f
1.0 1.0 1.0 1.0 1.0 1.0 1.0 1.0
1.0 1.0 1.0 1.0 1.0 1.0 1.0 1.0
1.0 1.0 1.0 1.0 1.0 1.0 1.0 1.0
1.0 1.0 1.0 1.0 1.0 1.0 1.0 1.0

bias f4 [32]
00000000: 0000 0000 0000 0000 0000 0000 0000 0000
00000010: 0000 0000 0000 0000 0000 0000 0000 0000
00000020: 0000 0000 0000 0000 0000 0000 0000 0000
00000030: 0000 0000 0000 0000 0000 0000 0000 0000
00000040: 0000 0000 0000 0000 0000 0000 0000 0000
00000050: 0000 0000 0000 0000 0000 0000 0000 0000
00000060: 0000 0000 0000 0000 0000 0000 0000 0000
00000070: 0000 0000 0000 0000 0000 0000 0000 0000
0.0 0.0 0.0 0.0 0.0 0.0 0.0 0.0
0.0 0.0 0.0 0.0 0.0 0.0 0.0 0.0
0.0 0.0 0.0 0.0 0.0 0.0 0.0 0.0
0.0 0.0 0.0 0.0 0.0 0.0 0.0 0.0

weight f4 [384, 32]
00000000: 48c2 9bbc 8eff ee3d 453c 1b3e f655 ff3d
00000010: 26c2 9e3d b06f 593d fa01 d5bd 8761 e7bd
00000020: d587 213e 9538 173e a02b 0f3d 098f e1bd
00000030: 80fd b2bc 1430 28bd 1ae0 2ebe 2538 12be
00000040: fc24 19be 6ee7 973d 7c17 cfbd e0bd ebbd
00000050: 75ed 223e 295c 1ebe 80b1 ee3a 9e80 cabd
00000060: a0f8 a73b b0ef c4bc 31fb 1cbe 52f7 803d
00000070: 0049 61bd 9349 0f3e 943c 8b3d 89c8 07be
00000080: d89a 09be 1a60 b93d 1856 353d 89a2 1dbe
00000090: 0e27 f13d c878 28bd b4c6 943d 4d09 1d3e
000000a0: 0835 1abe 202a 883c 2108 0b3e 08ff 30bd
000000b0: de9e fd3d e6c1 81bd 613a b7bd c8d2 f5bc
000000c0: 80a7 f13a a9f0 fabd 16d2 20be de93 ca3d
000000d0: 2e4a c33d aa9b 863d 2233 6bbd 2a6f d73d
000000e0: b0a3 a7bc d82f f3bd da76 953d 3123 063e
000000f0: 70df 69bd f41f 683d e048 afbb f9e3 00be
00000100: 7db4 ddbd b07a eabc 3c44 733d 93ca 003e
00000110: 02c2 21be ac6e 55bd 56e7 933d 1c9a 27bd
00000120: 9a2f 883d cba4 263e 8064 66bc 4355 2d3e
00000130: e057 02be eea7 02be e8ea 3c3d f8b4 883d
00000140: b5c5 043e d55f a5bd 50d3 8dbc 1cb7 033d
00000150: 79f1 023e c8ac b23c 721e b33d 201a f63b
00000160: 939d 2d3e 3d9a 2f3e 706e 49bc 765a 68bd
00000170: 2acf ad3d 0841 c6bc 7df5 13be a8b3 e93c
00000180: 8839 fcbc b7db 0f3e 0b8a 1e3e ce8d 973d
00000190: c22c b43d 5447 2cbe e77f 0e3e 911e 0ebe
000001a0: d67c 30be f25b ed3d e074 b0bd d8a7 843d
000001b0: b413 32be 679a 2b3e 20e5 ee3c 40df 73bc
000001c0: ab2b cdbd 930d b8bd 35b0 1f3e b008 1fbd
000001d0: b106 81bd f046 533c a50a 1e3e bd83 2a3e
000001e0: eaa5 8dbd 79c2 163e 54e8 10bd ac6a 093d
000001f0: 73ad 07be 16ab bc3d f2bd c13d 1f2d eebd
00000200: ea4d 56bd f8b4 533d a199 053e 5111 243e
00000210: fa47 0bbe 2a55 a73d ec9e 3e3d 47f7 273e
00000220: b912 273e 254e 283e c975 213e 3aed 84bd
00000230: 7c61 6a3d d1f8 153e 0c74 0dbd c38c 123e
00000240: 3ca2 0b3d f73e 2d3e 2104 d7bd 5d1f e4bd
00000250: 7001 883d e8e0 80bd 8a13 953d 600b 233c
00000260: 6cc0 14bd 4102 023e 9933 cebd 8c92 09be
00000270: 7844 c83c 88e7 fbbc 6438 79bd 803b f7bb
00000280: b80a 843d 1957 2bbe 807c cbbd 9c72 e7bd
00000290: f065 983c 1cd5 41bd 2434 2bbe 6642 c03d
000002a0: 6e3d cd3d d0a2 30bd 50ad 703c 1471 0d3d
000002b0: 56f3 84bd 8f05 2d3e ca58 73bd ae20 9b3d
000002c0: f65f 0ebe e887 a83c 56f0 b43d 28cf b73c
000002d0: f61a 80bd 5f07 e3bd c0e4 cabd 621c c6bd
000002e0: 99f4 0dbe 50c4 31bd 70f1 b5bc c17a 8ebd
000002f0: 403b 383b d365 0b3e ac96 2fbe f42a 283d
00000300: 0921 f4bd ce5a fa3d 75d2 253e a0c5 4b3c
00000310: 0820 bdbd 2768 dbbd d248 853d 2b9e 243e
00000320: fa77 21be 6a8c e8bd 0a1f ce3d 2276 e03d
00000330: 927e fa3d 8a0a a33d 441d 02be 489b 83bc
00000340: d018 53bd 42ca d43d eb0b c2bd 47cd 1e3e
00000350: 9767 203e cd09 cabd 50fd 12bd 24ce 4f3d
00000360: c338 c7bd a099 d73b 5ea0 c63d f273 19be
00000370: 27ce 253e 7e20 cd3d f46b 093d 3097 913d
00000380: 808f 23be b6ba e23d 1ab9 b63d 6b12 113e
00000390: 881d 8b3c c946 18be 6ce3 953d 50f3 f53c
000003a0: 1ac6 95bd 82b6 e93d 5c05 2b3d 408e 7a3c
000003b0: 25d2 2a3e 131e 113e 9411 163d 405b 10bd
000003c0: b87c 7b3d 004b 24bd c3d5 323e 5a34 9dbd
000003d0: d068 06bc fa1b a53d 27dd 053e 98b2 e93c
000003e0: 6afb d23d 4d83 f2bd f9c0 0e3e 4e6a 973d
000003f0: 05fc a8bd 3046 ad3c ca1d f53d 3a2c a03d
-0.019013539 0.11669837 0.1515971 0.124675676 0.077518746 0.05308503 -0.104007676 -0.11297899
0.15774472 0.14767678 0.034953713 -0.1101361 -0.021849394 -0.041061476 -0.17077675 -0.1427923
-0.14955515 0.074171886 -0.10111901 -0.11510825 0.15910895 -0.15464844 0.0018210858 -0.09887813
0.005126074 -0.024040073 -0.15330197 0.062971726 -0.05500126 0.1399291 0.06798664 -0.13260092
-0.13437974 0.09051533 0.04427156 -0.15394033 0.11775027 -0.04113081 0.07264462 0.15335579
-0.15059292 0.01662165 0.1357732 -0.043211967 0.12383817 -0.06335811 -0.08946682 -0.030007735
0.001843676 -0.122529335 -0.15705141 0.09891485 0.09535633 0.06572659 -0.05742181 0.1051925
-0.020463794 -0.1187436 0.0729806 0.13099362 -0.057097852 0.056671098 -0.0053492635 -0.12586965
-0.10825441 -0.028622955 0.059391245 0.12577276 -0.15796664 -0.052107498 0.07221858 -0.040918455
0.06649704 0.16273801 -0.014062047 0.16927056 -0.12728834 -0.12759373 0.04612246 0.06675142
0.12966044 -0.08074919 -0.017312676 0.03215705 0.12787427 0.021810904 0.08746041 0.0075104386
0.16954641 0.17148681 -0.012294397 -0.056726895 0.08486779 -0.024200931 -0.14449115 0.02852805
-0.030789152 0.14048658 0.15482347 0.07400094 0.087975994 -0.16824085 0.13915978 -0.13878848
-0.17235121 0.11589803 -0.08616042 0.06477326 -0.17390329 0.16758119 0.02916199 -0.01488477
-0.10018095 -0.08986964 0.15594561 -0.038826644 -0.063001044 0.012895331 0.15433748 0.16651817
-0.06916411 0.14722623 -0.035377815 0.033548996 -0.1324976 0.092123196 0.09460057 -0.116297
-0.0523204 0.051686257 0.13046886 0.1602223 -0.13601676 0.08170541 0.04653828 0.16402923
0.16315736 0.1643606 0.15767588 -0.0649056 0.057221875 0.14645697 -0.0345345 0.14311509
0.034090266 0.1691855 -0.104988344 -0.111387946 0.06640899 -0.062928975 0.072791174 0.0099514425
-0.03631632 0.12696172 -0.10068435 -0.1343481 0.024446711 -0.030750051 -0.060844794 -0.0075449347
0.06447357 -0.16732444 -0.09935856 -0.11301157 0.018603295 -0.047322378 -0.16719109 0.093876645
0.100214824 -0.04312402 0.014689758 0.034531668 -0.06491725 0.16896652 -0.059410848 0.075745925
-0.13903794 0.020572618 0.08834903 0.022437647 -0.062551424 -0.1108539 -0.09906912 -0.09673382
-0.13862838 -0.04340011 -0.022209853 -0.06957007 0.0028111488 0.13613062 -0.1714732 0.04105659
-0.119203635 0.12224351 0.16193564 0.012437254 -0.09234625 -0.10713225 0.0650803 0.16075961
-0.15768424 -0.11354907 0.10064514 0.10960032 0.122311726 0.079609945 -0.12706476 -0.016065255
-0.051537335 0.1039014 -0.094749294 0.15507995 0.15664516 -0.098651506 -0.03588611 0.0507337
-0.09727623 0.006579593 0.09698556 -0.14985636 0.16191922 0.10015963 0.033550218 0.07108915
-0.1597271 0.110707685 0.08922024 0.14167182 0.016981855 -0.14870752 0.07318768 0.030023247
-0.073131755 0.11411764 0.041753158 0.015292704 0.16681726 0.14171629 0.036637858 -0.035243273
0.061398238 -0.040110588 0.17464356 -0.07676001 -0.0082037 0.08061977 0.13072644 0.028527543
0.1030186 -0.1184145 0.139408 0.07393323 -0.08251194 0.021151632 0.119685724 0.078209355

weight f4 [32, 128]
00000000: 6498 cb3c b0bb 1fbc ae25 0ebd 8038 043b
00000010: 00fe 5abc 4b1a 31bd 9082 a93c 68af b5bc
00000020: 32db adbd 00f8 7a3c c0f4 b0ba b4e5 af3c
00000030: da99 ffbc dae2 463d 82c4 86bd aeca 79bd
00000040: 7bf2 adbd 9ea4 453d 7696 91bd 809e 113c
00000050: 107d b1bb b7e0 2bbd 65e6 8e3d 0c15 c13c
00000060: 6d37 92bd 5aff 743d d8cc 013c a7db 07bd
00000070: a71c 9dbd 184d 6b3c 0f38 b03d 2695 71bd
00000080: 3044 3cbc 6024 debc 04e8 bf3c 0074 023d
00000090: d7c9 45bd 80a4 a63a 90e7 b4bc f3c6 a93d
000000a0: e668 613d f781 893d 2041 f23b 5e62 87bd
000000b0: 143e 89bd 456b 993d 26c4 43bd 0063 b13c
000000c0: 6d9e 9d3d 6627 f9bc 7c63 0e3d c017 bfbc
000000d0: 9335 a8bd b696 afbd 42cc adbd 1046 f1bc
000000e0: 9e1e 3b3d 2844 1bbc 519c 17bd 4bd8 ad3d
000000f0: 28bc 13bd 9a75 7d3d 48d1 613c 2c0f 19bd
00000100: d31a ad3d 40c6 97bb d9ac ae3d 98df 9cbd
00000110: 38f6 233c 08f3 18bd c88b cbbc 40ed 503c
00000120: 8fb8 993d b7eb 973d 1682 1f3d 88d4 0fbd
00000130: 560e 543d 1e28 613d 6025 ee3c 30dd b93b
00000140: de51 dbbc 28c5 063c ce63 3c3d 583f 803c
00000150: fb64 1cbd 39a9 a13d d2e4 033d ce0f 5cbd
00000160: 489a 87bd a13b a7bd f46f cb3c 2680 523d
00000170: 822d 89bd 922b 543d f02b 323c ec2a 6ebd
00000180: 9eaf 313d 3878 8dbc b35a 56bd b84c 5fbc
00000190: 0a1b 5ebd 30df a2bc e21d 6abd 446b 053d
000001a0: 9812 9f3c 88ba 89bc c0a6 18bc d011 4dbc
000001b0: 881a 9c3c b003 46bd 822e dcbc e266 4e3d
000001c0: 3c1b 85bd 16ea eabc fc9a 8b3c 5cc2 123d
000001d0: b865 393c 7608 003d 5836 073c f604 7fbd
000001e0: 49f8 06bd 4cd0 35bd 6610 393d f792 b2bd
000001f0: 1525 85bd 38a6 3abc c232 28bd cec5 ddbc
00000200: 7797 5fbd e837 00bc 5056 8abb ac58 dc3c
00000210: b8c5 693c 9c6b 6abd f135 2ebd a845 04bc
00000220: 032f 94bd a17e b13d 669d 15bd dcd0 93bc
00000230: 35be aa3d 36a4 633d 2f38 02bd 88c6 9ebc
00000240: b087 383c 0a2f 753d ac81 90bd 34c9 013d
00000250: d3d8 933d baed 6dbd dabb 8bbd d5af 9a3d
00000260: b877 983c 5661 07bd be52 4ebd 1259 82bd
00000270: 85a4 b43d 60c8 97bb 91a2 a43d 81d8 b23d
00000280: 6e2f 383d 80d8 a0bd d6fd 233d 2fbe ab3d
00000290: e2f6 0abd 6849 8abc d646 d8bc fe3d 243d
000002a0: 92dd 4c3d 2caa 3fbd 8078 a7bb 74bd d0bc
000002b0: b840 a93c d4ca 74bd d051 aa3b 6310 a5bd
000002c0: 9ea9 7abd 6f5e 8d3d 8737 1cbd 9cd9 b4bc
000002d0: 5b57 b3bd ce70 39bd a977 963d af52 aabd
000002e0: 763b 3b3d 3050 dcbc 497e 0fbd 275b b13d
000002f0: 20aa e4bc 2da0 49bd b428 d7bc d806 5f3c
00000300: ab1f 8f3d fbdf 99bd 94aa 043d ff6c 96bd
00000310: c04d f4ba 0484 31bd 973b 3cbd 743b 0b3d
00000320: a7fe a43d e255 423d 7c3b a83c 5eee 583d
00000330: 10dd be3b 764d 09bd ce87 10bd 200f fc3b
00000340: 6c44 90bc 4a23 dbbc 3c3f 9cbd 3672 85bd
00000350: cf96 963d 2030 7bbb e010 6bbd 2af9 a6bd
00000360: 06e3 7fbd c042 a73b d0e5 9a3c 3ed5 203d
00000370: 7c12 f23c e6b2 00bd 80e2 99bd 827a 22bd
00000380: 8c44 98bd 27ba 963d 30f8 0a3c a0ad 2dbc
00000390: 12bb 213d 2cf0 aebc 2eae 713d e877 86bc
000003a0: 9737 983d 28bd 01bc 9ec4 163d a0c8 9cbc
000003b0: 7a70 583d 48ea 7f3c 1160 b13d f528 a13d
000003c0: cb52 af3d 6a88 55bd 336a 28bd 7a60 213d
000003d0: faaa 643d 9914 86bd b08a c4bb b053 b93c
000003e0: 10d0 53bd d6cd 4f3d 2d5e 853d c87e bbbc
000003f0: 8492 d03c 0917 24bd 00d2 0739 66df 413d
0.024852939 -0.009749338 -0.034703903 0.0020175278 -0.013366222 -0.043237966 0.02069214 -0.022178367
-0.08489074 0.015317917 -0.0013500676 0.021471836 -0.031201292 0.048556186 -0.0658045 -0.060984306
-0.08493515 0.048252694 -0.07108776 0.008887887 -0.00541652 -0.04196235 0.06977538 0.023569606
-0.07139478 0.059813835 0.007922374 -0.03316846 -0.076714806 0.014361642 0.08604442 -0.05898013
-0.011490867 -0.027116954 0.023426063 0.031848907 -0.048288193 0.001271382 -0.022083074 0.082899
0.05503168 0.06714242 0.0073930174 -0.06610559 -0.067012936 0.07491163 -0.047794484 0.021653652
0.07696233 -0.030414294 0.034762844 -0.023326755 -0.082133435 -0.08573668 -0.08486225 -0.029452354
0.045683496 -0.009476699 -0.03701431 0.0848852 -0.03606811 0.06187973 0.013782807 -0.037367985
0.08452382 -0.0046317875 0.08529062 -0.076598346 0.010007434 -0.037341148 -0.024846926 0.012751877
0.07505905 0.07418006 0.03894242 -0.035114795 0.051771484 0.0549699 0.029070556 0.0056721196
-0.026772436 0.008225717 0.04599362 0.015655205 -0.03818224 0.07893605 0.032200642 -0.05372601
-0.06621224 -0.0816567 0.024833657 0.051391743 -0.06698133 0.051799364 0.010874733 -0.058146402
0.043380372 -0.017269239 -0.05233259 -0.013629131 -0.054225005 -0.019881815 -0.057157405 0.032573
0.019418046 -0.016812578 -0.0093171 -0.012516454 0.01905562 -0.04834336 -0.026877645 0.050391085
-0.06499335 -0.028676074 0.017041676 0.035829887 0.011315756 0.03125807 0.008252703 -0.06226059
-0.032951627 -0.0443881 0.045181654 -0.087194376 -0.065012135 -0.011392169 -0.04106403 -0.02707186
-0.054587808 -0.007825829 -0.004221715 0.02689775 0.014268331 -0.05723153 -0.04253191 -0.008073248
-0.07235529 0.08666731 -0.03652706 -0.018043928 0.0833706 0.055576526 -0.031791862 -0.019381776
0.011262819 0.059859313 -0.07055983 0.031686023 0.0721909 -0.05808804 -0.06822939 0.075530685
0.018611774 -0.03305181 -0.050371878 -0.06364645 0.08820442 -0.004632041 0.080388196 0.08732701
0.044967107 -0.07853794 0.040037 0.08385884 -0.033926852 -0.016880706 -0.026400965 0.040098183
0.050015993 -0.046793148 -0.0051108003 -0.025480963 0.020660743 -0.059763744 0.005197741 -0.08059766
-0.061196916 0.069027774 -0.038138893 -0.02207642 -0.08756896 -0.045273595 0.07347042 -0.08316552
0.045711003 -0.026893705 -0.035032544 0.08659964 -0.027913153 -0.04922502 -0.026264526 0.0136124715
0.06988462 -0.07513424 0.03238924 -0.07345008 -0.0018638894 -0.04333879 -0.045955267 0.033992246
0.080563836 0.047445185 0.020536177 0.0529617 0.0058246925 -0.033521138 -0.035285763 0.0076922327
-0.017610751 -0.026750226 -0.076292485 -0.06515925 0.07352983 -0.0038328245 -0.05738914 -0.08152993
-0.062472366 0.0051043928 0.018908411 0.039265864 0.02954983 -0.03142061 -0.075139046 -0.039667614
-0.07434949 0.073597245 0.008482024 -0.010600477 0.039485045 -0.021354757 0.059004 -0.016414598
0.07432478 -0.0079186335 0.036808603 -0.019138634 0.05284164 0.015619822 0.08660901 0.0786914
0.085607134 -0.052132048 -0.041116904 0.039398648 0.05582712 -0.065468974 -0.005997978 0.022622913
-0.051712096 0.05073341 0.06512103 -0.022887602 0.02546049 -0.04006103 0.00012952834 0.04733219

bias f4 [32]
00000000: afbb b13d 80f8 e7bb 5906 4dbd 3786 923d
00000010: 9804 c73c b93b 983d d444 91bd 1704 983d
00000020: 8070 693a d623 173d 0086 613a 360a b0bd
00000030: db2b a63d 5697 91bd 8d15 25bd c2eb f8bc
00000040: 0870 a0bc efc7 5bbd d138 ae3d 2b69 ad3d
00000050: a0a2 43bb 0034 6339 08be 6ebc 3076 e6bb
00000060: e803 38bc eab7 6abd 5640 4b3d 943c f6bc
00000070: f61a 3c3d 2f49 ad3d c2d2 0cbd aeb0 383d
0.08678376 -0.007079184 -0.05005488 0.07154506 0.024294183 0.07433266 -0.07093206 0.07422655
0.00089050084 0.03689941 0.00086030364 -0.085956976 0.081138335 -0.07108943 -0.040303756 -0.030385856
-0.01958467 -0.05365747 0.085069306 0.08467325 -0.002985157 0.00021667778 -0.014571674 -0.007033132
-0.0112314 -0.0573043 0.049621902 -0.030058183 0.04592415 0.08461224 -0.03438068 0.04509037

weight f4 [32]
00000000: 0000 803f 0000 803f 0000 803f 0000 803f
00000010: 0000 803f 0000 803f 0000 803f 0000 803f
00000020: 0000 803f 0000 803f 0000 803f 0000 803f
00000030: 0000 803f 0000 803f 0000 803f 0000 803f
00000040: 0000 803f 0000 803f 0000 803f 0000 803f
00000050: 0000 803f 0000 803f 0000 803f 0000 803f
00000060: 0000 803f 0000 803f 0000 803f 0000 803f
00000070: 0000 803f 0000 803f 0000 803f 0000 803f
1.0 1.0 1.0 1.0 1.0 1.0 1.0 1.0
1.0 1.0 1.0 1.0 1.0 1.0 1.0 1.0
1.0 1.0 1.0 1.0 1.0 1.0 1.0 1.0
1.0 1.0 1.0 1.0 1.0 1.0 1.0 1.0

bias f4 [32]
00000000: 0000 0000 0000 0000 0000 0000 0000 0000
00000010: 0000 0000 0000 0000 0000 0000 0000 0000
00000020: 0000 0000 0000 0000 0000 0000 0000 0000
00000030: 0000 0000 0000 0000 0000 0000 0000 0000
00000040: 0000 0000 0000 0000 0000 0000 0000 0000
00000050: 0000 0000 0000 0000 0000 0000 0000 0000
00000060: 0000 0000 0000 0000 0000 0000 0000 0000
00000070: 0000 0000 0000 0000 0000 0000 0000 0000
0.0 0.0 0.0 0.0 0.0 0.0 0.0 0.0
0.0 0.0 0.0 0.0 0.0 0.0 0.0 0.0
0.0 0.0 0.0 0.0 0.0 0.0 0.0 0.0
0.0 0.0 0.0 0.0 0.0 0.0 0.0 0.0

weight f4 [256, 32]
00000000: e1cf 25be e9be 073e 3cc9 323d b8aa e1bc
00000010: 70e1 03bc 0a0e f43d 6090 1cbc b67e d43d
00000020: 781c f13c e893 08be 1877 40bd 66e7 ab3d
00000030: 6e3a ae3d c26e 8ebd 27d6 c6bd b490 933d
00000040: dff7 cfbd 55bf dcbd 9e0d df3d 20d9 8d3c
00000050: 8bbe 103e 6a78 9e3d 58a2 53bd c8ec 26be
00000060: 90d6 853c 5550 143e 2500 243e 2cc9 09be
00000070: dc99 19be 7636 fb3d e4c2 07be f0ba 11be
00000080: 60a2 38bd 2d59 d2bd 443c 22be b9a1 b0bd
00000090: 8a5f d4bd 3592 253e a7d6 16be db09 083e
000000a0: 6e7a 17be ea11 f9bd 3107 d7bd 2d98 88bd
000000b0: 9b34 c1bd ad10 013e f349 163e c8ec 263d
000000c0: 3c96 ecbd 7e40 a73d 46d8 fc3d 8c3d 20be
000000d0: 528f ce3d 58ed 913d 58e1 2cbe f0c5 7f3c
000000e0: eeaa 2bbe a001 b63b 545a 7ebd 725c 27be
000000f0: 86ef ec3d ce55 ba3d c932 26be 00fd 863b
00000100: 1651 c53d 3dea 16be fd6f 183e 8654 16be
00000110: 9476 40bd b0db 0cbc 589c 943c 7cb3 193d
00000120: 4a54 ce3d f408 4a3d 140d 0b3d ef05 2e3e
00000130: 6083 0fbd 695e e3bd 33dc d2bd 97d4 99bd
00000140: 90e7 0cbc d8a0 1c3d ec20 7e3d f09f 64bd
00000150: 40e2 403b f8fb 19be 380b 5f3d 95e5 20be
00000160: 2d3b 2f3e c6c3 2dbe d8e8 1abd d042 7b3d
00000170: 0fe7 34be 6526 243e d030 cebc ad9e 203e
00000180: edd5 043e d837 183d c6a4 c0bd 68bd 423d
00000190: ee49 b43d d1db 0e3e 4f44 e8bd 2509 f9bd
000001a0: b6cb 9e3d 1450 02bd 708f 90bc 6a61 c8bd
000001b0: f4c2 80bd fc1b 19bd 0021 6f3a 46f5 d3bd
000001c0: 285f 0e3d 201b debb 3831 783d 9277 73bd
000001d0: 9fb0 223e 18f7 7bbd a05a fa3b 67fa 103e
000001e0: 756d 8bbd ad73 29be 600a 97bc b392 223e
000001f0: d2a8 0cbe e6f5 de3d 0fec 2d3e 9415 7e3d
00000200: 98b9 3ebd f2e9 31be b5cf 8cbd c7e9 27be
00000210: dcba 37bd 0091 e53b 8031 24bc 5171 1e3e
00000220: 04ca 1ebe 40e5 3dbb e003 3fbc 5024 7bbd
00000230: ec42 1a3d bcbd 1fbe 366b 9c3d 80c7 973b
00000240: aaa4 c4bd d6fb 8c3d 62da 8d3d 3f27 243e
00000250: 4070 21bd 3054 b73c 6234 08be b67d 10be
00000260: 34d1 753d a0f0 03bc 61aa d9bd 8018 8dba
00000270: 7118 c1bd 4237 c73d b0c5 b6bc 4aad c1bd
00000280: 6d52 e9bd 7a59 c43d 90fe 27bd e8f3 19be
00000290: 5616 de3d 40f6 c8bd a8fb 2fbe a6c9 f53d
000002a0: c3b9 e7bd 2fb9 253e 48fa 0abd 4828 9fbc
000002b0: f3ff 1abe 54f3 fdbd 3514 303e e452 5e3d
000002c0: 76c0 19be cab9 c73d a8f6 98bc 24ad 55bd
000002d0: abc4 1abe 10ab 13be 28ff 31bd 7c0b b6bd
000002e0: a4f0 243d b598 033e 503d 5c3c 8657 64bd
000002f0: 3f62 293e 5fda 093e 2bf1 2a3e be41 db3d
00000300: 4c34 25bd f6c7 803d 4955 bfbd c852 1e3d
00000310: a6a4 27be 821f ae3d ca75 9ebd 3862 343d
00000320: 9032 18bc 594a 213e 7407 3f3d 2fb8 0f3e
00000330: 0745 283e 41ea 053e aafa 953d c74f bebd
00000340: d109 033e 9856 afbc e0b3 96bc 0885 653d
00000350: fa43 b13d 6ae0 17be 4b38 28be 1bca 1dbe
00000360: 58ef 08be c5cf 143e d2fd dd3d 0f65 023e
00000370: cf28 163e b0a7 18bd 0f46 1b3e 2a16 d93d
00000380: 70d5 be3c 6657 19be 6474 01be 2009 8a3b
00000390: bc30 753d acdb 73bd 71ad 2abe 2a66 a63d
000003a0: 3050 3dbd d5cb 07be 1e81 d03d af50 123e
000003b0: 58df d1bc 14d4 603d 6d90 063e 54e5 413d
000003c0: 98e9 febd 1b1d 06be ba14 a93d e632 9b3d
000003d0: 5068 96bc 200e 8c3c d0d4 433c 876e 103e
000003e0: e02a 27bc cbfe 143e d067 263c b2c6 0abe
000003f0: 16e9 9dbd 5061 bfbc ff4a 83bd 7f65 033e
-0.16192581 0.1325642 0.043648943 -0.027547225 -0.008049354 0.1191674 -0.009555906 0.10375731
0.02943252 -0.13337672 -0.046988577 0.08393745 0.08507238 -0.06954719 -0.09708815 0.07205334
-0.101546995 -0.10778681 0.10891269 0.017315447 0.14135186 0.07737811 -0.051668495 -0.16301262
0.016337663 0.14483769 0.1601568 -0.13455647 -0.15000099 0.12266247 -0.13257939 -0.14231467
-0.045076728 -0.10270915 -0.15843302 -0.08624596 -0.10369785 0.16169055 -0.14730321 0.1328501
-0.14792797 -0.1216162 -0.104994185 -0.0666965 -0.09433862 0.12604018 0.14676647 0.040753156
-0.115520924 0.08166598 0.123459384 -0.15648478 0.1008593 0.07125348 -0.16882837 0.015611157
-0.16764423 0.005554393 -0.062097862 -0.16343859 0.11569123 0.09098397 -0.1623031 0.0041195154
0.096346065 -0.14737792 0.1488647 -0.1468068 -0.046988085 -0.008597299 0.018140957 0.037524685
0.100746706 0.049324945 0.03394802 0.16994451 -0.0350374 -0.11101992 -0.10295906 -0.075112514
-0.008600131 0.03823933 0.062043115 -0.05581659 0.002943173 -0.15037525 0.05445406 -0.15712579
0.17112418 -0.16969213 -0.037819713 0.061343014 -0.17666267 0.16030271 -0.02516976 0.1568553
0.12972231 0.03716263 -0.09406428 0.047543913 0.088031635 0.13951041 -0.11341154 -0.12159947
0.077536985 -0.03181465 -0.017646521 -0.09784205 -0.06287184 -0.037380204 0.0009122044 -0.103495166
0.034758717 -0.006778136 0.060593814 -0.059440203 0.15887688 -0.061514944 0.007640198 0.14158021
-0.06807987 -0.16548033 -0.018437564 0.15876274 -0.13736275 0.10886745 0.1698458 0.062032297
-0.046563715 -0.173744 -0.068755545 -0.16397773 -0.044855937 0.0070058107 -0.010021567 0.15472914
-0.1550675 -0.0028975755 -0.011658639 -0.061313927 0.037661478 -0.15599722 0.07637636 0.0046319366
-0.0960172 0.068839714 0.06926419 0.16030596 -0.03941369 0.02237901 -0.13301232 -0.14110455
0.060013965 -0.008052975 -0.106282 -0.0010764748 -0.0942849 0.097273365 -0.022311062 -0.094568804
-0.113926746 0.09587379 -0.041014254 -0.15034449 0.10844104 -0.098125935 -0.17185843 0.12001352
-0.11314728 0.16183923 -0.033930093 -0.019428387 -0.151367 -0.12399927 0.17195208 0.05427827
-0.15014824 0.09752233 -0.018672302 -0.052167073 -0.15114085 -0.14420724 -0.043456227 -0.08888909
0.040268555 0.12851222 0.013442352 -0.05574753 0.16541384 0.13462208 0.16693561 0.10705899
-0.040333077 0.062881395 -0.09342439 0.038653165 -0.16371402 0.085021034 -0.0773731 0.04403898
-0.009289399 0.15751018 0.046637967 0.14035104 0.16432582 0.13077642 0.07323201 -0.0929256
0.12796713 -0.021403596 -0.018396318 0.05603507 0.086555436 -0.14831701 -0.16427724 -0.15409128
-0.13372552 0.14532383 0.10839428 0.12733863 0.14664005 -0.037269294 0.15163444 0.105999306
0.023295134 -0.14974746 -0.12642056 0.0042125136 0.05986093 -0.059535667 -0.16667725 0.08124955
-0.04621905 -0.1326135 0.10180877 0.14288591 -0.025619194 0.054889753 0.13141032 0.047337845
-0.12446898 -0.1309704 0.082559064 0.075780675 -0.018360287 0.01709658 0.011952594 0.14104663
-0.010203093 0.14550321 0.010156587 -0.13552359 -0.07710473 -0.023361832 -0.06410789 0.12831686

bias f4 [256]
00000000: 8b78 c7bd cdff 88bd 3b08 d7bd fbce 1a3e
00000010: ccf1 10bd ac3b 21be 09fc 03be e40b 23bd
00000020: 3aa9 fc3d e690 dc3d 7699 81bd 10c9 eabc
00000030: 9ad7 953d 3811 45bd 5181 0cbe aada c43d
00000040: d3aa 223e 87e0 85bd 40ce 9ebc c055 89bc
00000050: 096f 1d3e 1a32 bc3d dde2 003e 0020 e937
00000060: b8b6 07be c043 6f3d 0708 2d3e eaa8 cd3d
00000070: 5137 223e f91e 0e3e b1f5 bcbd 6827 2bbd
00000080: eb29 013e f60d ae3d 5a11 fa3d 030b 1abe
00000090: 10b2 a0bc 6c3f f5bd 1289 02be 265c f53d
000000a0: 88a0 ed3c 70fa 233d d0be 8d3c d81a c6bc
000000b0: 9d85 1bbe 519d fdbd 0690 09be 808a 0bbe
000000c0: 3524 2abe 244b 08bd c6be 23be 7004 2ebc
000000d0: f4f3 f8bd b214 f53d f089 2dbe 4066 29bb
000000e0: 39c2 95bd 2545 99bd eca2 1dbe 1170 093e
000000f0: d358 cdbd 0e70 a73d 58b9 d4bc aa96 db3d
00000100: 70fa 6bbc 1e59 f83d 0b06 25be 2076 26bd
00000110: 0035 28ba 2058 91bb 40da 08bd 361d f43d
00000120: 98d8 c9bc 60cc f53c dbca 2a3e e386 2f3e
00000130: ce63 99bd f5d1 0e3e f437 513d 580e fa3c
00000140: 882a ebbc a817 373d 1243 26be bb6c 343e
00000150: 74f1 1cbe 1825 2fbe da7d dbbd 00fa b93c
00000160: 3838 bbbc f167 19be 72aa cd3d 4086 4b3d
00000170: 8a0a 5fbd 36d0 22be e5b2 19be a819 31bd
00000180: 105d 233d eae5 ec3d 1cda 723d 1c8d 1d3d
00000190: 9aa1 56bd f098 45bd a0c9 96bc fc0a 033d
000001a0: fa9b f53d 801e cd3a 280c dabc 5a8b 96bd
000001b0: 927f b2bd 15d4 23be 20f7 d03b 42c2 db3d
000001c0: 63d2 8dbd 71ac 0f3e 3a8a a13d d8bd 2abd
000001d0: 5f19 143e 67da 81bd 32b7 ffbd 8243 a2bd
000001e0: 49d0 0f3e 83d3 20be 37dc 2c3e f0b3 b73c
000001f0: ba95 e8bd 6cff 753d b880 52bd 8c7e 3bbd
00000200: 2c69 27be 10e0 45bc 247f 39bd bc76 3b3d
00000210: 7cc6 623d aadf e73d 483a efbc a61b f5bd
00000220: e2d4 e93d 2ecf 20be 988f 07be 3848 663d
00000230: dec3 b03d f794 0d3e 3047 d2bc c007 debb
00000240: 08c4 1b3d 2d98 21be 0c62 1f3d a87d f03c
00000250: 3cc1 1c3d 00dd ad3c 9210 983d c035 ed3b
00000260: a0e8 363c a2b6 e83d c953 9dbd 006c babb
00000270: f507 ccbd e042 c6bd 1164 1b3e 9052 5bbc
00000280: 2579 333e a1e9 243e 4a2d c73d 8dba f7bd
00000290: 731d 1e3e 478e 31be 80cc eb3b 20e4 24be
000002a0: 246f 013d 5af5 b13d a067 8cbb ae8a 64bd
000002b0: 6cf8 6bbd 70b3 5e3d 5a85 8b3d 12d6 c23d
000002c0: 40fa 95bc 321c 12be 0fd7 033e 4fa1 1b3e
000002d0: 5f54 a3bd 00d6 d8bc 0a99 943d c556 0b3e
000002e0: 8ca3 0ebe 164f 10be e19b e0bd 6008 643d
000002f0: 2561 25be 70a1 1b3d 98bb c23c 7075 943c
00000300: 7af8 ec3d 2db3 a8bd f9d9 313e a101 88bd
00000310: 5875 bb3c 642e 06be 5922 09be 1041 f8bc
00000320: aaaf 9e3d feed bf3d 19be 1e3e d1c4 b1bd
00000330: 5f3e 2f3e a07d d7bb 9cad efbd 523d 873d
00000340: 3307 2dbe 8ac5 d53d 7fae 00be 2b49 1b3e
00000350: d560 17be 1a9c e83d a0ef 523c 5088 793c
00000360: 450d 283e 64e8 763d 709e 173c 5c16 3bbd
00000370: 1461 bcbd 47a4 16be a002 82bc 0197 2b3e
00000380: 02cd c23d fe24 cd3d 9880 513d 1801 a4bd
00000390: b04a 6b3d 3e74 9b3d 4cd5 07be a01d 2ebd
000003a0: f678 04be 36ff dbbd f059 d2bd 654f 053e
000003b0: 4ac1 f13d 3999 f8bd 0fc7 0e3e 340b 493d
000003c0: 40b0 b5bc 86c0 9b3d d8e5 11bd d448 213d
000003d0: 5022 82bc 68a7 03bd 170a 9dbd f214 2abe
000003e0: 1c8b 003d 4bbd 0bbe 7c45 683d f715 aabd
000003f0: 10a6 e43c c008 f4bb e714 8bbd 1603 f33d
-0.097397886 -0.06689415 -0.10499617 0.1511802 -0.035386845 -0.1574542 -0.12889113 -0.03980626
0.12336965 0.10769825 -0.063280985 -0.028660327 0.07316513 -0.048112124 -0.13721205 0.09612019
0.15885477 -0.06536966 -0.019385457 -0.016764522 0.15374388 0.091892436 0.12586541 2.7790666e-05
-0.13253295 0.05841422 0.16897593 0.100419834 0.15841414 0.13879003 -0.092265494 -0.041785628
0.12613647 0.084987566 0.12210341 -0.15043263 -0.019616157 -0.119749874 -0.127476 0.119804665
0.029007211 0.040033758 0.0173029 -0.024182722 -0.15187688 -0.12383521 -0.13433847 -0.13627052
-0.16615374 -0.033274785 -0.15990743 -0.010621175 -0.12155905 0.11966838 -0.1694715 -0.00258483
-0.07312436 -0.074838914 -0.15394181 0.13421656 -0.100267075 0.081756696 -0.025967285 0.10722096
-0.014402971 0.12126373 -0.16115586 -0.040639997 -0.0006416589 -0.004435554 -0.033411264 0.11919634
-0.024639413 0.03000468 0.16678946 0.17141299 -0.07489739 0.1394728 0.05107875 0.030524418
-0.028706804 0.044700295 -0.16236523 0.17619602 -0.15326482 -0.17103994 -0.10717364 0.022702217
-0.022853956 -0.14981057 0.100422755 0.049688578 -0.05445341 -0.15899739 -0.15009649 -0.04323736
0.039883673 0.1156729 0.059290037 0.03846465 -0.05240021 -0.048241556 -0.01840669 0.031992897
0.11992641 0.0015649348 -0.026617125 -0.07350798 -0.08715738 -0.15998872 0.006377116 0.10730411
-0.06924894 0.14030625 0.07887693 -0.041684955 0.14462803 -0.06340485 -0.124861136 -0.07923032
0.14044298 -0.15705685 0.1688088 0.022424668 -0.11356683 0.060058042 -0.051392287 -0.04577498
-0.16348714 -0.012077346 -0.045287266 0.04576753 0.05536507 0.113219574 -0.029202595 -0.11968164
0.11417557 -0.15704033 -0.1323837 0.056221217 0.08631109 0.13826357 -0.02566871 -0.006775826
0.038028747 -0.15780707 0.038911864 0.029356793 0.03827022 0.021223545 0.074250355 0.0072390735
0.011163861 0.113629594 -0.076819964 -0.005689144 -0.09962455 -0.09680724 0.15174891 -0.013386384
0.17526682 0.16104747 0.09725435 -0.120961286 0.15440921 -0.17339431 0.007196009 -0.16102648
0.031600133 0.08689375 -0.004284814 -0.055796318 -0.05760996 0.054370344 0.06812544 0.09513487
-0.018307805 -0.14268568 0.12875007 0.15198253 -0.07975077 -0.02646923 0.072557524 0.13607319
-0.13929576 -0.14092669 -0.109672315 0.05567205 -0.16150339 0.037995756 0.023771092 0.018122405
0.11570831 -0.082373 0.17368306 -0.06640936 0.022883102 -0.13103634 -0.13392009 -0.030304462
0.07748349 0.09371565 0.15502204 -0.08680118 0.17113636 -0.006576255 -0.11703035 0.06603493
-0.16897278 0.10438068 -0.12566565 0.1516463 -0.14783032 0.11357899 0.012874514 0.015230253
0.16411312 0.06028022 0.009254083 -0.04567562 -0.09198204 -0.14711104 -0.015870392 0.16756822
0.095117584 0.10016821 0.051148027 -0.08008021 0.057444274 0.07590531 -0.1326496 -0.04250872
-0.12936768 -0.10742037 -0.102710605 0.13018568 0.11804445 -0.121386 0.13943122 0.04908295
-0.02217877 0.0760508 -0.035619587 0.039376095 -0.015885502 -0.032142073 -0.0766794 -0.16609553
0.031382665 -0.13646428 0.05670689 -0.08304971 0.027911216 -0.007447332 -0.06791096 0.11865823

weight f4 [32, 128]
00000000: 002f a83b 8cd8 973c 60aa 93bb 00e8 9f3c
00000010: 9473 c5bc 7e3f 4c3d a55e 41bd e203 623d
00000020: 8aa2 323d ca89 58bd ce33 e2bc c314 9abd
00000030: 8d56 a8bd 4a4a dfbc 7347 2bbd 5c37 afbc
00000040: d4f0 92bd f8cf 97bd e42b 47bd a19e ae3d
00000050: 4151 b0bd 54da 4abd 3ee0 86bd 8a22 353d
00000060: 0b91 a9bd c664 7e3d d4c4 1ebd a2c3 7b3d
00000070: f5fa b23d 1f31 a73d 8ee1 053d d04a 9bbd
00000080: e9bb a23d 8a6b 90bd 00bd d539 1399 8e3d
00000090: c086 853c e71c 74bd 1afb 3b3d 97ff 9bbd
000000a0: eb3b aa3d 941c 063d 8e4c 513d e0b4 473b
000000b0: e6db 89bd 08e0 60bc 5a20 073d 8e49 a5bd
000000c0: 6c05 d13c 7e91 463d 8f74 813d d259 73bd
000000d0: 941b 22bd 41ce b4bd f0d8 dd3b 0aad 6c3d
000000e0: d2bb 3d3d cce7 8a3c 6d52 af3d 5db0 9c3d
000000f0: 9f66 a6bd 6088 0b3d a776 2ebd 724c 88bd
00000100: 187d 4f3c 3d16 83bd ba90 56bd 6a6c 3f3d
00000110: 78c0 e73c e569 873d 2c79 c3bc e874 1f3c
00000120: 8e36 523d e04b f43b 5873 183c 2bdd 57bd
00000130: 1007 52bd 67ec ab3d 378e 8d3d 02e0 6cbd
00000140: 6cfd de3c 4bca 863d 1b1e a73d fda9 8e3d
00000150: 2ef8 3abd 80ad 233a 80fa 4f3b a080 d23c
00000160: 087a 913c a90f 9c3d 62a6 343d 9dd6 a2bd
00000170: 2644 a8bd 76af 003d 47a7 2cbd ded7 273d
00000180: eb4d 923d d0b1 04bc 2490 8cbc 5363 873d
00000190: 905d d1bc e47f 80bc e0c3 693b 109f 033c
000001a0: cae2 5a3d 804e 85ba 8f61 ad3d 4f40 8a3d
000001b0: f80a 8cbd 6c5f 98bd 98cc c3bc 8013 44bd
000001c0: 7cea cb3c fce9 a2bd 5c4f 8abc c034 853c
000001d0: 90cd b2bd c0e1 ed3a 469b f0bc 6375 893d
000001e0: c0b4 473b ee63 a8bd 55a4 57bd d873 b2bd
000001f0: b8f6 c43c 0d6f 30bd 7c73 af3c ccae 89bd
00000200: b0d4 393c 81a4 893d 1216 dbbc 62b2 103d
00000210: 70d6 9abd 78ca 0cbd e137 b33d 7d13 ac3d
00000220: e8f8 f3bc 0a74 9bbd 42b8 0dbd 443a 0a3d
00000230: 38da b83c 04d4 9dbd 1466 76bd 7f27 2fbd
00000240: 172e 51bd 2b2c 55bd 5066 ba3b 3859 47bc
00000250: b28c 393d f1e5 57bd 7a1b 2d3d 589a 123d
00000260: caab 21bd a01e 04bc 48dd a1bc f66c 013d
00000270: 9095 ccbc 7351 843d d763 9dbd ea89 3a3d
00000280: 4f98 973d ce31 323d 697e 99bd 1865 483c
00000290: e901 823d 74c5 9c3c f3b2 883d c09b 48bb
000002a0: d052 8c3b 5cf3 a83c baf6 74bd 42de eabc
000002b0: fffc 62bd 05b6 b23d 8760 8e3d 8427 bbbc
000002c0: 4043 bb3a 01a3 25bd e8dd 7abc 3bfd 833d
000002d0: 269c d9bc 12f3 513d ce3d 0dbd 6c5e 3dbd
000002e0: 3953 a3bd 6bf1 923d b570 50bd e1da 953d
000002f0: 4e2d 4e3d eb48 a03d 9f08 823d fa26 273d
00000300: a204 313d 30ed ea3b 798e a9bd 589c 203c
00000310: 82a6 9ebd 3e31 3a3d c8cb af3c 4c25 18bd
00000320: bb09 a03d 9026 7e3c 7805 bcbc d5ec 963d
00000330: 9fd8 58bd 3b2c 49bd 4e21 08bd d751 84bd
00000340: 9067 cabb fd0e a23d fede 5b3d 0397 72bd
00000350: 8065 21bb 2b75 a83d ac9d 8fbd 495c 51bd
00000360: c812 fd3c 0e4d 15bd c0fb b93c 742e 9bbc
00000370: 0012 9abc 489b b33c 9c76 b5bc 559a 863d
00000380: 875b 22bd 35ef 933d 143e c53c 6e28 023d
00000390: ceb4 363d 3563 28bd 24ac f8bc f881 773c
000003a0: e00f 0d3d 3ce9 9f3c 81ae 9ebd 565c 223d
000003b0: 2b2f 2cbd e268 773d 17b7 b0bd 0eb3 e7bc
000003c0: e8e6 a63c bc6e 823c 90dd 93bc e48e 90bd
000003d0: 74aa e43c d73f 913d c97f 843d 388c 66bc
000003e0: 926b 96bd 0835 333c 5937 9f3d c07b a1bb
000003f0: d89b 083d 08a8 c83c 6df8 87bd e66e 5cbd
0.005132556 0.018535875 -0.0045063943 0.019519806 -0.024102964 0.04986524 -0.0472094 0.055179484
0.04361204 -0.05286578 -0.027612593 -0.07523491 -0.08219633 -0.027257103 -0.041816186 -0.021388702
-0.071748406 -0.07412714 -0.04862584 0.0852635 -0.08609248 -0.04952462 -0.065857396 0.044222392
-0.08279618 0.062107824 -0.03876193 0.061465867 0.087392725 0.08163666 0.03268581 -0.07582629
0.07945997 -0.070517614 0.00040767342 0.0696279 0.016299605 -0.059597876 0.045893766 -0.07617109
0.0831221 0.032742098 0.0510984 0.00304728 -0.067313954 -0.013725288 0.032989837 -0.0807067
0.02551528 0.048478596 0.0632106 -0.05941183 -0.03957708 -0.08828402 0.0067702457 0.05778221
0.046321698 0.016956232 0.08560643 0.07650826 -0.08125042 0.034065604 -0.042593624 -0.06655206
0.012664102 -0.06400726 -0.052384116 0.04673425 0.028290018 0.06611995 -0.02386149 0.0097324625
0.05132156 0.007455334 0.009304844 -0.052701157 -0.051276267 0.083946995 0.06911891 -0.057830818
0.02722045 0.06581553 0.08160039 0.069660164 -0.04564684 0.000624381 0.0031735003 0.025696099
0.017758384 0.076201744 0.044103988 -0.079510905 -0.08216123 0.031417333 -0.042151716 0.04097735
0.07143768 -0.008099034 -0.017158575 0.066107415 -0.02555731 -0.015685983 0.003566973 0.008033529
0.05343894 -0.001017049 0.084658735 0.06750547 -0.068380296 -0.07440075 -0.023901269 -0.04787016
0.024892084 -0.07954785 -0.016883545 0.016260505 -0.08730614 0.0018148944 -0.029370915 0.06711843
0.0030472726 -0.08222185 -0.052646954 -0.08713502 0.024043426 -0.043074656 0.021417372 -0.06722793
0.011342213 0.0672083 -0.026743922 0.03532637 -0.07560432 -0.034372777 0.087508924 0.084021546
-0.029781774 -0.07590492 -0.03459955 0.033746973 0.022564992 -0.077064544 -0.060155943 -0.042762276
-0.051069345 -0.052044075 0.005688466 -0.0121672675 0.045300193 -0.052709524 0.04226253 0.035791725
-0.03947047 -0.008063942 -0.019758835 0.031598054 -0.02497366 0.06460848 -0.076850586 0.04554168
0.074020974 0.04350453 -0.07494814 0.012231134 0.063480206 0.019137122 0.06674757 -0.0030610412
0.004282333 0.020623855 -0.05980561 -0.028670434 -0.055417057 0.08726124 0.06952005 -0.022845991
0.001428701 -0.040438656 -0.015311696 0.06444784 -0.026563715 0.0512572 -0.03448277 -0.046232626
-0.07974858 0.07174953 -0.050888736 0.073171385 0.050336175 0.07826408 0.063493006 0.040808655
0.04321731 0.0071693882 -0.08279128 0.0098029 -0.077466026 0.045457117 0.021459475 -0.037144944
0.07814356 0.015512124 -0.022951826 0.07369391 -0.05294096 -0.049114447 -0.033234887 -0.06460922
-0.0061768964 0.07913015 0.05367946 -0.059226047 -0.002462715 0.08225473 -0.070124954 -0.0511134
0.030892745 -0.03645044 0.022703052 -0.018943049 -0.018807411 0.02192463 -0.022151284 0.06572405
-0.03963807 0.072233595 0.024077453 0.031776838 0.044606023 -0.041110236 -0.03035552 0.015106671
0.034438968 0.019520395 -0.07748128 0.03963884 -0.04203717 0.06040276 -0.086286716 -0.028283622
0.020373777 0.015921943 -0.018049985 -0.07058504 0.02791331 0.070922546 0.064696856 -0.014071517
-0.07344736 0.010937937 0.077742286 -0.004928082 0.03335175 0.024494186 -0.0663918 -0.0538167

bias f4 [32]
00000000: 7420 83bd 2fbb 993d 2008 0c3d fe56 7a3d
00000010: ee09 1e3d 141b 05bd 5b08 63bd cc3b ba3c
00000020: 07b7 82bd a038 b9bb 7dd1 843d 3ddc b03d
00000030: 73b4 813d 1652 6fbd f05e f9bb 34d5 39bd
00000040: 3b9c a63d 00b5 76bb 723b 743d 38c4 a83c
00000050: 8c5f 2fbd 1aa2 0f3d 1339 64bd 0ad5 dfbc
00000060: f699 b0bd 9429 be3c 1ebb 6f3d 70ae 353c
00000070: 3125 a5bd d145 9b3d a0bf 64bb 00c7 d4bb
-0.06402674 0.075064056 0.034187436 0.06111812 0.03858369 -0.032496527 -0.05542789 0.022733591
-0.06382566 -0.005652502 0.06485269 0.08635757 0.06333246 -0.058427893 -0.0076101944 -0.045369342
0.08135267 -0.0037644506 0.059627004 0.020601377 -0.04281573 0.0350667 -0.055718493 -0.027323265
-0.08623116 0.023213185 0.05852806 0.011088952 -0.08063734 0.07581676 -0.0034904256 -0.006493449

weight f4 [32]
00000000: 0000 803f 0000 803f 0000 803f 0000 803f
00000010: 0000 803f 0000 803f 0000 803f 0000 803f
00000020: 0000 803f 0000 803f 0000 803f 0000 803f
00000030: 0000 803f 0000 803f 0000 803f 0000 803f
00000040: 0000 803f 0000 803f 0000 803f 0000 803f
00000050: 0000 803f 0000 803f 0000 803f 0000 803f
00000060: 0000 803f 0000 803f 0000 803f 0000 803f
00000070: 0000 803f 0000 803f 0000 803f 0000 803f
1.0 1.0 1.0 1.0 1.0 1.0 1.0 1.0
1.0 1.0 1.0 1.0 1.0 1.0 1.0 1.0
1.0 1.0 1.0 1.0 1.0 1.0 1.0 1.0
1.0 1.0 1.0 1.0 1.0 1.0 1.0 1.0

bias f4 [32]
00000000: 0000 0000 0000 0000 0000 0000 0000 0000
00000010: 0000 0000 0000 0000 0000 0000 0000 0000
00000020: 0000 0000 0000 0000 0000 0000 0000 0000
00000030: 0000 0000 0000 0000 0000 0000 0000 0000
00000040: 0000 0000 0000 0000 0000 0000 0000 0000
00000050: 0000 0000 0000 0000 0000 0000 0000 0000
00000060: 0000 0000 0000 0000 0000 0000 0000 0000
00000070: 0000 0000 0000 0000 0000 0000 0000 0000
0.0 0.0 0.0 0.0 0.0 0.0 0.0 0.0
0.0 0.0 0.0 0.0 0.0 0.0 0.0 0.0
0.0 0.0 0.0 0.0 0.0 0.0 0.0 0.0
0.0 0.0 0.0 0.0 0.0 0.0 0.0 0.0

weight f4 [384, 32]
00000000: 585c 353d fcb1 113d 688e 873c 0c9a 06be
00000010: 60e3 cf3b 8e4b e93d 36e8 86bd 98a3 003d
00000020: 6b02 203e b040 7c3d b89d 2b3d 00f2 96bc
00000030: 4a3a b13d 8813 8a3c 3a79 e9bd 14c5 943d
00000040: 58b2 cd3c 00b6 e4bb 0231 cd3d 667a f1bd
00000050: 40db a7bb 7ab6 da3d 3764 30be 8868 a2bd
00000060: 4a27 b73d ccda 6a3d 8a1f 5dbd 7801 ce3c
00000070: b0e7 4abc 9680 9e3d 8743 adbd b041 8ebc
00000080: 72eb b73d 5454 313d 8628 dc3d bacd a93d
00000090: 426e d73d 29a0 153e d0b7 913c 88ad 40bd
000000a0: 9b5f 17be 19b6 d5bd a6d6 7dbd 0a47 f43d
000000b0: c0c8 10bd d49e 473d 890b 34be 4ae4 d33d
000000c0: ac83 34be f9e7 c4bd b080 ccbc 7090 1a3d
000000d0: 60dd e53b 0380 88bd 9c1d 27bd e259 b2bd
000000e0: 8852 8ebc 9991 143e cf71 04be 8a8c f13d
000000f0: 80bc cbbc 8c51 5ebd 6653 a33d 38f9 4e3d
00000100: c7c3 29be ec7c 0e3d c5c3 173e e487 903d
00000110: 782f 183d e420 33bd fe9d fa3d 8860 1dbd
00000120: 3c6f 00bd 70cd c0bc f487 293d cc31 4d3d
00000130: 82cd fa3d b3a1 8ebd c02d 84bb e68c 8d3d
00000140: 1082 3d3d 0025 203c 90c1 04bc 8943 113e
00000150: 88fa 4bbd 4197 cabd 37a4 053e 99c4 22be
00000160: 007d f7bc b058 06bc 7484 42bd c61c f53d
00000170: 5822 e13c ae26 89bd dd1c 86bd dccf 84bd
00000180: b947 053e da27 f73d 08d9 863d 8532 e6bd
00000190: ae58 33be 02e7 fcbd cdf9 34be 937f 27be
000001a0: 5e84 983d 2006 e4bb 7bd8 c9bd 50f0 77bd
000001b0: 921c 8f3d 92e0 e33d cca7 4dbd 7ba0 323e
000001c0: 2496 99bd c013 6e3c 5824 d8bd 7c91 21bd
000001d0: 0051 f8bd b4b7 1fbe c926 a3bd 588b 34bd
000001e0: 8096 de3c 57c7 1bbe 3acd 66bd ea1d bc3d
000001f0: d099 113c 3434 1abe 4b8e 1f3e 90da 4dbd
00000200: e21d a83d d4d9 c0bd 218e 023e 47da 9bbd
00000210: 5614 af3d 1d7d 0cbe 6fd2 133e f94a 1abe
00000220: 307f 12bc d837 88bc 8050 f93b 4a11 f53d
00000230: 0833 18be 44ad 2bbe f3bf fcbd 084c 3fbd
00000240: a8c9 b0bc c8b4 383d 0d46 1e3e 5718 053e
00000250: 1e3a 07be 3032 a2bc daaf f23d 8ac8 18be
00000260: 03ad c1bd 5ec1 ae3d a233 ab3d 164b 0cbe
00000270: ee83 b9bd 4958 053e f44e 4f3d cf56 d2bd
00000280: dbf2 9abd 688b 7d3d f6a9 07be 6ae0 0dbe
00000290: f32a 203e 4040 68bb c83d 00bd 025b 893d
000002a0: 9e94 9a3d 3455 4f3d e2a9 c93d 3a5d b5bd
000002b0: 04db 823d 18bc 73bd a7db 0e3e d949 b7bd
000002c0: 80e4 bb3c c0c7 403c 52df b33d 04b2 783d
000002d0: 2244 11be 278e 2b3e a050 c63b 6446 d0bd
000002e0: 4488 bfbd 6658 a53d 9da7 f9bd a432 21bd
000002f0: 6486 7e3d d6fb b13d 7e7d 11be a05a a23c
00000300: cf98 143e 680e 083d 437a 003e 2c56 3a3d
00000310: 4063 e7bd ede1 0a3e 2320 babd 511e 213e
00000320: 9b2d bcbd 289a 02bd aeff f63d 46cb ba3d
00000330: a959 113e 5417 223d 2118 dbbd e044 07be
00000340: da8d b63d b4d8 babd db59 343e 0f90 92bd
00000350: 6686 c63d 9866 853c a470 5dbd bc13 2dbd
00000360: 664a ddbd b088 a5bd b0a1 e7bd 8ce8 81bd
00000370: 08d2 f9bd 2f31 34be 20b3 803b 10cb 0d3c
00000380: 7243 9bbd 1387 f5bd e4af 3b3d cb5c 1f3e
00000390: f4d5 123d eea2 8c3d dda8 0d3e d0ec 9c3c
000003a0: 4083 dabb 9272 aa3d c02e 2d3d 3b34 193e
000003b0: 340d b9bd 2517 293e 3929 313e d9ea c8bd
000003c0: 96b5 9f3d cd71 a0bd 467f e73d d28a 993d
000003d0: 9c86 79bd f8f1 ec3c d816 893c e0e0 8e3b
000003e0: f050 4e3d 717a 99bd 9559 033e ff25 013e
000003f0: e07b 8dbd 20b9 153d c753 d3bd d6f9 c0bd
0.04427752 0.03557013 0.016547397 -0.13144702 0.006344244 0.11391364 -0.065872595 0.031406015
0.15625922 0.06158513 0.04189846 -0.018425941 0.08653696 0.016855016 -0.11400075 0.07264152
0.025109455 -0.006979704 0.10019113 -0.11790924 -0.005122572 0.10679336 -0.17225729 -0.07930094
0.08943041 0.057337567 -0.053985156 0.025147185 -0.01238434 0.077393696 -0.084601454 -0.017365307
0.089804545 0.043293312 0.10749917 0.08291192 0.10519077 0.14611878 0.017787844 -0.047040492
-0.14782564 -0.10435123 -0.061972283 0.11927612 -0.0353477 0.048735455 -0.17582525 0.10346277
-0.17628354 -0.09614558 -0.024963707 0.037735403 0.0070149153 -0.06665041 -0.040799722 -0.0870855
-0.017373338 0.14508666 -0.1293404 0.11794384 -0.024870157 -0.054276988 0.07974891 0.050530642
-0.1657859 0.034787104 0.14820774 0.07057169 0.037154645 -0.04373254 0.12237166 -0.038422137
-0.03135608 -0.02353546 0.04138942 0.050096318 0.12246229 -0.069644354 -0.004033774 0.0691164
0.046266615 0.0097744465 -0.0081027895 0.14185919 -0.049799472 -0.09892131 0.13050924 -0.15895309
-0.030210972 -0.008199856 -0.0474896 0.11968379 0.027482197 -0.06696831 -0.06548474 -0.064849585
0.13015641 0.12068148 0.06584364 -0.112401046 -0.17514297 -0.12348749 -0.17673416 -0.1635726
0.07447122 -0.006958738 -0.098557435 -0.060531914 0.06987871 0.11126818 -0.05020885 0.17444031
-0.0749934 0.014531076 -0.10553807 -0.039445385 -0.121248245 -0.15597421 -0.07966382 -0.0440782
0.027171373 -0.15212761 -0.056348063 0.09185393 0.008886769 -0.15058976 0.15581624 -0.050257266
0.08208825 -0.094165474 0.1274953 -0.076099925 0.08548801 -0.13719602 0.14435743 -0.15067662
-0.008941457 -0.01662819 0.0076084733 0.11966188 -0.14863217 -0.16765314 -0.12341299 -0.04670337
-0.021580532 0.04509428 0.1545641 0.12997566 -0.13205764 -0.019799322 0.11849947 -0.1492025
-0.094568275 0.085329756 0.083594576 -0.13700518 -0.09058367 0.1302196 0.050612405 -0.10270464
-0.07565852 0.061900526 -0.13248429 -0.13855138 0.15641384 -0.0035438687 -0.03130892 0.067068115
0.07547878 0.050618365 0.09846856 -0.08855672 0.0638943 -0.059505552 0.13950978 -0.08949632
0.022936106 0.011766374 0.08782829 0.060716644 -0.14186147 0.16753446 0.0060520917 -0.10169676
-0.093521625 0.08073501 -0.12190173 -0.039354935 0.062139884 0.08690612 -0.14208028 0.019818604
0.14511417 0.033216864 0.12546639 0.045492336 -0.11298227 0.13562746 -0.09088161 0.15734221
-0.09188386 -0.031885296 0.12060486 0.091208026 0.14194359 0.03957303 -0.106979616 -0.13209867
0.08913775 -0.09123364 0.17612402 -0.07156383 0.09693603 0.016284272 -0.0540625 -0.04225515
-0.10805206 -0.08082712 -0.11310136 -0.06343183 -0.121982634 -0.17596887 0.0039276034 0.008654371
-0.075812235 -0.11988654 0.04582204 0.15562741 0.035848573 0.06867014 0.13833947 0.01915589
-0.0066684783 0.08322634 0.042280912 0.1496133 -0.090357214 0.16512735 0.17300881 -0.09810419
0.07798307 -0.07834206 0.11303572 0.07497181 -0.06091939 0.028923973 0.016734526 0.0043603033
0.050370157 -0.07494057 0.12827142 0.1261215 -0.06908393 0.036553502 -0.10318714 -0.094226524

weight f4 [32, 128]
00000000: 786f a9bc 6a61 273d 894d 813d 89d8 a6bd
00000010: ec8f 7cbd aae7 6b3d 8930 843d 20e4 5cbc
00000020: 5e64 50bd fef8 15bd 81d0 b23d f3f5 7fbd
00000030: 1e79 2f3d 0b4c 853d c0e2 66bb a895 04bd
00000040: 2e60 443d e49f cabc 9c82 73bd e06b adbb
00000050: 4016 82bd 2b85 92bd 0016 a3bc df9c 0cbd
00000060: 00a7 223b 0018 8838 cad5 6d3d 6262 1f3d
00000070: 4263 55bd 7093 55bc 573b a53d 2fc4 92bd
00000080: c3c8 aa3d 0e7b 293d 7e78 3a3d ca5d 55bd
00000090: 1bb9 37bd c8d2 61bc b081 8abb 698c 1fbd
000000a0: 60c1 79bc 61b8 0fbd 236e b03d 5f37 3abd
000000b0: f1d5 9c3d d9db aabd 747a a3bc 3012 5fbd
000000c0: 8866 33bd cb3b 963d b475 d43c bd08 0dbd
000000d0: 0e53 2f3d 1732 813d 4e7f 1a3d 5877 4cbc
000000e0: 107d 91bc c634 593d abe8 803d 765c 82bd
000000f0: 53cc 913d bfce 92bd 6e5a 6d3d 78f1 b33c
00000100: a078 653c a924 19bd 8018 cfbb be6b 473d
00000110: fea1 5e3d 81db 69bd 567d 793d 073f ac3d
00000120: dbba b2bd 2a32 333d 87cb a13d df59 82bd
00000130: 3272 403d aa2e 2e3d fac6 223d 98f1 b73c
00000140: 9688 183d f265 233d f55b 983d 519d b43d
00000150: 88d1 303c 9323 05bd 80eb 89bd c0bb 6dbd
00000160: bd9a a23d f5e4 a23d b846 04bc 85e7 87bd
00000170: a96b ac3d 3ca0 d83c 5d65 04bd 1048 adbb
00000180: db0f ac3d c7d6 8dbd c535 9a3d f816 b63c
00000190: bdf8 913d 6088 25bb 48c6 58bd 0aee 01bd
000001a0: 9338 95bd d0a6 833c 0ed9 7f3d 4456 96bd
000001b0: d2c8 7d3d e487 e53c 683f d93c 304a 1d3c
000001c0: b00e a7bb 820e dcbc 36e2 703d 5a40 5c3d
000001d0: 7491 d4bc 48ee 353c 9f3c 933d 1065 ef3b
000001e0: f273 3c3d e98a 40bd ae39 7a3d aa08 94bd
000001f0: 0aa8 0a3d 2736 a63d 8443 d53c a1fc 8bbd
00000200: 743a 8dbc 9872 b9bc d459 ce3c 5c81 8b3c
00000210: 5590 923d 1263 3d3d 7666 433d 7c7c 95bd
00000220: 011a a7bd c210 6e3d da49 5f3d 136c 6abd
00000230: 20e4 04bb 9cf0 23bd 201d 56bb 6eb6 aebd
00000240: b2c1 9bbd 8be9 943d 7e8b 443d 86b4 8fbd
00000250: b497 8ebc 2117 823d deb8 683d f0d5 93bb
00000260: 5582 15bd e4d6 80bd fd40 39bd 3c19 0f3d
00000270: 2cac 9dbc 75e3 863d 0f33 9bbd 5653 8abd
00000280: ff59 963d 337d 53bd a03f acbb d0c0 1fbd
00000290: 3d76 b2bd eba1 813d 9155 60bd aa8f e9bc
000002a0: 1527 8b3d eeb3 793d 19f9 9f3d 7eaf 0f3d
000002b0: 6346 a9bd b813 9e3c 5221 6ebd a710 8e3d
000002c0: c618 88bd 002c d03b 8c44 a7bc 505e 613c
000002d0: aa71 213d dc41 a6bd aa99 f8bc d853 cdbc
000002e0: cade 763d a84e d03c 2d02 8bbd f6b4 793d
000002f0: 362a 533d 08d0 573c cea7 033d 201a a73c
00000300: cb71 5ebd ffec b4bd 70a2 abbd 1271 633d
00000310: 30cf 363c a820 a63c 0432 803c 0ffd a83d
00000320: 4aef 743d e4de 953c 5b34 51bd 70fa 113d
00000330: 0c3e 99bc 40e2 6a3c 38f1 c93c 7e94 773d
00000340: f89d 50bc 1926 adbd da4d 063d 7eec 113d
00000350: f5ef 3abd a448 8f3c a0cd 6bbc 3ac9 febc
00000360: 73d8 a13d b526 02bd 82b0 383d c032 a23a
00000370: 546f b43c 442f 93bc d0cc bbbb 7d10 49bd
00000380: 78dd 0f3d 687f 9fbd d4e4 1bbd 7c0b ae3c
00000390: 5841 28bd 8ce0 9c3c b5bc a33d 3634 a0bd
000003a0: 9805 65bc 004d ec3c cbe7 883d e0b5 443b
000003b0: c0bd 91bd 6076 433c 727b 65bd 46ca 633d
000003c0: c91a 9cbd 2e76 36bd 6fbb ab3d 94aa 9abc
000003d0: 4619 82bd f088 4ebd 35ef 36bd 28e6 0a3c
000003e0: fada 593d 119f 903d b191 a83d 62e0 093d
000003f0: 5071 fe3c 689d 813c 3efb 42bd f051 8abc
-0.020683035 0.040864386 0.06313617 -0.081467696 -0.061660692 0.05759398 0.0645457 -0.013482124
-0.050876968 -0.03661441 0.08731175 -0.062490415 0.042840116 0.06508645 -0.0035230368 -0.032369286
0.047943287 -0.024734445 -0.05945073 -0.0052924007 -0.063519 -0.07154306 -0.019907951 -0.03432929
0.0024818778 6.489456e-05 0.058065213 0.038912185 -0.052096613 -0.01303564 0.08067959 -0.07166325
0.083390735 0.04137712 0.045525067 -0.052091397 -0.044854265 -0.013783164 -0.0042268857 -0.038952265
-0.015243858 -0.035087947 0.08614757 -0.045462962 0.076579936 -0.08342714 -0.019955851 -0.054460704
-0.043798953 0.07335623 0.025935031 -0.03443216 0.042803816 0.06308382 0.037719063 -0.012479626
-0.01775983 0.053028844 0.06294378 -0.06365292 0.0711905 -0.0716834 0.05794757 0.021965727
0.01400581 -0.037388477 -0.0063200593 0.048686735 0.054353707 -0.0570941 0.060910545 0.08410459
-0.08727046 0.043749012 0.07900148 -0.06364798 0.046983905 0.04252497 0.03974054 0.022454068
0.037239634 0.039892145 0.074394144 0.08819068 0.010792144 -0.03250463 -0.06734371 -0.05804038
0.0793967 0.07953826 -0.008073501 -0.06635956 0.08418972 0.026443593 -0.03232323 -0.0052881315
0.08401462 -0.06925731 0.07529787 0.02222775 0.07127521 -0.0025258288 -0.05292347 -0.031721152
-0.07286181 0.016070753 0.06246286 -0.073406726 0.061959095 0.0280189 0.026519492 0.009600207
-0.0050981864 -0.026862387 0.05880948 0.053772308 -0.025948264 0.011104174 0.07189297 0.0073057488
0.04600901 -0.047007475 0.061090164 -0.07228215 0.03385166 0.081157975 0.02603317 -0.068352945
-0.017239787 -0.02263765 0.025189318 0.017029457 0.071564354 0.04623706 0.047705136 -0.07299134
-0.08159257 0.05812145 0.05451379 -0.057231974 -0.0020277575 -0.040024385 -0.0032671168 -0.085308895
-0.07605304 0.07271107 0.047984593 -0.07016854 -0.017406322 0.06352068 0.056816928 -0.0045115873
-0.036501247 -0.06290987 -0.045227993 0.034936175 -0.019247137 0.06586353 -0.07578098 -0.06754176
0.07341384 -0.05163307 -0.005256608 -0.03900224 -0.087139584 0.063297115 -0.054769102 -0.028510887
0.06794564 0.06096261 0.078111835 0.03507947 -0.08265378 0.019296512 -0.058137245 0.0693677
-0.0664535 0.0063529015 -0.020418428 0.013755396 0.03941504 -0.081180304 -0.03034671 -0.025064394
0.060271062 0.025428131 -0.06787524 0.060963593 0.051553927 0.013172157 0.032142453 0.0203982
-0.05430774 -0.08834266 -0.08380592 0.055527754 0.011157796 0.020279244 0.01564885 0.08251392
0.059798516 0.01829476 -0.05107532 0.035639226 -0.018706344 0.014336169 0.024651155 0.060444348
-0.012732975 -0.08454532 0.03278909 0.035625927 -0.045638997 0.017490692 -0.014392287 -0.031101812
0.079026125 -0.031775195 0.045090206 0.0012374744 0.022025742 -0.017966874 -0.0057312027 -0.04908799
0.03512332 -0.07787973 -0.038060024 0.02124571 -0.04107794 0.019150041 0.079949774 -0.078224584
-0.013978384 0.02884531 0.06684836 0.0030015633 -0.0711627 0.011930078 -0.05602593 0.055612825
-0.07622296 -0.0445463 0.083853595 -0.018880166 -0.06352477 -0.050423563 -0.04466172 0.008477725
0.053187348 0.070615895 0.082309134 0.033661254 0.031059891 0.015822127 -0.047602884 -0.016884774
