trajectory_tf.pth (torch, 747538 bytes, 75 tensors)

weight f4 [2, 28]
000000 55 27 9b 3f b9 f0 04 c0 4d 77 0b 40 10 ae 0c bf
       1.2121378 -2.0771925 2.1791565 -0.549531
000010 f4 05 e1 3e 27 6e ae 3c b7 d5 b4 be 3f 9f d8 3e
       0.43949854 0.02129276 -0.353193 0.42308995
000020 e2 5c 58 3f 3c 86 c4 bf 50 a1 19 3f 6b 12 9f bf
       0.8451673 -1.5353465 0.6001177 -1.2427496
000030 62 43 a4 3f d4 b0 98 3e ce 48 7e 3f 62 d2 34 3f
       1.2833064 0.2982241 0.9932984 0.7063352
000040 1a f5 57 3f a4 0f 65 bf f0 27 63 3f 58 40 5a bf
       0.8435837 -0.8947699 0.88732815 -0.8525443
000050 90 02 3f 3f 24 63 fe be 55 9b d8 3f be b7 41 bf
       0.74613285 -0.49685013 1.6922404 -0.75670993
000060 89 47 92 be f1 0c 77 bf 74 37 3c be 8c 78 fb 3f
       -0.28570202 -0.9650412 -0.18380529 1.9646163
000070 b1 b5 16 3f f9 20 da 3e 65 ae 3e 3f 4d 28 c4 3d
       0.5887099 0.4260328 0.74484855 0.09577999
000080 d0 83 1e 3f 94 7d 09 bf dd 0f 03 bf 2b dd d3 be
       0.6191988 -0.5370724 -0.5119608 -0.41379675
000090 c0 ba 59 bf de 2d 6f bf 63 07 b3 3f cb c7 26 3f
       -0.8505058 -0.9342936 1.3986629 0.6514861
0000a0 b7 ea 8c bf 56 bc 11 bf c2 b5 f7 3e 85 2b 9c bf
       -1.1009129 -0.56928 0.48380858 -1.2200781
0000b0 ce 9f 90 3f 28 f3 00 3f 16 da 85 bf 58 6d 47 bf
       1.1298769 0.50371027 -1.045718 -0.7790122
0000c0 1c 1b e9 3a fc c7 ff 3c 92 62 89 be d3 18 cc bf
       0.0017784568 0.03122329 -0.26833016 -1.5945076
0000d0 df e6 0c bf bc f0 bd bf 5e b3 ec 3d ab 67 9c 3e
       -0.5503978 -1.4839091 0.11557649 0.30547842

weight f4 [7]
000000 71 e9 91 3f af 9d 9e 3f 30 d3 73 3f e5 a1 8f 3f
       1.1399366 1.2391871 0.9524412 1.1221281
000010 a5 62 9e 3f 0d 06 9d 3f 2f ab a0 3f
       1.2373854 1.2267472 1.2552241

bias f4 [7]
000000 de ff 79 3e dd c0 32 be c6 cf 3c 3e a6 9f 01 be
       0.24414012 -0.17456384 0.18438634 -0.12658557
000010 0f 8d e3 3d 0c 0d b1 3d 13 95 3c be
       0.11110889 0.086450666 -0.18416242

weight f4 [32]
000000 00 00 80 3f 00 00 80 3f 00 00 80 3f 00 00 80 3f
       1.0 1.0 1.0 1.0
000010 00 00 80 3f 00 00 80 3f 00 00 80 3f 00 00 80 3f
       1.0 1.0 1.0 1.0
000020 00 00 80 3f 00 00 80 3f 00 00 80 3f 00 00 80 3f
       1.0 1.0 1.0 1.0
000030 00 00 80 3f 00 00 80 3f 00 00 80 3f 00 00 80 3f
       1.0 1.0 1.0 1.0
000040 00 00 80 3f 00 00 80 3f 00 00 80 3f 00 00 80 3f
       1.0 1.0 1.0 1.0
000050 00 00 80 3f 00 00 80 3f 00 00 80 3f 00 00 80 3f
       1.0 1.0 1.0 1.0
000060 00 00 80 3f 00 00 80 3f 00 00 80 3f 00 00 80 3f
       1.0 1.0 1.0 1.0
000070 00 00 80 3f 00 00 80 3f 00 00 80 3f 00 00 80 3f
       1.0 1.0 1.0 1.0

bias f4 [32]
000000 00 00 00 00 00 00 00 00 00 00 00 00 00 00 00 00
       0.0 0.0 0.0 0.0
000010 00 00 00 00 00 00 00 00 00 00 00 00 00 00 00 00
       0.0 0.0 0.0 0.0
000020 00 00 00 00 00 00 00 00 00 00 00 00 00 00 00 00
       0.0 0.0 0.0 0.0
000030 00 00 00 00 00 00 00 00 00 00 00 00 00 00 00 00
       0.0 0.0 0.0 0.0
000040 00 00 00 00 00 00 00 00 00 00 00 00 00 00 00 00
       0.0 0.0 0.0 0.0
000050 00 00 00 00 00 00 00 00 00 00 00 00 00 00 00 00
       0.0 0.0 0.0 0.0
000060 00 00 00 00 00 00 00 00 00 00 00 00 00 00 00 00
       0.0 0.0 0.0 0.0
000070 00 00 00 00 00 00 00 00 00 00 00 00 00 00 00 00
       0.0 0.0 0.0 0.0

weight f4 [384, 32]
000000 ee bc f6 bd 90 f4 83 bc e6 c3 e4 3d df 75 00 3e
       -0.12047754 -0.016107827 0.11170177 0.12544964
000010 b8 1f 92 bc a2 02 c2 3d 5c ce 2d bd e6 6d ea 3d
       -0.01783739 0.094731584 -0.042433128 0.11446743
000020 03 cb bc bd 00 ee 49 bb 36 66 f9 3d 10 ab 4c bd
       -0.09218409 -0.0030812025 0.12177698 -0.049967825
000030 ee 0c d9 3d 2b 19 2b 3e 30 40 2c 3d 00 30 ec 38
       0.10598169 0.1670882 0.0420534 0.000112622976
000040 4b 74 26 3e 4e 08 bb 3d f6 b7 0b be 75 8d 19 be
       0.162553 0.09132443 -0.13644394 -0.14995368
000050 4c 82 4f 3d 36 e2 27 be 3e 3e 71 bd ea f5 88 3d
       0.05066137 -0.16394886 -0.05889725 0.066875294
000060 58 a8 94 3d b7 e9 2d 3e a4 fa 03 be 7b e7 19 3e
       0.072586715 0.16983686 -0.1288858 0.15029709
000070 00 66 89 3c 1c 5b b0 bd d8 41 b3 bc ea c5 9e 3d
       0.01677227 -0.08611128 -0.021881983 0.07752593
000080 d7 bd ac bd dc f5 98 bd 51 1e 18 3e 97 71 13 3e
       -0.084346466 -0.07468769 0.14855315 0.143988
000090 db f5 2f be 1a 8c 6e bd 38 7f 3c bd 5f f1 1d 3e
       -0.1718363 -0.05823908 -0.046019763 0.15424107
0000a0 2f bc 1c 3e 96 9f cd 3d d0 2f 29 bc 20 12 66 bc
       0.15306161 0.10040204 -0.010326341 -0.014042407
0000b0 1d d3 0e 3e 58 8a 96 3c 3b 6b 18 3e 9c ce 97 bd
       0.13947721 0.018376514 0.14884655 -0.074124545
0000c0 b8 ec 58 bd 38 80 cd bc 46 ed 87 3d f0 35 7e bc
       -0.052960128 -0.025085554 0.06637053 -0.015515789
0000d0 14 f4 21 bd ea a5 91 3d f8 e1 52 bd 16 b2 92 bd
       -0.03953941 0.07111724 -0.05148503 -0.071628734
0000e0 9d 95 8e bd b0 8c ff bd 80 b6 6f bb 56 43 97 3d
       -0.0696213 -0.12478006 -0.0036577284 0.0738589
0000f0 00 53 d2 bd 80 9e 81 bd 35 4a 0f be d4 64 6c bd
       -0.10269737 -0.063290596 -0.13993151 -0.057713345
000100 9b 02 29 3e 53 e0 1e 3e 30 ef 04 bd 05 1a 22 be
       0.165049 0.1551526 -0.03245467 -0.15830238
000110 e9 9e d7 bd c0 01 19 bb 68 a8 ce 3c a5 d2 0f 3e
       -0.105283566 -0.002334699 0.025226787 0.14045198
000120 90 f3 06 bd dc 30 1e 3d 32 25 01 be 33 55 14 3e
       -0.032947123 0.038620815 -0.12611845 0.14485626
000130 e4 bc 63 bd 09 9d 28 be 69 30 0e 3e 9a 72 e2 3d
       -0.055600062 -0.16466154 0.13885655 0.11057015
000140 10 63 70 bc 24 7a 64 3d c4 36 45 bd 54 af 02 be
       -0.014672056 0.055780545 -0.04814793 -0.12762195
000150 4b e9 32 3e 1d 43 0e be 18 da 94 bd a0 7c a2 bc
       0.17471807 -0.13892789 -0.072681606 -0.019834816
000160 a0 77 5b 3d eb 97 1b 3e f8 da d3 bd 67 c9 2b 3e
       0.05358088 0.15194671 -0.10344499 0.16776048
000170 3d 53 06 3e d8 96 ec bc f0 5f 29 3d 87 6e 25 3e
       0.1311769 -0.028880522 0.04135126 0.16155444
000180 3f e3 18 3e c8 84 fb 3c e4 bb 0c be 88 9e e4 3c
       0.14930438 0.030702963 -0.1374355 0.027907625
000190 21 c0 28 3e 25 af 9d bd a5 8c 22 3e 1d 2a ad bd
       0.16479541 -0.07699422 0.15873964 -0.08455298
0001a0 a4 da 80 bd e2 f6 b9 3d eb 3f 26 be 59 de 0e be
       -0.062917024 0.09080292 -0.1623532 -0.13952006
0001b0 a0 f6 8d bc 4a 4f 83 3d c0 c7 01 bb da 16 9a 3d
       -0.017329514 0.064116076 -0.0019802898 0.0752389
0001c0 16 67 d2 bd f1 c8 29 3e 90 41 4a 3c f5 ea 17 3e
       -0.10273568 0.1658056 0.012344733 0.14835723
0001d0 40 de 0b bd 58 4c 3a 3d 00 99 f9 ba b6 5e f0 3d
       -0.0341475 0.045482963 -0.001904279 0.11736815
0001e0 74 53 b0 bd d3 5a 32 3e a2 69 c4 bd 6c 0a 2e bd
       -0.086096674 0.17417459 -0.0959046 -0.042490408
0001f0 af 96 97 bd 67 35 29 3e 3e 52 9b 3d 59 72 f5 bd
       -0.074017875 0.16524278 0.07584046 -0.11984701
000200 b7 2c 18 3e 1e 95 e2 3d f7 15 31 3e 55 df 1c be
       0.14860807 0.11063598 0.17293535 -0.1531957
000210 43 5f 2c be 42 f4 fa 3d ac 40 88 3d 6e c0 85 bd
       -0.16833214 0.1225362 0.0665296 -0.06530844
000220 d0 fa 0b be 20 b8 b2 3b e6 27 b1 3d 00 c7 5a bc
       -0.13669896 0.0054540783 0.08650188 -0.013353109
000230 d6 72 f9 3d 66 54 ef 3d e8 71 97 bc 8e 59 b4 3d
       0.12180106 0.116860196 -0.018486932 0.08806144
000240 aa b7 7a bd c0 b8 f0 3c b2 42 0e be 34 f2 a9 bd
       -0.061210312 0.02938497 -0.1389263 -0.0829815
000250 15 c5 06 3e f9 3c 1e 3e 14 f9 81 3d 4c f8 32 bd
       0.13161118 0.15452947 0.06346336 -0.043693826
000260 10 13 d4 bd aa 44 a5 3d 80 39 08 bb a0 b1 7b bc
       -0.103551984 0.08069737 -0.0020786226 -0.015362173
000270 df af a4 bd 83 c2 d0 bd 93 d0 d9 bd 56 43 9b 3d
       -0.08041357 -0.1019335 -0.106354855 0.07581203
000280 b2 0e ec 3d 70 23 15 bc 20 2c 15 be 7d 5e 2e 3e
       0.115262404 -0.009102687 -0.14567614 0.17028232
000290 70 f3 f2 bc 3e b0 fc 3d 56 c8 bd 3d b4 07 66 3d
       -0.029657096 0.12338303 0.09266727 0.05615969
0002a0 14 a7 8f 3d 90 b2 8c 3d ee 99 ac bd 6b 7a 31 3e
       0.070142895 0.068699956 -0.08427797 0.17331855
0002b0 50 a1 98 bc 70 66 0d be c4 9d 03 bd b8 2f e1 bd
       -0.018631607 -0.13808608 -0.03213288 -0.1099543
0002c0 43 47 03 3e f6 ed 05 be 10 78 2e be eb 3b b0 bd
       0.12820153 -0.13079056 -0.17037988 -0.086051784
0002d0 e3 04 19 be e7 e6 a2 bd ac 3d 03 be 30 f8 0f bc
       -0.1494327 -0.079541974 -0.12816495 -0.0087872
0002e0 40 16 02 bd d2 dd f6 bd 9e 2e db 3d 1f a0 e4 bd
       -0.0317595 -0.120540276 0.10702251 -0.11163353
0002f0 3a 21 f0 3d 80 50 c1 bb a0 d3 07 be 62 b5 b7 bd
       0.117250875 -0.005899489 -0.13264322 -0.08970143
000300 c8 29 ac bc c0 6a c8 bb d4 8b 09 be 10 f9 84 3d
       -0.021016017 -0.006116241 -0.13432246 0.064928174
000310 fc 0b 0d bd b5 1c 16 3e 20 ad fb bd cd 9d 0c 3e
       -0.034435257 0.14659388 -0.1228888 0.13732071
000320 b3 c8 0b 3e 78 21 64 3d c4 1c 98 bd 73 83 b4 bd
       0.1365078 0.05569598 -0.074273616 -0.088141344
000330 c6 cb 0f be a8 76 c9 bc 4b b3 30 be ff b8 08 3e
       -0.14042577 -0.024592713 -0.17255895 0.1335182
000340 31 8d 1b be 99 03 92 bd 3e 4a 5c bd eb 45 93 bd
       -0.15190579 -0.071295924 -0.05378174 -0.0719107
000350 e2 0b b0 3d 88 de 21 3d 38 f7 dc 3c 60 6e 69 bc
       0.085960165 0.039518863 0.026973352 -0.014247507
000360 a0 a2 d7 bb e0 95 bb bd d0 b8 02 be f3 14 21 3e
       -0.0065806657 -0.09159446 -0.12765813 0.15730648
000370 fa 51 15 be e3 95 2f 3e 18 7e 4e 3d d9 cc cd bd
       -0.14582053 0.17147021 0.05041322 -0.10048837
000380 43 9f 25 3e 80 65 a9 3c f0 ee e3 3c fe 63 0b be
       0.16174035 0.020678282 0.027823895 -0.13612363
000390 b4 69 3e 3d ed 8f 29 3e 90 e3 73 bd 73 e9 c1 bd
       0.046487525 0.1655881 -0.059543192 -0.09468355
0003a0 3a 83 97 bd df b5 d6 bd da ee 84 3d d0 a5 da 3c
       -0.07398076 -0.10483908 0.0649087 0.026690394
0003b0 63 3c 06 3e 5e 53 57 bd b0 67 e4 bd 80 85 18 bd
       0.13108973 -0.05256974 -0.11152589 -0.03723669
0003c0 5f b1 2d be 70 1a 2e bc 90 cf 78 bc 83 5f 20 3e
       -0.16962193 -0.01062642 -0.0151862055 0.15661435
0003d0 2e 95 ef bd c8 17 ef bc 4f ba 01 be 26 74 cb bd
       -0.11698376 -0.029186144 -0.12668727 -0.09934263
0003e0 f7 2d b0 bd c0 95 f5 bc 1d b0 26 be d6 f7 dd 3d
       -0.08602517 -0.029978633 -0.1627812 0.108382866
0003f0 ec 3d 2a be 48 9e 0c 3d 2b 79 25 3e d8 5a 2e be
       -0.16625184 0.034330636 0.16159503 -0.17026842

weight f4 [32, 128]
000000 b0 a4 c5 bb 12 6a 33 3d 7c 31 85 3c b6 42 52 3d
       -0.006031595 0.04380233 0.016258948 0.05133315
000010 09 07 9b bd b8 68 1c bc a0 24 8c 3b aa 9d 52 3d
       -0.07569701 -0.009546451 0.004276827 0.05141989
000020 e1 f7 a9 3d de e3 e3 bc c0 fb a8 3a da 10 66 3d
       0.08299232 -0.027818616 0.001289241 0.056168415
000030 b0 b2 e4 3b 3e ce 70 bd 42 7d 08 3d d8 f9 77 3c
       0.006979309 -0.058790438 0.03332258 0.015135251
000040 18 28 07 bd ef ac 97 bd 9d f0 99 bd 09 5d 9b 3d
       -0.03299722 -0.07406031 -0.075165965 0.075861044
000050 5c b3 b6 3c 50 c5 9a 3c e3 b9 a1 3d 3c 5a b2 bc
       0.022302322 0.018892914 0.07896783 -0.021771543
000060 90 ef bc bc 60 92 e8 bb 0e ea 47 3d 8a e1 24 3d
       -0.023063451 -0.0070975274 0.048807196 0.040254153
000070 dd b2 9d 3d 7e 0a 24 3d d0 07 90 bc fc 46 93 bc
       0.07700131 0.04004907 -0.01758185 -0.017978184
000080 f8 34 6b bc 5e 34 2e 3d 30 ab 65 bd ff 44 9a 3d
       -0.01435589 0.04253041 -0.05607146 0.07532691
000090 f2 59 8b bd b9 27 9b bd 41 ff 39 bd 8a 55 7e 3d
       -0.06804265 -0.07575936 -0.045409445 0.062093295
0000a0 18 1b 2e bc b7 97 9a 3d e0 bc e1 bc d8 60 b2 3c
       -0.010626577 0.075484686 -0.027555883 0.021774694
0000b0 27 ef 38 bd e8 3d ab bc 13 81 9e 3d 14 62 f1 3c
       -0.04514995 -0.020903543 0.07739463 0.029465713
0000c0 e1 76 53 bd ec 01 fd 3c 66 19 ab bd 3f eb 92 3d
       -0.051627044 0.030884705 -0.08354454 0.07173776
0000d0 40 eb 40 3c 92 5f 69 3d 86 6c 33 3d f2 4f 99 bd
       0.011774838 0.05697591 0.043804668 -0.074859515
0000e0 fc 20 a5 bc 5d 39 a8 3d 78 e2 be bc f2 6e 55 3d
       -0.02015733 0.08214066 -0.023301348 0.05210776
0000f0 78 c9 b8 3c d8 29 51 3c f5 d6 8c 3d 69 65 8d bd
       0.022557005 0.012766324 0.06876937 -0.06904108
000100 48 ed 50 bc 51 4c a3 bd 0e 87 4d 3d 50 70 0a bc
       -0.012751885 -0.079735406 0.050177626 -0.008449629
000110 be 57 3d 3d 72 d3 07 3d 30 10 b4 3c 78 cb 5d 3c
       0.046226256 0.033160634 0.021980375 0.01353728
000120 35 9f 81 3d a3 ce 94 3d 70 2d 60 3c 94 3f 98 3c
       0.063291945 0.07265975 0.013682708 0.018585004
000130 f3 be 4f bd 0e 4c 0a 3d 00 55 e7 ba ec 7b 07 3d
       -0.050719213 0.033763938 -0.0017649233 0.033077165
000140 3f 59 90 3d 8d 99 b4 bd 84 e2 b9 3c 80 1c 62 3a
       0.07048272 -0.0881835 0.022691019 0.00086254627
000150 77 5b 9e 3d e1 33 68 bd 5e 06 23 3d 76 77 00 3d
       0.07732289 -0.0566901 0.039800994 0.031363927
000160 a2 66 9e bd 53 af b4 bd e9 42 a1 3d 00 55 69 ba
       -0.077344194 -0.08822503 0.0787409 -0.00089009106
000170 a6 68 03 bd 8c d4 a2 bc 56 e1 76 3d a7 b5 65 bd
       -0.032082222 -0.01987674 0.06027349 -0.05608144
000180 83 7e 80 3d b0 0b a7 bb df 70 05 bd 8d ef 80 3d
       0.0627413 -0.005097829 -0.032578345 0.06295691
000190 00 fa f5 3b 10 e1 d0 3b 0d aa 11 bd ef be a6 3d
       0.007506609 0.006374486 -0.035562564 0.081418864
0001a0 4c 56 b1 bd d6 e7 28 3d 66 83 ee bc 40 cd cc ba
       -0.08659038 0.04123672 -0.02911539 -0.0015625134
0001b0 a9 85 98 3d 98 9c 1f bc ce 2a 13 bd 8c 00 c3 3c
       0.07447369 -0.009741925 -0.035929494 0.023803972
0001c0 57 2c 3b bd cf 9f b4 3d 14 6a 83 bd fe 5c fb bc
       -0.045696583 0.088195436 -0.06416717 -0.03068399
0001d0 40 f9 24 bb 00 80 c1 3a ea 87 3b 3d e8 33 0d bd
       -0.0025172979 0.0014762878 0.045783915 -0.03447333
0001e0 b4 5b 82 bd 06 1f 17 3d 10 c2 0c bd 2d bd 08 bd
       -0.06365147 0.03689482 -0.03436476 -0.033383537
0001f0 2b ad ac 3d 34 96 9e bd 38 0e a5 3c 82 01 4c 3d
       0.08431467 -0.07743493 0.020148382 0.049806125
000200 1c d0 90 bc 0f 25 80 3d 43 1d 8c bd a6 bf 28 bd
       -0.01767736 0.06257068 -0.06841519 -0.041198395
000210 19 9e 95 3d 8e f9 22 3d 0b 5a 80 bd d9 ba 88 3d
       0.07305545 0.039788775 -0.06267174 0.06676263
000220 b2 9b 1e 3d 34 b7 dc 3c 7e dc 78 3d 3c 65 ae bd
       0.0387227 0.026942827 0.060757153 -0.08515403
000230 6f 4b 99 3d 13 9f 7d bd b3 00 34 bd 58 3c f0 3c
       0.07485091 -0.061919283 -0.04394598 0.02932565
000240 2a 7e ed bc c5 cf 86 3d 31 95 02 bd 17 e3 a5 3d
       -0.028990824 0.06582598 -0.03188056 0.080999546
000250 74 54 a3 bd a0 ab 28 bb e0 c5 ce bc c9 79 2d bd
       -0.079750925 -0.0025737062 -0.025240839 -0.04235247
000260 d8 df 09 3c 00 14 a7 3b 68 d8 64 bc ce 35 48 3d
       0.008415185 0.0050988197 -0.013967611 0.048879437
000270 20 05 5e bb 68 ca 95 bc 76 b6 36 bd 57 e9 84 3d
       -0.0033877566 -0.018284991 -0.044607602 0.064898185
000280 38 c2 75 bd 06 1e f9 bc 45 c1 0b bd 84 d2 9b bc
       -0.059999675 -0.030409824 -0.034119863 -0.01902128
000290 69 97 a2 bd 05 09 99 bd 46 cb 9b bd 5b 0a a2 3d
       -0.079390354 -0.074724235 -0.07607131 0.079121314
0002a0 f8 e6 d9 3c 1a 23 48 3d 3c a0 fc 3c 00 51 32 bc
       0.026599392 0.0488616 0.030838124 -0.01088357
0002b0 8f a5 a3 3d 1e 69 56 3d 70 29 a3 bd 20 9e 95 bc
       0.07990562 0.05234634 -0.07966888 -0.018263876
0002c0 b1 9b 9c 3d 83 98 82 3d 3b cf 8b 3d 46 71 0c 3d
       0.07646883 0.063767456 0.068266355 0.034287713
0002d0 c3 16 04 bd 80 02 73 bd 19 2d 20 bd eb 15 b3 3d
       -0.03224827 -0.059328556 -0.03910551 0.08744415
0002e0 ca 61 52 3d d6 b3 76 3d 60 e0 07 3b 86 93 34 3d
       0.05136279 0.0602301 0.0020733103 0.044086
0002f0 a0 2f 54 bb 2a 18 97 bd db 2d 85 bd ea 3c 58 3d
       -0.003237702 -0.07377656 -0.06502887 0.052792467
000300 a0 39 80 bc 80 51 d5 ba c8 14 18 bc 4f 9e 87 3d
       -0.015652478 -0.0016274899 -0.009282298 0.06621992
000310 44 45 81 bd 24 42 b1 bc e7 3c 04 bd 3e a5 b3 bd
       -0.063120395 -0.021637984 -0.032284644 -0.08771752
000320 d0 94 8a bd 56 93 54 3d 91 ba 15 bd 35 1c 9f 3d
       -0.06766665 0.051898323 -0.036554877 0.07769052
000330 c0 4d c7 bc 0c 5e c2 bc 16 f7 58 3d 99 dc 93 bd
       -0.024329066 -0.023726486 0.052970015 -0.0721981
000340 a9 0c 8d 3d d3 1a 35 bd a6 80 24 bd be 46 18 3d
       0.0688718 -0.044215035 -0.04016175 0.03717684
000350 60 f8 85 bc a0 4b 9e bc 0c 6b af bc ca 04 e4 bc
       -0.016353786 -0.01932317 -0.021413349 -0.027834315
000360 4e d4 39 3d 73 f2 b1 bd ae 24 7d bd f9 0e ac 3d
       0.045368485 -0.08688822 -0.06180256 0.08401293
000370 ea b8 29 bd 67 79 a3 3d 60 1b 03 3d da 2f 76 3d
       -0.041436113 0.0798214 0.03200853 0.06010423
000380 7d b0 8a bd 80 50 a7 3c 02 ee 04 3d 11 03 a4 bd
       -0.06771944 0.020424128 0.032453544 -0.08008397
000390 ad 67 a2 3d 4a 24 07 3d 7e cf 2b 3d 4c 4a 91 bc
       0.07929931 0.032993592 0.041945927 -0.017735623
0003a0 7d 69 9a 3d 20 30 ee bb 30 3c c1 bc a4 f2 b4 bd
       0.075396515 -0.0072689205 -0.02358827 -0.088353425
0003b0 5e 2a 90 bd 0d 2c 39 bd 33 c9 1b bd 00 64 30 b9
       -0.07039331 -0.045208026 -0.038033675 -0.00016821921
0003c0 a1 df 8d bd 60 dc 79 3b 62 2a a6 bd 19 cb b2 bd
       -0.069274195 0.0038125739 -0.08113553 -0.08730144
0003d0 a7 4c af bd aa c4 47 3d 38 8e 72 3c 46 49 21 3d
       -0.08559542 0.048771538 0.014804415 0.03937652
0003e0 b6 76 95 bd fd 43 8c 3d a1 62 87 3d 1f d8 a3 bd
       -0.07298033 0.06848905 0.06610609 -0.08000206
0003f0 28 9b 80 3c 88 57 ae bd c0 b6 f9 3a 72 a0 5a 3d
       0.015698984 -0.08512789 0.0019051656 0.05337567

bias f4 [32]
000000 e6 61 61 3d 99 aa 59 bd ac 78 a5 3c 82 7d a8 bd
       0.055025004 -0.05314121 0.020199142 -0.08227064
000010 84 47 b2 bd a2 ff 28 3d bc 52 b4 bc 50 f5 aa bb
       -0.08705047 0.041259415 -0.022012107 -0.005217232
000020 5d de 8c 3d 90 51 aa bd 8c 45 ee bc ab 28 8a bd
       0.0687835 -0.08316338 -0.029085897 -0.06746038
000030 94 58 bc bc d0 24 fd 3b b2 2d 20 bd 0e 14 5f bd
       -0.022991456 0.0077253357 -0.03910608 -0.054462485
000040 b7 18 b3 bd 22 8f 42 3d 78 ff 31 bc 36 66 93 bd
       -0.08744948 0.047499783 -0.010864131 -0.071972296
000050 80 5e b8 3b c0 92 79 bb 0f da 8e bd 61 0b 55 bd
       0.0056264997 -0.0038081855 -0.06975185 -0.052012805
000060 d6 a3 7d bd 80 65 b8 3a 00 41 fc ba e8 35 3b bd
       -0.061923824 0.0014068335 -0.0019245446 -0.045705706
000070 97 0f 9f 3d e0 70 3b bc fd 69 a6 bd 81 49 05 bd
       0.077666454 -0.011440486 -0.081256844 -0.032540802

weight f4 [32]
000000 00 00 80 3f 00 00 80 3f 00 00 80 3f 00 00 80 3f
       1.0 1.0 1.0 1.0
000010 00 00 80 3f 00 00 80 3f 00 00 80 3f 00 00 80 3f
       1.0 1.0 1.0 1.0
000020 00 00 80 3f 00 00 80 3f 00 00 80 3f 00 00 80 3f
       1.0 1.0 1.0 1.0
000030 00 00 80 3f 00 00 80 3f 00 00 80 3f 00 00 80 3f
       1.0 1.0 1.0 1.0
000040 00 00 80 3f 00 00 80 3f 00 00 80 3f 00 00 80 3f
       1.0 1.0 1.0 1.0
000050 00 00 80 3f 00 00 80 3f 00 00 80 3f 00 00 80 3f
       1.0 1.0 1.0 1.0
000060 00 00 80 3f 00 00 80 3f 00 00 80 3f 00 00 80 3f
       1.0 1.0 1.0 1.0
000070 00 00 80 3f 00 00 80 3f 00 00 80 3f 00 00 80 3f
       1.0 1.0 1.0 1.0

bias f4 [32]
000000 00 00 00 00 00 00 00 00 00 00 00 00 00 00 00 00
       0.0 0.0 0.0 0.0
000010 00 00 00 00 00 00 00 00 00 00 00 00 00 00 00 00
       0.0 0.0 0.0 0.0
000020 00 00 00 00 00 00 00 00 00 00 00 00 00 00 00 00
       0.0 0.0 0.0 0.0
000030 00 00 00 00 00 00 00 00 00 00 00 00 00 00 00 00
       0.0 0.0 0.0 0.0
000040 00 00 00 00 00 00 00 00 00 00 00 00 00 00 00 00
       0.0 0.0 0.0 0.0
000050 00 00 00 00 00 00 00 00 00 00 00 00 00 00 00 00
       0.0 0.0 0.0 0.0
000060 00 00 00 00 00 00 00 00 00 00 00 00 00 00 00 00
       0.0 0.0 0.0 0.0
000070 00 00 00 00 00 00 00 00 00 00 00 00 00 00 00 00
       0.0 0.0 0.0 0.0

weight f4 [256, 32]
000000 da 5f f4 3d 6e 27 ea 3d a6 bf c3 3d ae 4d 89 bd
       0.11932345 0.11433302 0.095580384 -0.06704269
000010 ab a2 a2 bd 00 73 cf bd 32 99 b0 3d 53 6e dc bd
       -0.07941183 -0.101293564 0.0862297 -0.1076323
000020 7f 89 a9 bd 64 c9 0c bd 40 a4 f9 3b e6 11 91 3d
       -0.082781784 -0.03437175 0.007618457 0.07083492
000030 b0 a1 13 bc b0 75 2b be 10 0d 31 3d 42 1c 13 be
       -0.009010717 -0.16744113 0.043225348 -0.14366248
000040 0c 7a 0f be 4e e8 9c 3d 90 dd 47 3d 11 9c b8 bd
       -0.14011401 0.07661496 0.048795283 -0.09014142
000050 b2 86 54 bd ed c0 16 3e 88 1c c5 bd 98 8a 88 bc
       -0.051886268 0.14722033 -0.096245825 -0.01666765
000060 aa 5f 01 be 88 0f 1f bd 00 1f a9 bd 60 52 e8 bd
       -0.12634149 -0.03883317 -0.08257866 -0.11343837
000070 bd 4c 27 be 20 05 d9 3c e5 e3 2a be 61 5b 32 3e
       -0.16337867 0.026491702 -0.16688497 0.17417671
000080 cd 34 26 3e 5c 8a 06 3d 9b 95 07 be c9 88 c1 bd
       0.1623108 0.032846794 -0.13240664 -0.09449918
000090 7a 14 e8 3d 50 64 ae bd 7a 6c f7 3d 73 19 0e be
       0.113320306 -0.08515227 0.12081237 -0.13876896
0000a0 b0 ea dd bc 58 ef 44 bd 1e 90 b7 bd a8 5f 5e 3d
       -0.027089447 -0.04807982 -0.08963035 0.054290444
0000b0 4e cf e1 bd d6 e5 91 3d 3c b3 50 bd f4 6b a0 bd
       -0.11025868 0.07123916 -0.05095218 -0.078330904
0000c0 d0 a6 5c 3c 96 7e 98 3d 97 a3 27 be af 4d 2d 3e
       0.013467506 0.07446019 -0.16370998 0.16924165
0000d0 82 95 bc 3d 5b 30 03 3e 7d 7c 31 3e 00 92 9b bd
       0.09208204 0.12811415 0.17332645 -0.07596207
0000e0 88 37 5b bd eb 25 19 3e 50 98 1a be a7 cb b4 bd
       -0.053519756 0.14955871 -0.15097165 -0.08827906
0000f0 fa e0 96 bd 3d 33 17 3e f6 a0 21 be 42 6d 65 bd
       -0.073671296 0.1476564 -0.15784058 -0.0560124
000100 0f 44 1e be f0 c6 c8 bc 95 48 1e be 8e c1 fa 3d
       -0.1545565 -0.024508923 -0.15457375 0.12243949
000110 00 3c b8 bb 8a 8d a8 3d 36 7c e0 3d 30 7c d7 3c
       -0.005622387 0.082301214 0.10961191 0.026304334
000120 ca 28 31 be a5 5f 9e bd 10 ae 16 bc 44 48 39 bd
       -0.17300716 -0.077330865 -0.009196773 -0.045234933
000130 d8 a9 dd 3c 2c 4b 34 be fc f9 78 3d e8 6d d9 bc
       0.027058527 -0.17606801 0.06078528 -0.026541665
000140 36 06 d0 3d b2 2a 04 be 61 e2 23 3e 5a 33 bf 3d
       0.10157435 -0.12906912 0.16004325 0.093359664
000150 29 ef 31 3e 18 21 40 bd fc 20 44 bd 4d 96 18 3e
       0.17376389 -0.04690656 -0.04788302 0.14901085
000160 b6 42 b1 3d 76 0b c2 3d 4a cc b2 3d 8a 8d 97 3d
       0.08655302 0.09474842 0.08730371 0.07400043
000170 8a 2d ed 3d 1a ba fa bd c2 01 a2 3d f7 7a 2c 3e
       0.115809515 -0.12242527 0.079104915 0.16843782
000180 3a 3d 9b 3d 9f 1c 2d 3e c0 14 71 bc 09 a8 12 3e
       0.075800374 0.1690545 -0.01471442 0.14321913
000190 c4 fc 04 bd 58 b5 f0 3c 1a 01 68 bd d6 c8 7d bd
       -0.03246762 0.029383346 -0.056641676 -0.06195911
0001a0 f2 72 98 3d 38 f1 df bc 76 5c af 3d 54 b9 58 3d
       0.07443799 -0.027336702 0.085625574 0.052911118
0001b0 70 c9 23 be cf db c0 bd 23 21 82 bd 9a cb c7 3d
       -0.15994811 -0.09416925 -0.063539766 0.09755631
0001c0 b1 b8 24 3e 4c 80 36 3d b0 1a 57 3d 35 39 d5 bd
       0.16086079 0.044555947 0.052515686 -0.10411302
0001d0 8b a3 22 3e a0 ed 80 3c 92 ba d8 3d e3 0a 27 3e
       0.15882699 0.015738308 0.105824605 0.16312747
0001e0 8a c4 f4 3d 80 82 0d 3d 86 e5 01 be 4f 4b 1f 3e
       0.11951549 0.034548283 -0.12685212 0.15556072
0001f0 de 9c c5 3d 00 98 20 3d f6 47 b6 3d cf a9 1c 3e
       0.09649061 0.03920746 0.08900444 0.15299152
000200 bf 26 00 3e d0 1e 50 bc d0 a7 38 bd 01 96 21 3e
       0.1251478 -0.012702659 -0.045081913 0.15779878
000210 d0 41 1d 3c 68 ed 8a bd 32 91 69 bd 20 25 ce bb
       0.00959821 -0.06783563 -0.057023235 -0.0062910467
000220 cd 5b 28 3e 6c ef 0b be c0 e6 1b bb 92 4c b6 3d
       0.16441269 -0.13665551 -0.002378866 0.089013234
000230 b0 74 61 3c 0a 15 9f 3d 7d 16 26 3e 82 f0 ed bd
       0.013760731 0.07767685 0.16219516 -0.11618139
000240 e4 81 16 bd 15 56 23 3e 70 bc 06 be 80 b8 ef bb
       -0.036744967 0.15950806 -0.1315782 -0.0073156953
000250 b1 bf 1b be 61 fb 91 bd 95 14 83 bd 8c bf 92 3d
       -0.15209843 -0.07128025 -0.0640041 0.07165441
000260 c6 28 9d 3d c8 0c e2 bc fe 3e e2 bd 4a 00 f1 3d
       0.076737925 -0.027593985 -0.11047171 0.11767633
000270 ba 00 ed 3d d0 c8 cd bd cc d7 5f 3d e8 3e 00 be
       0.11572404 -0.100480676 0.05464916 -0.12523997
000280 88 a7 b0 bc f6 f5 b9 3d f0 86 33 3c 90 14 59 bc
       -0.02156426 0.090801165 0.010957465 -0.013249531
000290 32 cd e5 3d a4 1b 32 be b4 e9 0a be 76 9f 92 3d
       0.112207785 -0.17393357 -0.13565713 0.07159321
0002a0 c2 88 b0 3d 96 0d ba bd 60 c8 07 bc 60 d1 fe 3c
       0.086198345 -0.090846226 -0.008287519 0.031105697
0002b0 00 25 8c 3b 32 ea c1 3d 2b d1 1b 3e a0 e7 1b 3d
       0.0042768717 0.09468497 0.1521651 0.03806269
0002c0 89 6d 10 be 32 64 f4 3d b3 a6 2e 3e 55 e8 de bd
       -0.14104284 0.11933173 0.17055778 -0.108841576
0002d0 05 48 c7 bd c4 fd 19 be 49 90 a4 bd d4 b8 1c be
       -0.097305335 -0.1503821 -0.08035333 -0.15304881
0002e0 48 bc de 3c a2 c9 97 3d a2 51 c5 3d 0c d1 d7 bd
       0.027189389 0.07411505 0.09634711 -0.105379194
0002f0 f4 c2 a2 bd 80 e8 1d be fc a5 6d 3d 42 ff cc 3d
       -0.079473406 -0.15420723 0.058019623 0.10009624
000300 40 84 5e bb 3c 19 0e be 36 fd e1 bd 48 f8 5b bd
       -0.003395334 -0.13876814 -0.11034624 -0.053703576
000310 2b dc ac bd 7c 22 5d 3d d0 a2 41 bd 9a 03 1a be
       -0.08440431 0.053987965 -0.04727441 -0.15040436
000320 54 76 30 be d1 3d 25 be 9d 0a 1a 3e be a8 93 3d
       -0.17232639 -0.16136862 0.15043111 0.072099194
000330 f4 83 21 be 0a c5 56 bd 8a f8 08 be 12 a8 89 bd
       -0.15772992 -0.052434005 -0.1337606 -0.0672151
000340 b0 1b db bd d8 d7 c3 3c 6e 54 e9 3d 5e 18 a0 3d
       -0.1069864 0.023906633 0.11393057 0.07817148
000350 08 80 5b 3d 85 ed 16 be c1 e2 19 3e 20 3c 1b be
       0.053588897 -0.14739044 0.15027906 -0.15159655
000360 9e 89 d2 3d b2 60 18 be d7 bb d8 bd bb 83 2e be
       0.10280155 -0.14880636 -0.105827026 -0.17042439
000370 68 f0 54 bd c8 d2 1b bd 9a 50 f6 3d c7 62 29 3e
       -0.05198708 -0.038042814 0.12027092 0.16541587
000380 47 ef 2b 3e a0 9c 0a bd 80 6f d0 ba be d7 c8 3d
       0.16790496 -0.033840775 -0.001590237 0.098067746
000390 8e d4 98 3d 0c 9c 9c bd bc 12 79 3d 38 9a 73 bd
       0.074624166 -0.07646951 0.060808882 -0.059473246
0003a0 9a d1 7b bd 02 89 de bd eb 96 1c 3e 51 98 ac bd
       -0.06147919 -0.10865976 0.15291946 -0.084274895
0003b0 40 79 ed bd 38 fb 3d 3d 8e 46 fc 3d e3 43 11 3e
       -0.11595392 0.04638216 0.12318145 0.14186053
0003c0 7c 1b 69 3d 11 8e a5 bd 2c f7 57 bd 0c a6 6b 3d
       0.056910977 -0.08083738 -0.052725956 0.0575314
0003d0 ca ee 0f be 5b 84 cd bd 00 70 b0 3b c3 96 b6 bd
       -0.14055935 -0.100350104 0.005384445 -0.08915474
0003e0 48 3c 86 3d 83 d5 0f 3e 01 3e 1b be 60 85 99 bb
       0.065544665 0.14046292 -0.15160371 -0.004685089
0003f0 49 09 1a 3e db 26 26 3e e0 05 36 3c c0 cd a3 bb
       0.15042605 0.1622576 0.011109799 -0.0049988925

bias f4 [256]
000000 65 c5 29 be e7 1a a4 bd c0 f1 25 3c 6d 28 2b 3e
       -0.16579206 -0.08012944 0.0101284385 0.1671464
000010 e8 28 52 bd d0 bc a8 3c fd fa d3 bd 89 60 31 3e
       -0.051308542 0.020597845 -0.103506066 0.17321981
000020 0c d5 16 be 45 f4 06 be e4 f2 b7 bd cb 56 90 bd
       -0.14729708 -0.13179119 -0.089818746 -0.070478044
000030 80 0e 41 bb 5b 80 15 3e 40 78 5e bb 4a 55 b7 3d
       -0.0029458106 0.14599745 -0.0033946186 0.089518145
000040 ed a9 1d be fc 4a ff bd e8 dd 94 bd 4c 37 83 3d
       -0.15396853 -0.12465474 -0.07268888 0.064070314
000050 43 b8 0f be b5 ac e4 bd 7d 1b 0d 3e 8b 12 b2 bd
       -0.14035134 -0.11165754 0.13780017 -0.08694943
000060 c1 9c 02 be 54 04 71 bd fe 7f b1 3d 90 40 47 bd
       -0.1275511 -0.05884202 0.08666991 -0.048645556
000070 5c 4f 67 3d 01 54 e3 bd dc c0 11 3d da 38 24 be
       0.056472167 -0.11100007 0.035584316 -0.16037312
000080 ee 77 d2 3d d0 37 10 bc e0 11 b1 bd 85 26 15 3e
       0.10276781 -0.008802369 -0.086459875 0.14565475
000090 70 77 aa 3c 1e da 16 be bc fd 4c 3d c6 ad e9 3d
       0.020808905 -0.14731643 0.050046667 0.11410098
0000a0 bc 82 09 be 13 23 30 3e 8f 6b 0e be 02 47 c1 3d
       -0.13428777 0.1720088 -0.13908218 0.09437372
0000b0 68 e1 d1 3c cd 3d 32 3e e8 58 e7 3c a0 38 f4 3c
       0.025620177 0.17406388 0.028240636 0.029812157
0000c0 64 6a 43 bd 66 31 cf 3d 43 ac 0a be 60 98 ba bb
       -0.047708884 0.10116844 -0.13542275 -0.005694434
0000d0 50 66 ea bc c3 7b de bd a1 15 19 3e c0 93 34 bd
       -0.02861324 -0.108634494 0.14949657 -0.044086218
0000e0 a5 0b 0a be 5f 65 27 3e 24 73 3e 3d bc ff 13 3d
       -0.13481005 0.16347264 0.046496525 0.03613256
0000f0 27 02 2e 3e 0a 70 96 3d a3 b5 08 3e 70 01 0e be
       0.16993009 0.073455885 0.13350539 -0.13867736
000100 78 8f 8f 3d 6a 18 bf 3d 3d 89 00 3e d7 84 20 be
       0.07009786 0.093308285 0.12552352 -0.15675674
000110 60 35 8d bb 14 21 60 3d 5d 24 d0 bd 04 25 5a bd
       -0.0043093413 0.054719046 -0.10163186 -0.053257957
000120 e4 76 7a 3d 88 1a c5 bc 9e 8a 96 3d 59 4d 23 3e
       0.06114854 -0.024060503 0.07350658 0.15947475
000130 a0 c0 1a bd 70 88 95 3d 04 23 77 3d 60 96 56 bd
       -0.037781358 0.07301414 0.060336128 -0.052389503
000140 7e e2 75 bd 5f 98 e5 bd 65 0f 03 be 22 ca 0a be
       -0.060030453 -0.11210703 -0.12798841 -0.1355367
000150 32 37 f7 bd 13 21 0c 3e 40 48 71 bd 13 a8 ef bd
       -0.120710745 0.13684492 -0.058906794 -0.117019795
000160 14 26 38 3d af 6c 00 3e 20 27 95 3d 84 8b 75 bd
       0.04495819 0.1254146 0.07282853 -0.059947506
000170 91 91 03 be 70 e8 31 bd 2e 07 c1 3d 3d 36 2e 3e
       -0.12848498 -0.04343456 0.094251975 0.17012878
000180 24 d8 48 3d 20 1c 1d 3d be 26 f8 3d c0 dd 83 3c
       0.049034253 0.0383569 0.121167645 0.01609695
000190 c8 c8 f2 3c 72 92 d3 bd 28 9d 25 bd 54 0f 11 3d
       0.029636756 -0.103306666 -0.04043308 0.03541501
0001a0 57 3c 07 3e 80 ae 5b bd 8a 58 c0 bd 55 31 20 3e
       0.13206612 -0.053633213 -0.093918875 0.15643819
0001b0 36 d5 bc bd eb 37 0f be 4a 3b a0 3d 59 d5 0d be
       -0.09220354 -0.13986175 0.078238085 -0.13850917
0001c0 c0 1f 39 bd 94 ac 91 bd b3 16 be bd c2 cb eb bd
       -0.045196295 -0.07112995 -0.09281673 -0.11513473
0001d0 ee 6c ad 3d c4 35 30 be 00 30 5b 38 d4 a2 9f bd
       0.08468042 -0.1720801 5.2258372e-05 -0.07794729
0001e0 f0 fb 49 3d 31 63 07 be 15 3d 26 3e ea e3 bb 3d
       0.049312532 -0.13221432 0.16234238 0.091743305
0001f0 56 09 cc 3d 42 d2 1d be df b8 2e 3e fe e3 a7 bd
       0.09962718 -0.15412238 0.1706271 -0.08197783
000200 c6 80 df 3d c0 6d d3 3c 88 a9 da bc 1f 8d 1f 3e
       0.109132335 0.025809169 -0.026692167 0.15581177
000210 b8 d5 c0 bc 48 bb ee bc 67 3b 18 3e b4 6f 17 be
       -0.023539409 -0.029142037 0.1486641 -0.14788705
000220 fc 49 67 bd 66 e0 da 3d d0 b2 32 3c b6 78 26 be
       -0.05646704 0.10687332 0.01090689 -0.16256985
000230 5e 24 92 3d fd 11 1d 3e 6c 37 28 3d 2f 3b 1c 3e
       0.07135843 0.15338893 0.04106848 0.15256952
000240 c7 90 2f 3e 90 0f 19 3d b7 a1 06 be 9a 8d 1e be
       0.17145072 0.037368357 -0.13147627 -0.15483704
000250 e6 c7 b2 3d 10 61 59 bc 98 61 bb bc 73 f9 13 3e
       0.08729534 -0.01326777 -0.022873685 0.14450626
000260 b3 a3 13 3e fc 98 17 be 41 2c 03 3e 37 b4 0f 3e
       0.14417915 -0.14804453 0.1280985 0.1403359
000270 9a a7 14 be c0 60 10 bc ee 08 f5 3d be 8d ab 3d
       -0.1451706 -0.0088121295 0.11964594 0.083766446
000280 72 af c0 3d 1c 23 46 bd 25 2e 07 3e b4 b2 80 3d
       0.094084635 -0.048373327 0.13201196 0.06284085
000290 c8 b3 93 bc 5c 59 02 3d 93 3c 34 be a8 f8 95 bc
       -0.018030062 0.0318235 -0.17601232 -0.018307045
0002a0 6a af bf 3d a2 5a 06 be d2 25 a2 bd 51 12 21 be
       0.093596295 -0.13120511 -0.0791737 -0.15729643
0002b0 b3 6c 88 bd 1d 0d 17 3e 0f fb 2e 3e 44 a1 7b 3d
       -0.06661358 0.14751096 0.17087959 0.06143309
0002c0 2a d9 d5 3d 36 e5 a1 3d 68 34 3c bd d4 23 b5 bd
       0.104418114 0.07905047 -0.045948416 -0.08844724
0002d0 78 53 3d bd bd 46 0a be 02 c5 db 3d b3 42 e3 bd
       -0.04622218 -0.13503547 0.10730936 -0.11096706
0002e0 89 90 05 3e 46 7b ac 3d 08 fd c4 3c a0 a4 d8 bb
       0.13043417 0.0842195 0.024046436 -0.0066114217
0002f0 22 11 f2 3d 29 ab 0c 3e d2 07 b1 3d 36 c7 fa 3d
       0.11819674 0.13737167 0.0864407 0.12245028
000300 b1 9f 08 3e f0 e1 28 bd fd 77 04 3e c2 18 a8 3d
       0.13342167 -0.041231096 0.12936397 0.08207847
000310 fc 57 b0 bd 2b 48 c4 bd 70 a8 c3 3c 66 66 a3 3d
       -0.08610532 -0.095840774 0.023884028 0.07978515
000320 82 85 99 3d 12 a8 ad 3d e0 30 fb bd 3b a0 ef bd
       0.07496168 0.084793225 -0.122651815 -0.117004834
000330 6a 0f de 3d 3e 62 b1 3d 44 d1 4d 3d 50 7f f3 bc
       0.10842784 0.08661316 0.0502484 -0.029723793
000340 e4 1f 02 3d 00 0e 4d bc b8 2f 14 bd 4d 23 d4 bd
       0.031768695 -0.012515545 -0.03617832 -0.103582956
000350 a0 1a 7e bc 61 f3 f8 bd d3 c8 0e 3e df aa bc bd
       -0.015509278 -0.12155796 0.13943796 -0.092122786
000360 a0 88 3a 3d bd 1e 27 3e 2d 66 24 be 70 9a b9 3c
       0.045540452 0.1632032 -0.16054602 0.02265665
000370 8e c2 ba 3d 71 81 03 be 6e 77 04 be 30 60 a7 3c
       0.091191396 -0.12842347 -0.12936184 0.020431608
000380 70 35 f1 bc 1e 2c ff bd bc cf d0 bd 00 2b 66 bc
       -0.029444426 -0.124595866 -0.10195872 -0.014048338
000390 80 8d 57 3b 26 fb b0 bd 50 90 24 bd bd 60 cf bd
       0.0032890737 -0.08641653 -0.04017669 -0.10125873
0003a0 1a 41 eb 3d 18 07 ff bc 78 d1 ca bd 58 9b 70 3d
       0.114870265 -0.031131312 -0.09903234 0.058741897
0003b0 b2 6a d1 3d 60 fd 12 3d d8 01 d7 3c 80 b3 e8 bc
       0.10225429 0.03588617 0.026245996 -0.028405905
0003c0 bc 82 94 bd 31 3e 01 3e 50 a8 40 3c 92 99 06 be
       -0.07251498 0.1262138 0.011758879 -0.1314452
0003d0 60 1f 01 bc c8 5b 32 bd a0 c3 74 3d 55 1f ec bd
       -0.007881016 -0.04354456 0.059756875 -0.115294136
0003e0 c2 3f 2c be 60 b3 16 bd e8 17 1a be 03 30 d3 bd
       -0.16821197 -0.03679216 -0.15048182 -0.10311892
0003f0 7e 3f 8a 3d e6 0b a4 bd e8 aa b3 3c 1b a1 2b be
       0.067503914 -0.08010082 0.02193208 -0.16760676

weight f4 [32, 128]
000000 ee a6 1b 3d 34 bd b9 bc 68 95 15 bc e4 9c 9a 3c
       0.038000993 -0.022673227 -0.0091298595 0.01887364
000010 0f 9b 8c 3d b8 cb 2c 3c 59 06 14 bd a8 9f e2 3c
       0.068655126 0.010546617 -0.036138866 0.02766402
000020 40 3a 8d ba 8d 98 b2 bd 32 cb 78 3d 0e ad 73 3d
       -0.0010774806 -0.08720503 0.060740657 0.05949121
000030 51 34 28 bd d4 ed a5 bd f9 c1 45 bd 38 02 1e bd
       -0.041065518 -0.08102003 -0.04828069 -0.038576335
000040 39 c0 a8 bd c6 2e 6f bd 6f bd 8d 3d 86 8d 13 3d
       -0.082397886 -0.058394216 0.06920897 0.03602364
000050 80 db b4 bc b0 08 c2 bb 70 d8 86 bb 1e 4b 1a bd
       -0.022077322 -0.005921446 -0.004115157 -0.037669294
000060 68 fb af bd 9c c5 e7 3c 57 3c b2 bd e6 67 3d 3d
       -0.08592874 0.02829247 -0.08702915 0.046241663
000070 c8 b9 b6 bc ee f8 7a 3d 9c b7 a3 bc c8 f3 6f bd
       -0.022305384 0.061272554 -0.019985013 -0.058582097
000080 f0 02 68 bc a8 83 a9 bd 21 9b 8a 3d d6 ef 37 3d
       -0.014160857 -0.082770646 0.0676787 0.04490646
000090 0e 45 23 3d bd 57 ae bd bc f6 db 3c 78 29 75 3c
       0.039860778 -0.085128285 0.02685105 0.0149635
0000a0 b2 44 73 bd ac 5d ac 3c c8 a8 8d 3c 73 65 84 bd
       -0.059391685 0.02104076 0.017292395 -0.064646624
0000b0 40 fb 06 bc f3 4a 84 3d 3e 3f 7a bd b4 44 89 3c
       -0.008238614 0.06459608 -0.06109547 0.016756393
0000c0 b8 34 be 3c 20 51 23 3b f0 f5 bd 3c dc eb bf 3c
       0.023218498 0.002492018 0.023188561 0.023427896
0000d0 56 44 51 3d 97 23 a8 bd 62 ce 7e 3d e2 9f a6 bd
       0.05109056 -0.08209913 0.06220854 -0.08135964
0000e0 a6 45 6b 3d 67 10 9a 3d 19 44 b1 bd 3a 7a 66 3d
       0.05743947 0.0752266 -0.08655567 0.056268908
0000f0 fc c8 26 bd b3 08 b4 3d 1d 62 b4 3d 18 14 91 bc
       -0.040719017 0.08790722 0.08807776 -0.017709777
000100 c0 27 8f bb fb 86 9d 3d 42 fb 39 3d 96 5c a7 bd
       -0.0043687522 0.07691761 0.045405634 -0.08171956
000110 a3 85 92 3d 22 ff d6 bc 6b 16 ab 3d 6b 19 b2 3d
       0.071543954 -0.026244704 0.08353885 0.08696254
000120 2a b6 a2 bd e1 dc 16 bd 5e 07 9d bd 06 2d 5f 3d
       -0.07944901 -0.03683174 -0.07667421 0.054486297
000130 60 69 eb 3b 04 35 82 bc 08 48 53 bd 12 ab 36 bd
       0.0071841925 -0.01589442 -0.051582366 -0.04459674
000140 60 6d 01 3b c2 ef 08 3d 04 7e a5 bc 00 88 a4 39
       0.001974903 0.033431776 -0.02020169 0.00031381845
000150 e9 9c b2 bd 3d 1b 9a bd 20 da 05 3c e8 c1 c9 3c
       -0.087213345 -0.075247265 0.008169681 0.024628595
000160 c7 9b 6f bd 14 3e f7 bc 8c 95 4f bd 38 e5 75 bd
       -0.05849817 -0.030180968 -0.05067973 -0.060033053
000170 50 a9 c0 bc 1d 46 a9 3d a4 6d a9 bd 45 c1 9a 3d
       -0.023518234 0.08265326 -0.082728654 0.075563945
000180 00 3f 52 bb 10 83 8a bd a0 91 af 3b 4c e6 e8 3c
       -0.0032081008 -0.067632794 0.005357936 0.028430127
000190 35 59 a3 bd ee 9e 68 3d d3 99 01 bd 20 2b 0d bc
       -0.07975999 0.056792192 -0.03164084 -0.008616239
0001a0 7a 1f 67 3d f8 56 ad bc c8 87 6a 3c f9 5f 49 bd
       0.056426503 -0.021159634 0.014314599 -0.049163792
0001b0 e0 6f f0 bc ac 19 ac bd e1 c0 80 3d a8 06 db 3c
       -0.029350221 -0.08403334 0.06286789 0.026736572
0001c0 6f 55 a0 3d 14 10 1d bd 89 fe 9d bd b0 51 8b 3c
       0.07828795 -0.03834541 -0.07714564 0.017006725
0001d0 1f 9f 86 3d 80 05 bd 3b 9a 31 fd bc 00 ca 79 b9
       0.06573319 0.005768478 -0.03090744 -0.00023821741
0001e0 78 77 a3 bc 80 dc e3 3b 6c 5e 2c bd 2d d6 9e bd
       -0.019954428 0.006953776 -0.042082235 -0.077556945
0001f0 e9 32 b2 bd 00 92 b6 b9 c3 e2 80 bd 30 64 98 bc
       -0.087011166 -0.00034822524 -0.06293251 -0.01860246
000200 a8 32 f6 bc 80 98 d5 3b cc 85 ba bc 8f 65 87 3d
       -0.030053452 0.0065184236 -0.022768877 0.06611168
000210 99 ac 7f bd 3c 44 2b bd f8 46 08 bc 8b 89 82 3d
       -0.06242046 -0.04181312 -0.0083177015 0.063738905
000220 d8 a7 8c bc 00 a7 b2 3a 46 a4 94 bd f8 2b 05 bc
       -0.017169878 0.0013630092 -0.07257895 -0.008128159
000230 33 69 36 bd 99 72 3f bd 82 a5 5d bd 32 97 17 3d
       -0.04453392 -0.04674015 -0.05411292 0.037009425
000240 20 2f c6 bc 68 14 e0 3c 14 3c 8d bc 8b da b2 3d
       -0.024192393 0.02735348 -0.017240562 0.0873309
000250 7a 9c 18 3d b4 1c a5 3c 10 13 f9 bb 9d f0 84 3d
       0.037258603 0.020155288 -0.0076011494 0.06491206
000260 7b 59 80 3d 57 04 3e bd 10 47 2b 3c 2a f7 71 3d
       0.06267067 -0.046390858 0.010453954 0.059073605
000270 09 d6 9f 3d 38 1e c4 3c d6 e0 31 bd 78 e5 f2 3c
       0.07804496 0.02394019 -0.04342731 0.029650435
000280 ac 4b 9e 3c cc f3 b8 3c e4 d9 0f 3d 0c 6b 14 bd
       0.019323193 0.022577189 0.035119906 -0.0362349
000290 71 0d ac 3d 2d dc 87 3d 50 a4 e5 bb cb 07 91 3d
       0.08401001 0.06633792 -0.007008113 0.070815645
0002a0 90 6a fa 3b 54 cd d2 3c d0 fb 4b bd 8f 60 a2 bd
       0.007642098 0.025732674 -0.049800694 -0.07928573
0002b0 ba 00 7d 3d 2a 87 54 3d f0 ab e2 3c 7b 8c aa bd
       0.06176827 0.051886715 0.027669877 -0.08327576
0002c0 03 8a 98 3d 52 8e f1 bc d5 89 aa bd 70 30 a7 bd
       0.07448199 -0.029486809 -0.083270706 -0.081635356
0002d0 1d 60 aa 3d c5 d2 93 bd f9 d4 35 bd 5c 2d d0 bc
       0.083191134 -0.072179355 -0.04439256 -0.025412254
0002e0 aa 48 1b 3d 00 82 fd 3b 46 8c 27 3d 39 60 93 bd
       0.037911095 0.0077364445 0.04090526 -0.071960874
0002f0 47 88 9c bd eb 8f 89 3d 00 b5 5b bc 50 53 96 bb
       -0.0764318 0.06716903 -0.013409853 -0.0045875683
000300 90 a4 c2 bb 23 45 8c bd a8 00 27 bc d1 6f ab 3d
       -0.0059400275 -0.06849124 -0.010193028 0.08370937
000310 cd ac 82 3d 67 f0 87 bd ca e4 ec bc ee ee 61 3d
       0.063806154 -0.0663765 -0.028917689 0.0551595
000320 68 00 80 3c 57 70 6a bd 12 be 30 3d 9c 57 b1 bc
       0.015625194 -0.057236042 0.043150015 -0.02164822
000330 5d 11 b3 bd 48 00 e8 3c 50 f9 49 bc f9 18 87 bd
       -0.08743546 0.028320447 -0.012327507 -0.0659656
000340 de 45 a3 bd 1e c3 9b bd 24 3b 7b bd 40 8e d9 3c
       -0.079723105 -0.07605575 -0.061335698 0.026557088
000350 0c 52 89 bd 20 4b 8c bd bb c9 99 3d 30 47 88 bd
       -0.06705102 -0.068502665 0.0750918 -0.06654203
000360 fa 1c a2 bd 17 ad 94 3d 80 8c aa bc aa b7 73 bd
       -0.07915683 0.07259577 -0.020818949 -0.059501328
000370 14 02 e8 3c 33 82 b2 bd f5 91 a5 bd b6 97 9b bd
       0.028321303 -0.0871624 -0.0808448 -0.07597296
000380 b8 f9 6a bc 64 32 55 bd b4 f4 20 bd c3 7c ae bd
       -0.014341764 -0.05205001 -0.039295867 -0.0851989
000390 08 9d 28 bc 50 0d fb bc 6e 04 63 bd 2b f1 9a 3d
       -0.010291345 -0.030645996 -0.055424146 0.075655304
0003a0 e1 07 ad bd e2 c0 60 3d 40 bb 89 bb d0 9c 48 bc
       -0.084487684 0.054871447 -0.00420323 -0.012244418
0003b0 4b 9e 46 bd 60 91 9c 3b b1 74 ad bd 6c 75 6c bd
       -0.048490804 0.0047780722 -0.08469523 -0.05772917
0003c0 1e 9f 62 bd 2a d6 34 3d 63 d4 48 bd 28 81 ce 3c
       -0.055327527 0.044149555 -0.049030673 0.02520807
0003d0 ef 3c 54 bd 5c 5b c7 bc 71 80 af 3d e6 6d 6b 3d
       -0.051815923 -0.024335556 0.0856942 0.057477854
0003e0 f1 b7 49 bd 95 f1 a4 bd 1c 8b d6 3c c6 e4 a8 bd
       -0.049247686 -0.080538906 0.02618938 -0.0824676
0003f0 02 a7 54 3d bc 61 fc 3c 94 c6 bb 3c 02 1d 07 3d
       0.051917084 0.030808322 0.022921838 0.03298665

bias f4 [32]
000000 3b e9 aa bd b1 13 28 bd 10 92 67 bc 41 18 85 bd
       -0.083452664 -0.041034404 -0.014133945 -0.06498767
000010 07 ec ad 3d 6b 45 a4 bd 98 f4 bd 3c ac 00 14 3d
       0.08492284 -0.08021053 0.02318792 0.036133453
000020 2c 58 b1 bd 42 f3 83 bd 38 12 0b 3c 22 10 54 3d
       -0.086593956 -0.06442882 0.00848823 0.051773198
000030 52 27 46 3d 28 8a 13 bc 70 7a 96 bd 40 12 94 bc
       0.048377343 -0.009005107 -0.07347572 -0.018075109
000040 18 96 0d bd 60 d8 30 bc ce 84 4c bd c4 1e 8f bc
       -0.03456697 -0.010793775 -0.04993134 -0.017470725
000050 3c 72 ab bd cc e3 ac bc ab ff a2 3d 2a 32 eb bc
       -0.08371398 -0.021104716 0.07958921 -0.028710444
000060 d7 1a 1f bd 05 15 9d bd 04 72 c7 bc 46 2a 3f 3d
       -0.038843956 -0.07670025 -0.02434636 0.046671174
000070 d2 90 66 3d f2 43 7f bd b8 54 6c 3c 88 05 31 3c
       0.056290455 -0.062320657 0.014424495 0.010804541

weight f4 [32]
000000 00 00 80 3f 00 00 80 3f 00 00 80 3f 00 00 80 3f
       1.0 1.0 1.0 1.0
000010 00 00 80 3f 00 00 80 3f 00 00 80 3f 00 00 80 3f
       1.0 1.0 1.0 1.0
000020 00 00 80 3f 00 00 80 3f 00 00 80 3f 00 00 80 3f
       1.0 1.0 1.0 1.0
000030 00 00 80 3f 00 00 80 3f 00 00 80 3f 00 00 80 3f
       1.0 1.0 1.0 1.0
000040 00 00 80 3f 00 00 80 3f 00 00 80 3f 00 00 80 3f
       1.0 1.0 1.0 1.0
000050 00 00 80 3f 00 00 80 3f 00 00 80 3f 00 00 80 3f
       1.0 1.0 1.0 1.0
000060 00 00 80 3f 00 00 80 3f 00 00 80 3f 00 00 80 3f
       1.0 1.0 1.0 1.0
000070 00 00 80 3f 00 00 80 3f 00 00 80 3f 00 00 80 3f
       1.0 1.0 1.0 1.0

bias f4 [32]
000000 00 00 00 00 00 00 00 00 00 00 00 00 00 00 00 00
       0.0 0.0 0.0 0.0
000010 00 00 00 00 00 00 00 00 00 00 00 00 00 00 00 00
       0.0 0.0 0.0 0.0
000020 00 00 00 00 00 00 00 00 00 00 00 00 00 00 00 00
       0.0 0.0 0.0 0.0
000030 00 00 00 00 00 00 00 00 00 00 00 00 00 00 00 00
       0.0 0.0 0.0 0.0
000040 00 00 00 00 00 00 00 00 00 00 00 00 00 00 00 00
       0.0 0.0 0.0 0.0
000050 00 00 00 00 00 00 00 00 00 00 00 00 00 00 00 00
       0.0 0.0 0.0 0.0
000060 00 00 00 00 00 00 00 00 00 00 00 00 00 00 00 00
       0.0 0.0 0.0 0.0
000070 00 00 00 00 00 00 00 00 00 00 00 00 00 00 00 00
       0.0 0.0 0.0 0.0

weight f4 [384, 32]
000000 fa 8a 8f 3d 80 e8 a5 ba 59 ab 96 bd ca c2 16 be
       0.070089296 -0.0012657791 -0.07356901 -0.14722744
000010 61 09 14 3e 16 0a 32 be b2 23 34 be c0 69 27 bb
       0.14456703 -0.1738666 -0.17591742 -0.002554521
000020 70 ca c9 bc ee c6 c0 3d 38 e0 c8 3c 7c 70 c4 bd
       -0.024632663 0.09412943 0.024520978 -0.09591767
000030 fd e3 1f 3e 59 a7 34 3e 31 6d 05 3e 58 09 ff bd
       0.15614314 0.17641963 0.13029934 -0.12452954
000040 be 65 8e bd fa 91 e4 3d 81 09 1e 3e e5 42 31 3e
       -0.069529995 0.11160655 0.15433313 0.17310674
000050 22 79 9b 3d 40 48 d9 3b 38 21 2c 3d fb 07 a1 bd
       0.075914636 0.0066309273 0.042023867 -0.0786285
000060 e9 19 2a be 86 e2 f5 bd 1b b3 c0 bd 08 e6 a0 bd
       -0.16611446 -0.120060965 -0.09409162 -0.07856375
000070 90 e2 93 3d 20 47 c0 bb 80 c8 76 3b 80 85 47 bb
       0.07220948 -0.0058678538 0.0037656128 -0.0030444562
000080 7c 74 3b 3d 56 e0 a3 bd 80 af d7 3c 7b c4 20 3e
       0.045765385 -0.08001773 0.026328802 0.15699951
000090 18 83 97 bd cc ec 3b 3d 80 b6 5a 3d 46 7f 26 be
       -0.07398051 0.045880124 0.0533967 -0.16259488
0000a0 ac fc f4 bd 17 cb 05 3e 00 8c 0a bb d6 44 a1 bd
       -0.11962256 0.13065754 -0.0021140575 -0.078744575
0000b0 e8 35 8d 3c 34 5c 37 bd 78 10 0a 3d e0 94 4d bc
       0.017237619 -0.044765666 0.033707112 -0.012547702
0000c0 d2 61 92 3d 5f d7 e3 bd 90 c9 20 3d 40 cc ac bb
       0.07147564 -0.11125063 0.039254725 -0.005273372
0000d0 80 97 7b bb 40 79 2d be c6 c9 90 bd e0 98 b7 3b
       -0.0038389862 -0.16940784 -0.07069735 0.005602941
0000e0 00 dd c0 3a 77 91 0a be 38 08 4f bd 50 a3 2d bc
       0.0014714301 -0.13532053 -0.050544947 -0.010598019
0000f0 85 0d 26 be 38 8d ed bc bd 87 ad bd 01 99 b0 bd
       -0.16216095 -0.028998002 -0.08473156 -0.08622933
000100 fe a8 d9 3d 09 b1 1f 3e 20 7e cc bc a8 6d 83 3d
       0.10627936 0.15594877 -0.024962485 0.064174
000110 34 16 a3 bd 42 eb f9 3d 9a d4 9d bd da 00 d4 3d
       -0.07963219 0.12203075 -0.07706566 0.10351725
000120 0d 8e 2e 3e 48 4f 25 3d 2a 53 c8 3d ce d9 ae bd
       0.17046376 0.04035881 0.09781487 -0.08537637
000130 dc f5 48 bd 4f de bf bd 88 8d 7e 3d 11 b8 28 be
       -0.049062595 -0.09368574 0.062146693 -0.16476466
000140 fb b0 25 3e 0c 1d 21 be a4 42 17 3d e0 51 c7 bd
       0.16180794 -0.15733737 0.036928788 -0.09732413
000150 96 6b cd bd d9 46 b0 bd 4c 3b ff bd c2 c3 ba 3d
       -0.10030286 -0.08607263 -0.12462482 0.09119369
000160 d2 d0 d3 3d e0 37 c8 bb 80 a2 02 3d 9e 14 1f be
       0.10342564 -0.0061101764 0.031893253 -0.15535209
000170 e8 87 ec bc e3 0d 1d 3e 96 c5 05 be 22 d3 b8 3d
       -0.028873399 0.15337329 -0.13063654 0.090246454
000180 69 77 06 be f8 cd f3 3c a0 96 9e bc 4c 7a cc bd
       -0.13131489 0.0297613 -0.019358933 -0.09984264
000190 40 66 72 bc 5f 0b cc bd 10 4c 2d bc b7 32 01 be
       -0.014794886 -0.09963106 -0.010577217 -0.12617002
0001a0 29 0b 11 be 48 61 08 3d a9 4d cc bd ec 3c 3d bd
       -0.14164414 0.0332959 -0.0997575 -0.046200678
0001b0 72 31 f5 bd 56 36 e5 3d 4d bd 2f 3e 98 19 e4 bc
       -0.119723216 0.111920044 0.17162056 -0.027844235
0001c0 d0 da 8e bd 10 c4 e2 3c 93 bb 25 3e 8f b4 13 3e
       -0.06975329 0.02768138 0.16184835 0.14424346
0001d0 3c a8 24 be 40 50 35 3b 9b 35 83 bd c3 ea 9b bd
       -0.16079801 0.002766624 -0.06406709 -0.076131366
0001e0 29 db 84 bd 82 7a a1 3d 5c da 03 be 12 86 b3 3d
       -0.06487114 0.07884695 -0.12876266 0.08765806
0001f0 1e a0 a8 bd fd 8e ec bd 28 0c 38 bd a6 62 b9 3d
       -0.08233665 -0.1155071 -0.044933468 0.09052019
000200 d1 2b 08 3e e3 a0 b1 bd c4 97 3d 3d 00 b0 9c 3a
       0.13297965 -0.08673265 0.046287313 0.0011954308
000210 a0 3f 0d 3d 90 c6 9e bc ab 17 0c 3e 20 04 48 3d
       0.034484506 -0.019381791 0.13680904 0.04883206
000220 6e 25 d8 3d 62 98 a2 bd af 11 96 bd 7e 64 d9 3d
       0.10554014 -0.07939221 -0.07327592 0.106148705
000230 a5 3e ee bd ac 5c 13 be 92 f0 2f be 16 38 b5 3d
       -0.11633042 -0.1439082 -0.17181614 0.08848588
000240 d9 02 db bd 80 ca 9b bd e2 d8 f5 3d a3 45 18 3e
       -0.106939025 -0.07606983 0.12004258 0.14870314
000250 83 ce 13 3e 08 a9 97 3c d9 c7 13 3e 1a c7 e6 bd
       0.14434247 0.018513218 0.14431705 -0.11268444
000260 30 4d 0a bd 95 60 17 be 32 a3 15 be 5f 44 0a 3e
       -0.033765018 -0.14782937 -0.14613035 0.13502644
000270 f7 4f 2b be 47 ca aa bd c0 e0 57 bb 2c ce 6a bd
       -0.16729723 -0.083393626 -0.0032940358 -0.057325527
000280 ee f2 92 3d 60 1e bd bd ac 37 0a be 9e d0 9d 3d
       0.071752414 -0.09234309 -0.134978 0.07705806
000290 78 55 7a 3d da 2c ea 3d d9 db 27 3e 7e d6 f8 3d
       0.061116666 0.11434336 0.16392459 0.12150286
0002a0 80 04 25 bc 10 2b 08 3c 46 a7 bc 3d 20 c4 93 bd
       -0.010071874 0.008311048 0.092115924 -0.07215142
0002b0 29 01 2f 3e 76 ea 9a 3d ee fb 86 3d b6 29 9c 3d
       0.17090286 0.07564251 0.065910205 0.07625143
0002c0 98 d3 f8 bd ae 16 ee 3d 50 e4 0d be 77 4b 9d bd
       -0.12149733 0.116254196 -0.13856626 -0.076804094
0002d0 78 19 6e 3d 33 5c 2b 3e 88 ed c7 bc 06 50 7f bd
       0.058129758 0.1673439 -0.024405256 -0.062332176
0002e0 f0 30 88 3d 9e f2 c0 3d 30 64 98 3c 8c 2b 04 be
       0.06649959 0.094212756 0.01860246 -0.12907237
0002f0 f0 57 31 3c 42 62 e5 bd 2c ba 06 bd 61 e0 21 be
       0.010824189 -0.11200382 -0.03289239 -0.1580825
000300 40 38 f6 3b 60 86 0c be 38 81 c7 bd 58 a5 ed 3c
       0.0075140297 -0.13723135 -0.097414434 0.029009506
000310 80 d5 42 3b 91 b4 01 3e 50 e4 76 3d 6e 3a 56 bd
       0.0029729307 0.12666537 0.06027633 -0.052301817
000320 a6 10 f6 3d 17 03 cb bd 40 5b 61 bc 61 6d d7 bd
       0.12014894 -0.09912699 -0.013754666 -0.10518909
000330 c0 e3 a7 bb f1 07 24 3e fa 9f c0 3d 7e 2a b6 3d
       -0.0051235855 0.16018654 0.09405513 0.088948235
000340 ec ad 13 3d eb d9 29 be 2b 77 9e bd e0 04 af bb
       0.036054537 -0.16587035 -0.07737573 -0.0053411573
000350 66 62 cf 3d 33 9d 24 3e d8 00 80 bc 82 8e fd 3d
       0.1012619 0.16075592 -0.015625402 0.12380697
000360 00 ee 02 bc 3e 54 cc 3d 9e 4b a9 3d bd 8b 17 3e
       -0.007991314 0.099770054 0.08266376 0.147994
000370 70 4c e4 bc 98 57 c1 bd 94 12 14 bd 64 e2 1b bd
       -0.02786848 -0.09440535 -0.03615053 -0.0380577
000380 e0 a2 a7 bc ab 3f 20 be 60 74 66 3d fd c0 34 3e
       -0.020463407 -0.15649287 0.056263328 0.17651744
000390 d1 3a 05 3e e9 5f 1b be 3f a9 1c be de b9 aa 3d
       0.13010718 -0.15173306 -0.15298937 0.083362326
0003a0 0b bd d0 bd 30 48 87 3c 40 ed d7 3b bf 74 e6 bd
       -0.10192307 0.016513914 0.0065895617 -0.11252736
0003b0 b7 24 13 3e 56 52 a3 3d 80 1b b0 bb 94 60 0c be
       0.14369474 0.07974689 -0.005374372 -0.13708717
0003c0 b2 9d 91 bd 82 26 e8 3d 58 ac 72 3d 60 b9 54 bc
       -0.07110156 0.1133547 0.05924639 -0.01298365
0003d0 5c 25 0c 3d ce de ce bd 2a 42 a3 bd f8 0b 8c 3d
       0.034215316 -0.1010109 -0.07971604 0.0683822
0003e0 ac 9e 00 bd 62 ea 33 be 44 cf 50 bd fe f4 63 bd
       -0.03140132 -0.17569879 -0.050978914 -0.055653565
0003f0 dd e8 0a be d3 a6 13 3e 9c 19 2c be 10 37 fe bc
       -0.13565393 0.14419107 -0.16806644 -0.031032115
